ARES-4573/checkpoints/model_GAE_DARPA.pt (torch, 18049 bytes, 15 tensors)

encoder.convs.0.lin_l.weight f4 [16, 32]
000000 d0 d9 9c 3d d4 ed c9 3d 69 5c 5a 3e f0 45 79 bd
       0.07658732 0.09859815 0.21324314 -0.060857713
000010 5f 0e ed bd 31 10 e8 bd 62 50 8f 3d 37 ca b3 bd
       -0.11575007 -0.11331213 0.06997754 -0.08778804
000020 52 c3 62 3c 61 c0 13 bd a5 f2 a0 3d b0 2e a1 bd
       0.013840513 -0.03607214 0.07858781 -0.07870233
000030 0f 50 1f 3e 21 26 02 be 9f f6 4d bd 4b 12 aa 3d
       0.15557884 -0.12709858 -0.050284024 0.0830427
000040 b2 5d 02 be b9 99 b8 3d 84 51 a0 bc 97 f7 2e bd
       -0.12731054 0.09013695 -0.01957012 -0.04271659
000050 3e 71 31 3e fd 47 2c bc 1a f3 b4 3d 94 b6 b1 bc
       0.17328355 -0.01051521 0.088354304 -0.021693505
000060 2b 5d 04 3e c7 87 54 3e 13 73 5d 3e a6 43 77 bd
       0.12926166 0.2075492 0.21625929 -0.06036725
000070 37 42 04 be 42 cd 9d bd 7c 5a c5 3d 92 b4 f0 3d
       -0.12915884 -0.077051654 0.09636399 0.11753191
000080 56 73 66 3e a7 fb 55 3e ed bc 9b 3e 89 8a f2 ba
       0.22504935 0.20896779 0.30417576 -0.0018504421
000090 b3 3f d1 bb 58 61 9d 3d 72 f0 89 3e 8b de 67 bb
       -0.0063857674 0.076845825 0.26941258 -0.0035380449
0000a0 2c 8c 87 3e 35 7f 25 3e 75 59 77 3e 4e 5c 9d 3e
       0.2647413 0.16161807 0.24155219 0.30734485
0000b0 ad c8 9b 3e 03 94 9a 3e 94 e8 b5 3d b6 87 68 3d
       0.3042654 0.3019105 0.088822514 0.05677005
0000c0 ce 39 54 3e 6f df 90 3e 31 e2 0b 3e 8a 0d b9 3d
       0.20725176 0.28295466 0.13660504 0.090357855
0000d0 8d 32 d4 3d 5f 87 8d 3d a6 4b 5e 3e 60 a5 32 bd
       0.10361204 0.069105856 0.21708545 -0.043614745
0000e0 6c b4 90 3e 9d ba 00 3e 05 21 cd 3c df 9c 8d 3d
       0.2826265 0.12571187 0.025040159 0.069146864
0000f0 b7 0f c2 3c 80 51 af bc 5b 97 19 3e ff 87 bc 3d
       0.023689134 -0.021401167 0.14999144 0.09205627
000100 3e 42 e8 bd 7e 66 83 bd 74 51 6f bd 84 84 33 3d
       -0.1134076 -0.06416033 -0.05842729 0.04382755
000110 be 4c 35 be 82 76 1c bd 0f 5e 15 bd f9 d9 36 be
       -0.17705056 -0.038198955 -0.036466654 -0.17856587
000120 fa fd 03 3e 24 5f f1 bd c8 7d d9 3d 16 c1 cf 3d
       0.12889853 -0.11785725 0.10619694 0.1014425
000130 39 c0 ef bc 47 d4 c7 3d 81 16 2b be f8 13 5b bd
       -0.029266464 0.097572856 -0.16707803 -0.05348584
000140 47 31 38 be a3 11 11 be 33 90 b2 3c 19 08 c8 3d
       -0.17987548 -0.14166884 0.021797275 0.097671695
000150 02 4b 0e be 2c 07 d8 bd 76 5e 08 be 0d 65 4a bd
       -0.138958 -0.10548243 -0.13317284 -0.049412776
000160 c7 3a 39 be 22 26 32 be b4 81 94 bd 95 0d 0b 3e
       -0.18088828 -0.17397359 -0.072513014 0.135794
000170 b6 09 6c bb 92 71 dc bd 95 48 ac 3d 46 76 c5 3d
       -0.003601653 -0.10763849 0.084122814 0.096416995
000180 bf 53 8f 3e 71 9f 24 3e b8 53 0f 3e 03 42 8c 3e
       0.2799358 0.16076447 0.1399678 0.27394113
000190 6f 1f 82 3e ca 18 96 3e d9 a7 92 3e 86 1c df 3d
       0.25414607 0.29315788 0.28643683 0.10894112
0001a0 1f 21 9e 3e bb 5a 46 3e 3b 94 ab 3e 7f 82 ab 3e
       0.30884644 0.19370548 0.33511528 0.33497998
0001b0 9a 60 9d 3e ce b7 8d 3e f8 88 98 3e 24 b6 9b 3d
       0.30737764 0.27679294 0.29792 0.076031
0001c0 97 ef b8 3d 9e 80 f1 3d f2 92 8c 3d a9 f7 93 3e
       0.09030073 0.1179211 0.06863965 0.28899887
0001d0 37 dc 33 3e 5c 2e ea 3d a5 ab a3 3d d1 0d e3 3a
       0.17564474 0.114346236 0.07991723 0.0017322843
0001e0 23 ed 2f 3e d4 07 a1 3e 59 fb 8c 3e b9 34 99 3e
       0.17180304 0.31451285 0.27535513 0.29923037
0001f0 0a 4f 8f 3e 60 1c 6f 3e ad b9 1d 3e e6 31 e8 3c
       0.2798999 0.23350668 0.15402861 0.028344106
000200 c9 43 37 3e c5 6a 9a bd 70 b9 6a bd 5b 9e f5 3d
       0.17896952 -0.07539896 -0.057305753 0.119930945
000210 35 96 15 3e e8 1c 30 bd 69 bb 24 3e f1 79 ee bd
       0.1460808 -0.042996317 0.16087116 -0.11644352
000220 48 9e ba 3d 02 16 02 3e 49 97 a7 3d 51 c1 4e bd
       0.09112221 0.12703708 0.08183152 -0.05047733
000230 1c 28 90 bd c1 d9 42 3e 71 1a b4 3d 87 c2 dc bc
       -0.070389 0.19028379 0.08794106 -0.026948227
000240 3c 87 60 3e b3 33 46 3c 8f 95 85 3c d1 87 c1 3d
       0.21926588 0.012097287 0.016306667 0.09449733
000250 37 e1 48 3e f8 44 f3 bc ac 56 4c 3d 16 c4 f8 bc
       0.19617163 -0.029695973 0.049887344 -0.030366939
000260 90 8d fe bc a8 f9 cb 3c 38 f1 47 3d 03 3c 13 3e
       -0.031073362 0.024899319 0.04881403 0.14378361
000270 aa 13 aa bd e9 37 1b 3e db 98 3f 3e 37 49 ec 3c
       -0.08304532 0.15158047 0.18710653 0.028843505
000280 f8 cd 9e bd 94 5f 94 bc ea e9 64 be 59 05 8c 3d
       -0.07754129 -0.018111981 -0.22354856 0.068369575
000290 f9 b4 bd bd 7b a0 5f bd 75 10 b5 3c be 03 43 3c
       -0.092630334 -0.054596405 0.022102574 0.011902748
0002a0 f9 f1 12 be 0b 26 44 be 48 d1 6d be e9 57 56 be
       -0.14350118 -0.19155137 -0.23224366 -0.20931973
0002b0 2d 7b ca bd 6c b7 4b be 13 ee a2 bd 7a d2 1e be
       -0.09886775 -0.19894189 -0.07955565 -0.15509978
0002c0 09 8a 1d 3d 3b 87 72 3d a0 e9 b3 3d 0d e4 35 be
       0.03846172 0.059210997 0.08784795 -0.17762776
0002d0 3c ef 3e be 1d 9f c8 b9 b7 0c d1 bd 73 30 94 3d
       -0.18645948 -0.0003826552 -0.10207503 0.072358035
0002e0 e9 40 65 be 85 5b d1 3d cd be 3c be 61 59 50 be
       -0.22388043 0.10222534 -0.1843216 -0.20346595
0002f0 dc c3 a4 bd 1f 61 0f be d0 4c 31 be 63 a2 20 3d
       -0.0804517 -0.14001893 -0.17314458 0.039217364
000300 f2 e7 06 3e fb c4 bf 3d 53 91 89 3c 0a 96 f7 bc
       0.13174418 0.09363743 0.016792929 -0.030222911
000310 08 55 cf bd 6f a2 27 3e 22 fc ce bd e8 9c 23 be
       -0.1012364 0.16370557 -0.10106684 -0.15977824
000320 7a ae 14 3e 9d fc 9b bc 76 76 e9 3d bd f6 81 bd
       0.14519683 -0.019041354 0.11399548 -0.0634589
000330 68 17 08 3e 8c 8c 04 be f6 11 d0 3d 83 fd 07 3e
       0.13290179 -0.1294424 0.10159676 0.13280301
000340 fc c3 ed bb d8 4a e6 3d 30 18 c3 3a 04 a3 2a be
       -0.007256029 0.11244744 0.0014884528 -0.16663748
000350 ee ce 94 3d aa 9f 11 be 5b 16 4a 3a 17 bb 27 be
       0.07266031 -0.14221063 0.00077090197 -0.16379963
000360 fc 2b b6 bd 6c 58 6b bd 5a 7e 96 bd ac 36 37 be
       -0.08895108 -0.057457373 -0.073483184 -0.1789195
000370 4f 9e bd bd 91 a0 2c be f1 3b 1c be 92 7f 39 be
       -0.092587106 -0.16858126 -0.15257241 -0.1811507
000380 bb 2c 20 be 03 eb c0 bd 60 5c d6 3d bc 3e 37 be
       -0.15642063 -0.09419825 0.10466838 -0.17895025
000390 9a 8c 41 be b1 41 4b be f7 e8 e2 3d 25 17 9e bd
       -0.18901291 -0.19849278 0.11079591 -0.07719258
0003a0 6a 1d d0 bd 76 6c 2d 3d c0 d9 22 be ca 78 cf bd
       -0.1016186 0.042339765 -0.15903378 -0.101304606
0003b0 67 0b dc 3d 47 12 22 3d 6a 51 44 be 75 4b d3 bd
       0.10744362 0.039568212 -0.19171682 -0.10317127
0003c0 64 7a 18 bd f9 1f 18 3c 43 2d 0b be 97 b4 8d 3d
       -0.037226096 0.009284967 -0.13591485 0.069192104
0003d0 4f 42 54 bd b3 68 54 be 0f 79 ec bb 1b 9f 67 be
       -0.05182105 -0.20743065 -0.0072165797 -0.22619288
0003e0 2a 2c 2d bd c7 ed 6a be 85 0f d7 bd 43 ee c3 bd
       -0.042278446 -0.22942267 -0.10501007 -0.09566929
0003f0 d7 7f 5a be b8 31 d6 bd 71 44 47 bd 70 e2 1d be
       -0.2133783 -0.10458702 -0.048649255 -0.1541841

encoder.convs.0.lin_l.bias f4 [16]
000000 b2 61 59 3e 8d a0 1f 3e 66 71 ce 3d 9f d8 a6 3b
       0.21228674 0.15588589 0.10080223 0.005091741
000010 12 8a 18 3c 75 26 4d bd 8d 41 07 ba f5 2a a5 3e
       0.009310262 -0.050085504 -0.0005159609 0.32259336
000020 81 fd 1b 3e fb ad 09 3e ed d0 87 bd a5 0f 3a 3d
       0.15233423 0.13445275 -0.06631646 0.045425076
000030 23 e1 68 3d f2 31 a3 bb 82 46 35 3e 35 6c 4c 3d
       0.056855332 -0.004980319 0.17702678 0.04990788

encoder.convs.0.lin_r.weight f4 [16, 32]
000000 2f 11 60 3e 64 f8 1c 3e 57 44 30 3e d3 79 9e 3e
       0.21881555 0.15329129 0.1721357 0.3095232
000010 74 55 e2 3d d6 bf b2 3e e1 2b b3 3d 15 27 b2 3e
       0.11051455 0.34911984 0.087486036 0.34795442
000020 0b 4d 80 3e 14 a4 82 3e 78 30 13 3e 16 44 0b 3e
       0.2505878 0.25515807 0.14373958 0.13600191
000030 9e c0 60 3d e0 0f 70 3c 4c ab 9d 3e 8a 18 b6 3e
       0.054871194 0.014652222 0.30794752 0.35565597
000040 9d 81 70 3e 17 95 eb 3d 98 5a 64 3e 60 d1 35 3e
       0.23486944 0.11503046 0.22300184 0.17755651
000050 37 7d 00 3d d4 7d 2e 3d 68 72 7b 3e 77 be 07 3e
       0.031369414 0.042600468 0.24555361 0.1325625
000060 dc 8a 11 3e c0 e9 9e 3d fd 36 86 3e ea 7f c2 3d
       0.14213127 0.07759428 0.26213828 0.09497054
000070 8d c9 02 3e 59 b9 8e 3e e0 4e b5 3e cd fc ae 3e
       0.12772198 0.27875784 0.3541174 0.34177247
000080 7a d4 ef bc 4a 9d bd bd a3 40 0b 3d 15 3d 6b 3d
       -0.029276121 -0.09258516 0.03399719 0.0574313
000090 08 c3 9f bc b4 19 40 bd 8e 59 66 bd 85 a2 a5 bd
       -0.019502178 -0.046899512 -0.05623775 -0.08087639
0000a0 33 f0 91 3c f0 1f 48 bd cf dc 7d be dc 2a 50 be
       0.017814731 -0.048858583 -0.24791263 -0.2032885
0000b0 22 d0 84 be 13 a4 1b be 95 f8 b7 bd f3 fb 31 be
       -0.25940043 -0.15199308 -0.0898296 -0.17381267
0000c0 bc db 85 be 30 f7 5a be f7 93 c1 bc 4e fa e3 bd
       -0.26144207 -0.21383357 -0.023630125 -0.11131726
0000d0 e3 95 03 be 4a dc 8f bd 84 79 0b be 5d e3 47 be
       -0.12850146 -0.07024439 -0.13620573 -0.19520326
0000e0 22 4e 38 be 5a 05 2f be 9b 56 87 be d6 16 86 be
       -0.17998555 -0.17091885 -0.26433262 -0.26189297
0000f0 96 d2 29 be 71 3b 05 bd 5e 95 97 3d 22 46 d4 bd
       -0.16584238 -0.03252739 0.074015364 -0.10364939
000100 c8 41 8a 3e 4c c0 54 3e 7d 96 0b 3c a7 56 79 3d
       0.27003312 0.2077648 0.008519766 0.060873654
000110 b0 74 ce 3d ef ab 6c 3b 98 3f 32 3e eb e4 43 3e
       0.1008085 0.0036113223 0.17407072 0.19130294
000120 98 90 3c 3c 29 98 e5 3d eb c4 d8 bb 41 94 a6 3e
       0.011509083 0.11210663 -0.0066152713 0.32534984
000130 4a fb 81 3e 2f 39 a9 3d fc 41 9a 3e d7 60 1e 3d
       0.2538703 0.0826286 0.30128467 0.038666572
000140 c7 97 98 3e 09 77 a6 3d 4a c9 4d 3e d3 57 8b 3e
       0.29803297 0.08128173 0.20096317 0.27215442
000150 8b 2c 6d 3e 41 c3 44 3e b3 05 04 3e 8c 3a 1a 3e
       0.23161523 0.19215108 0.12892799 0.15061396
000160 f3 ba 99 3e 1a 7a bb 3d 14 54 bc 3d 5a 07 30 3e
       0.30025443 0.091541484 0.09195724 0.17190304
000170 3c 21 82 3d 28 ea a8 3d 90 0a 27 3e ac 84 90 3e
       0.06353995 0.08247787 0.16312623 0.2822622
000180 54 67 74 3d e4 8b db bd 8b c4 de 3d 26 2c 81 bd
       0.059668854 -0.107200414 0.10877331 -0.06307249
000190 79 0d 43 3d 51 d6 4b 3c 84 5c 03 3e a4 68 19 bd
       0.04762027 0.012441234 0.1282826 -0.03745331
0001a0 b8 f1 8e bd 3e ec 07 bd 7d 67 6e 3b 0f b1 a6 bd
       -0.06979698 -0.033184282 0.0036377602 -0.0813924
0001b0 46 fe fc 3d 70 f1 bd bd 0a bb f5 3c e1 e6 08 be
       0.12353186 -0.09274566 0.029996414 -0.13369323
0001c0 71 2d a3 bc 78 b2 13 bd 6c ad 8c bd 3f 6b c1 3d
       -0.01991913 -0.036058873 -0.06869015 0.09444284
0001d0 de 8d 1f be 03 88 a8 3c 06 aa 6d bc 32 20 b8 bd
       -0.15581462 0.020572668 -0.014505869 -0.08990516
0001e0 37 da 0e 3e 69 6f e7 3d eb 20 63 3d ec 3d b3 3b
       0.1395043 0.11300547 0.055451315 0.005470028
0001f0 9b d2 cc 3d 3e de 9a bd b9 38 11 be 3a c9 2f 3e
       0.10001107 -0.075619206 -0.14181794 0.17166606
000200 8d 21 5d 3d 4f 5b 1f 3e 64 52 fd 3d 55 b8 89 3e
       0.053987075 0.15562175 0.123692304 0.26898447
000210 21 8d 97 3e 6e ea a0 3a fb 3a f2 3d 75 ad bd bc
       0.2959986 0.0012276897 0.11827656 -0.023154
000220 42 f6 6f 3e ab f0 93 3e 89 68 57 3d b0 da 1b 3e
       0.23433784 0.28894553 0.052589927 0.15220141
000230 b8 60 a6 3d 53 62 9e 3d ec 63 85 3e ee 92 34 bd
       0.081239164 0.077335976 0.26052797 -0.044085436
000240 15 84 c4 3d 61 9b f4 3d 1a 6e 12 bd cc 7a 45 3e
       0.09595505 0.11943699 -0.035749532 0.19285125
000250 db c2 73 3e af fc a5 bc e9 15 41 3e 01 ab de 3d
       0.238048 -0.02026209 0.18856014 0.1087246
000260 0b 52 92 3e 48 2a 3e bd 50 5d 8a 3e 01 30 5f 3d
       0.2857822 -0.04642704 0.27024317 0.05448914
000270 1c d2 89 3e 37 a8 f5 3c c5 b4 19 3e 0a 46 25 3e
       0.26918113 0.029987438 0.15010364 0.16139999
000280 f7 4e 67 3e 1d da 4b 3e 23 2c 5c 3e 76 cd a1 3d
       0.22588716 0.19907422 0.21501212 0.07900517
000290 90 ae c1 bc a0 37 f2 3d 38 0f 8e 3e 5f cb 89 3e
       -0.023642808 0.11827016 0.27745986 0.26912972
0002a0 bf f0 47 3c 2e 88 73 3e d4 6b 48 3e 89 80 ac 3d
       0.012203394 0.23782417 0.19572383 0.08422954
0002b0 b7 d0 59 3e 25 ea de 3d 6b 0c 0d 3e 41 f1 c8 39
       0.21271025 0.10884503 0.13774268 0.0003832672
0002c0 d5 6d c1 3d c2 1a 94 3e de 25 67 3e 3b 4d da bc
       0.09444777 0.28926665 0.22573039 -0.026648154
0002d0 13 82 d9 3d 3d 50 6a 3e 70 2a 26 3d 98 aa c0 3d
       0.10620513 0.22882171 0.040567815 0.09407538
0002e0 92 4c 51 3e 7d 92 87 3e eb 9e 8d 3e 79 41 3c bc
       0.20439366 0.2647895 0.27660307 -0.011490219
0002f0 e3 3f 4e bd 2e ef 76 3e ba f8 d1 3d 3e 38 8d 3e
       -0.050353896 0.24114677 0.10252519 0.27581972
000300 91 33 cd 3d 5a 1d c1 bd 1e c6 cf 3c d3 0d 0c 3d
       0.10019601 -0.094294265 0.025363024 0.03419287
000310 63 5b b5 bd 65 c0 08 3e 17 8d 30 bc a2 1a aa bd
       -0.08855321 0.13354643 -0.010775826 -0.08305861
000320 38 3b 3f be ab f8 ed 3d 0f 63 4d be c4 c9 df 3d
       -0.18674934 0.11619695 -0.20057319 0.109271556
000330 d6 92 b2 bd ff 1b 6c bd a3 ab b7 ba 58 0e 18 3e
       -0.08719413 -0.057643887 -0.0014012944 0.14849222
000340 3b 0d 11 be db 72 1a be c6 d6 a5 3d fc 9c e3 bd
       -0.14165203 -0.15082876 0.080976054 -0.11113927
000350 f3 01 b9 bd 79 84 9d 3d b2 d8 c9 bd db dd a3 3d
       -0.09033575 0.07691283 -0.098557845 0.080013
000360 ee f9 c0 bd 6f b4 e2 3d 12 71 1a 3e 8e 92 59 ba
       -0.0942267 0.11069571 0.15082195 -0.00082997314
000370 6f 4d ac bd fd e0 97 3d c4 aa c5 3c 8d d1 c8 bc
       -0.08413207 0.0741596 0.024129279 -0.024513984
000380 67 27 8b 3e 53 ae d4 3d 9d 70 34 3e d8 98 7b 3d
       0.271785 0.10384812 0.17621084 0.06142506
000390 1b f0 a7 3d ab 09 da 3d a1 fd 00 3e 65 f9 43 3e
       0.08200093 0.10646375 0.12596752 0.19138105
0003a0 b9 5c 7d 3e 2b c8 63 3e 52 b1 22 3d 4c 88 8b 3e
       0.24742402 0.22244327 0.039719887 0.27252424
0003b0 08 15 6f 3e 0c 11 36 3e ed 90 08 3e 07 d4 65 3c
       0.23347867 0.1777994 0.13336535 0.014027602
0003c0 78 53 0c 3c cc 6f eb 3d a4 ae 8e bc 42 50 34 3e
       0.008564822 0.11495933 -0.01741726 0.17608741
0003d0 78 07 3e bd 02 6d 32 bd 77 04 0e 3d 9e f7 5c 3e
       -0.04639384 -0.04356099 0.034672227 0.21578833
0003e0 3f 46 81 3e c8 5c 0d bd 50 6f 1f 3b 12 f8 1c 3e
       0.25248906 -0.03451231 0.0024327822 0.15329006
0003f0 eb a2 a7 3d c2 48 fc bc 03 19 27 3e c1 75 07 bd
       0.08185371 -0.030796412 0.16318135 -0.033071283

encoder.convs.1.lin_l.weight f4 [16, 16]
000000 77 bb 99 3e 48 4d 51 bd 63 51 84 bb ca dc 6d 3e
       0.30025837 -0.05109909 -0.0040380224 0.23228756
000010 cd 3a ab bc 44 78 04 3d dd 97 af bd 5b b8 45 be
       -0.020902062 0.032341257 -0.085738875 -0.19308607
000020 bc 83 5d 3e 6c 88 3e bd 18 45 ec bd 37 6d 26 3d
       0.21632284 -0.04651682 -0.11536616 0.0406315
000030 23 9b 2e 3e d3 99 78 3e 8f 51 9d 3e d9 24 e3 3d
       0.17051367 0.2427743 0.30726287 0.110910125
000040 ad af 64 be 42 c1 1c 3e 94 0f d6 bd c3 c9 b8 3e
       -0.2233264 0.15308097 -0.1045219 0.36091432
000050 e0 b9 b3 3c 88 10 d2 be 0d 8d 96 3d 75 be 96 be
       0.021939218 -0.41028237 0.07351122 -0.29442182
000060 e4 13 29 3e 2a b1 dc bd c4 81 b6 3d 48 f2 15 3c
       0.16511494 -0.10775979 0.089114696 0.009152003
000070 1d 86 33 be 76 a3 6c be e0 da 81 3e 42 44 bb 3e
       -0.17531629 -0.2310923 0.253623 0.36575514
000080 af 21 ef bd 58 c5 72 3e 81 c5 b9 3c ef 75 91 bd
       -0.116763465 0.23708093 0.022677185 -0.07102572
000090 6c f3 25 be 90 f6 57 be f2 24 47 3e e5 3a 67 be
       -0.1620614 -0.2109015 0.19447687 -0.2258106
0000a0 c8 2b f9 bd 31 17 32 3e dc 1d fa bd 8d 33 41 3e
       -0.12166554 0.1739166 -0.122127265 0.18867321
0000b0 f7 be 9d 3d 7c c9 ff 3d 61 d0 47 3d c5 13 71 bd
       0.07702439 0.12489602 0.04878271 -0.058856744
0000c0 f8 45 e4 3d 48 80 98 3d ac aa 0b be 7e e4 52 be
       0.11146158 0.07446343 -0.13639325 -0.20594975
0000d0 6e 0f 50 be 40 dc f7 bc a8 6e 92 3d d0 42 22 be
       -0.20318386 -0.03025639 0.07150012 -0.158458
0000e0 98 a8 3c 3d 5e 78 13 3e a4 91 16 3e a8 52 bf bd
       0.04605922 0.14401385 0.14703995 -0.09341937
0000f0 b8 bc 6a 3d ec fa 62 be da 2c 38 3e 3e 98 4c be
       0.057308882 -0.22166032 0.1798586 -0.19979951
000100 a2 be a9 bd bc 26 24 be 4d 34 b1 be d1 d6 a0 be
       -0.082883134 -0.16030401 -0.34610215 -0.31413892
000110 71 11 87 be 7f aa ad 3d 05 04 40 3e 51 a4 93 3e
       -0.26380494 0.08479785 0.18751533 0.288363
000120 73 33 8d be 96 aa 67 3e f4 21 e7 bd da fb a0 bd
       -0.27578315 0.22623667 -0.11285773 -0.07860537
000130 ff d9 d2 3d 23 94 62 be f8 bc a7 be e4 a9 0f bd
       0.10295486 -0.22126822 -0.3276136 -0.03507413
000140 ee f5 0d 3e 2c f3 9c bc 83 95 2e bd 9d 06 c0 3e
       0.13863346 -0.019158922 -0.042623054 0.37505046
000150 35 bd 55 3d 36 6d b6 be 4d 37 c6 3d 4b b8 f3 bd
       0.052182395 -0.35630196 0.096785165 -0.119003855
000160 90 22 7c 3d eb 29 d4 be 20 da 1e 3c 75 16 a3 be
       0.0615564 -0.4143823 0.00969556 -0.3185307
000170 8d 40 36 be cd 88 06 3e 6e 69 39 3e f8 2b 62 3e
       -0.17798062 0.13138123 0.18106624 0.22087085
000180 95 3b 86 be e8 b4 24 3e 0c fe 1f 3e 67 21 2a 3e
       -0.26217332 0.16084635 0.15624255 0.16614304
000190 f9 f2 95 bd 61 6f 7b bd 30 98 65 be 6a e9 3c 3e
       -0.07321734 -0.061385516 -0.22421336 0.18448415
0001a0 77 fb 87 bd 4a e8 84 be a4 4e 7a 3e ee 14 5f bd
       -0.0663976 -0.25958472 0.24444062 -0.05446332
0001b0 d9 1a b9 3d d0 25 17 bd d8 47 bc bd b3 09 23 3e
       0.09038324 -0.036901295 -0.091933906 0.15921669
0001c0 dd a0 b5 3e 53 30 3a be 10 c2 43 3e fb 45 45 3e
       0.3547429 -0.18182497 0.19116998 0.19264977
0001d0 49 6c 29 3e 4a f6 c9 3d 4b f6 58 3e ee 27 9e 3e
       0.16545214 0.09861429 0.21187703 0.3088984
0001e0 6f 37 a9 3d 05 b1 ab 3e 30 d7 ca bc b0 03 26 3e
       0.08262526 0.33533493 -0.024760813 0.16212344
0001f0 d7 e6 c0 3e d2 87 16 bd 80 97 99 bc 4c 9d 7a 3d
       0.37676117 -0.036750622 -0.018748999 0.061185166
000200 ce ee f8 bd 97 a8 a7 3e ea b9 19 be c1 d0 00 be
       -0.121549234 0.3274581 -0.15012327 -0.12579633
000210 fe 73 90 3d 01 c6 17 be b6 a4 a1 3c 00 df d1 bd
       0.07053374 -0.14821626 0.01973186 -0.10247612
000220 3b 70 98 3e 75 d7 bc be fc ea 19 be 59 4b ec ba
       0.29773125 -0.3688313 -0.15031046 -0.0018027826
000230 de f3 54 be a6 c8 32 be 38 23 97 3e 10 46 3b 3e
       -0.20796153 -0.17459354 0.29519057 0.18288445
000240 f7 41 96 bc 30 90 3b 3e 5e 35 43 3d d5 d9 01 3e
       -0.018342001 0.18316722 0.047658317 0.12680753
000250 d0 3f c0 3e c9 4b 10 be 28 73 1b 3e 42 d8 dd be
       0.37548685 -0.1409141 0.15180647 -0.43329054
000260 0a 16 8b 3d 44 f0 b9 bd 8e bf 08 3e 2f 6a 2e be
       0.06791313 -0.0907903 0.13354322 -0.17032693
000270 e0 27 9c 3e 0e 2e 76 be b2 21 54 bc 8c bf b9 3e
       0.30499172 -0.24041006 -0.012947487 0.3627895
000280 76 73 30 be d8 53 45 bf 13 40 61 bc b8 ac 93 be
       -0.17231545 -0.7708106 -0.013748187 -0.2884271
000290 29 b9 8d 3d c3 fb a6 3c 04 b6 96 bd 61 94 47 3e
       0.06920082 0.020383721 -0.073589355 0.19490196
0002a0 00 90 5f 3b 0f 59 28 be e2 96 72 be ff 98 5e 3e
       0.003411293 -0.16440223 -0.2369037 0.21738051
0002b0 ba 14 0d 3e d4 ad 0c 3e 8a bd 97 be 12 66 bf bd
       0.13777438 0.13738185 -0.29636794 -0.0934564
0002c0 1f 53 2e 3e 3e 03 9d 3e 7c bd 03 bd 69 78 c8 3e
       0.17023896 0.30666536 -0.03216313 0.39154366
0002d0 45 42 0e 3c 53 5d ee be 71 c5 f4 3d 09 ce 57 be
       0.008682792 -0.46555576 0.119517215 -0.2107469
0002e0 fe 14 87 3c f7 80 9e be 40 40 45 bc 20 1a ea be
       0.016489502 -0.30957767 -0.012039244 -0.45723057
0002f0 86 40 04 be 47 32 d4 bd 51 e5 30 3e 45 51 94 3d
       -0.12915239 -0.10361152 0.17274977 0.072420634
000300 71 71 04 3e 30 68 8b 3e bf 77 3f bd 97 a2 12 3c
       0.129339 0.27227926 -0.04674506 0.008949897
000310 09 3d c6 bd d4 41 a2 bc 76 95 7a be 2d 4e 42 3e
       -0.0967961 -0.01980678 -0.24471077 0.18975134
000320 60 12 90 3e fc e9 a9 3d ba 1d 72 3e 12 59 02 3e
       0.2813902 0.08296582 0.23644152 0.1272929
000330 38 cb 6e 3e ba 61 54 3e 4f 7b f6 bd ca 5e 65 3d
       0.2331971 0.20740405 -0.12035238 0.0559986
000340 0d c5 b2 3d bd f8 50 3d 91 01 81 be 3e 1a 55 bc
       0.08728991 0.051018465 -0.25196508 -0.013006745
000350 8e 85 98 bd 15 15 12 be 2d 25 3f be 92 46 46 be
       -0.074473485 -0.14265855 -0.18666525 -0.19362858
000360 8c 69 42 3e 4d 5e 2f be 28 18 da 3d fd 9b 83 be
       0.18985575 -0.17125817 0.10649139 -0.25704947
000370 94 d7 03 be 6e 95 82 3c 64 3e 83 3e b1 72 2a be
       -0.12875205 0.015940394 0.25633538 -0.16645314
000380 cd 21 7c 3d 69 b9 c4 3d e8 87 8c be 81 fb 10 be
       0.061555672 0.09605677 -0.27447438 -0.14158441
000390 40 39 1b 3e a9 69 9e be 8a 86 24 3e 13 9d b6 be
       0.15158558 -0.30939987 0.16066948 -0.35666713
0003a0 cb ff 56 3e 7f 23 9c be 90 67 cf 3d f7 b8 2e bc
       0.20996015 -0.3049583 0.10127175 -0.010664216
0003b0 24 dc 41 be f6 65 0e be 83 84 0a be c0 23 13 3d
       -0.18931633 -0.13906083 -0.13527112 0.035922766
0003c0 b4 b3 b1 3d 50 e1 f8 bd 0f 20 71 bd fb 3a 21 be
       0.08676854 -0.1215235 -0.058868464 -0.15745156
0003d0 3a af 13 be 10 eb 0b 3e 0b 35 ac bd 10 37 9e be
       -0.14422312 0.13663888 -0.08408555 -0.30901384
0003e0 85 6f 63 bc 64 a1 7a bd 1c 8e 91 3d 63 7e 1f be
       -0.013881569 -0.06118907 0.07107183 -0.15575556
0003f0 84 8f 95 bc 5e 57 11 be a5 79 32 be 96 8d 64 bd
       -0.01825691 -0.14193484 -0.17429216 -0.05579909

encoder.convs.1.lin_l.bias f4 [16]
000000 7f e8 db 3d 2e 81 f6 3d b6 71 bf 3e c6 6d 75 3a
       0.107377045 0.12036358 0.37391442 0.0009362366
000010 d1 9a ac 3d 2e 5d 77 3b 8a 4b 90 be aa ec 2e 3e
       0.084279664 0.0037744748 -0.28182632 0.17082468
000020 ba ed 6a 3e 08 a8 8c 3d c6 56 9c be 28 ed bd 3e
       0.22942248 0.06867987 -0.30534953 0.37094998
000030 77 e8 1f 3e 0e d3 49 3e b5 b0 8a 3e 2c 3f d0 3e
       0.15616022 0.19709417 0.27087942 0.40673196

encoder.convs.1.lin_r.weight f4 [16, 16]
000000 64 6a 18 be 9d c0 9c 3e bb 03 99 bd 58 d9 9f 3d
       -0.14884335 0.30615702 -0.07471415 0.07805127
000010 17 08 1b be e8 e3 75 be b1 32 7d be 26 c0 5a be
       -0.15139805 -0.2401272 -0.24726368 -0.21362361
000020 6a 57 da bc 17 ee b7 3d 4a f0 08 be 87 13 d1 be
       -0.02665301 0.08980959 -0.13372913 -0.4083521
000030 87 56 8f 3d ae a2 38 3e 67 22 2e be 07 3a ad 3d
       0.06998926 0.18030807 -0.17005311 0.084583335
000040 88 6c 02 3d 15 b9 c2 3e 86 70 ff bd c1 4f c5 3d
       0.031841785 0.3803183 -0.12472634 0.096343525
000050 57 c6 1b 3e 2f 77 fa 3d 19 63 02 3e d1 bf f8 3d
       0.1521238 0.12229764 0.12733115 0.12145961
000060 cb 90 88 be 7a 4e c1 3c 7a 6b 45 3e 40 12 83 be
       -0.26672968 0.02359699 0.1927928 -0.2559986
000070 b6 68 8d be 88 4c 6a be d5 68 f4 3d 63 dc 38 3e
       -0.2761895 -0.22880757 0.119340576 0.18052821
000080 36 87 fd 3d 59 01 80 be 07 0f 3a 3e a8 f4 6c be
       0.12379305 -0.25001028 0.18169795 -0.23140204
000090 8e 2c 1e 3e bc d2 c2 bb 6e ac 0e be 12 e7 dd bb
       0.15446684 -0.0059455317 -0.13932964 -0.0067719305
0000a0 0a 21 3f 3d e0 d4 a6 3e 60 fc 4f 3d 35 41 aa 3e
       0.046662368 0.32584286 0.050777793 0.33252874
0000b0 1b b3 c9 bd 12 6f 2c be c6 2b 82 3e 46 0f 7e 3e
       -0.09848615 -0.16839245 0.2542402 0.24810514
0000c0 a4 ea 42 3e e0 c0 6d be 38 56 e5 3d 2e 6f 7c be
       0.19034821 -0.23218107 0.111980855 -0.24651787
0000d0 c8 6b 97 bd ca df 6d ba af 86 c6 3d 5d e2 c9 bd
       -0.073936045 -0.00090741797 0.096936576 -0.098576285
0000e0 25 bb 72 be b6 13 87 be c0 52 cd bd fd ba 3c 3e
       -0.23704202 -0.26382226 -0.10025549 0.18430705
0000f0 3f 24 d8 3d 7c c3 d2 3d 6c be 64 be 4e 06 66 be
       0.105537884 0.10291192 -0.22338265 -0.22463343
000100 22 e9 9b 3e 8d 22 e0 bd 83 01 43 3b 89 17 b8 bd
       0.30451304 -0.1094409 0.002975554 -0.08988864
000110 a4 16 3a 3e 13 53 a7 3e b9 6d 38 be f8 48 8b 3d
       0.18172699 0.32680568 -0.18010606 0.06801027
000120 49 9a e2 3d 35 d8 9c 3e 90 26 32 3d 48 21 b1 3d
       0.11064584 0.30633703 0.043493807 0.08648926
000130 7a 51 60 3d 2e b1 7c 3e 43 28 52 be 90 9a ae 3d
       0.054765202 0.24676964 -0.20523171 0.08525574
000140 b8 5e 54 be f9 05 88 3e fe 9c 8e be 6e 5d 30 3e
       -0.20739257 0.26567057 -0.2785415 0.1722314
000150 18 22 27 be 28 ad 58 3d 8f a0 23 be 08 b3 19 3e
       -0.163216 0.05289951 -0.15979217 0.15009701
000160 be 71 0c be 21 2a de bd d0 e1 dd bd 71 89 11 3e
       -0.13715264 -0.10847879 -0.10834086 0.14212586
000170 93 15 2d 3b dd c5 92 bd c5 b5 37 3e 2f 70 cc 3c
       0.0026410564 -0.07166646 0.17940433 0.024955837
000180 b2 c8 0a be 26 e9 9c bd f2 58 10 be 03 a7 15 be
       -0.13553122 -0.07661657 -0.1409643 -0.14614491
000190 6a 15 03 be 1f 21 8c 3c f9 78 6e be 96 5d 47 be
       -0.12801138 0.017105637 -0.23288335 -0.19469294
0001a0 03 f2 ff 3d 55 03 cc bd 40 3b 17 bc 73 ee 34 3d
       0.12497332 -0.09961573 -0.009230435 0.044172715
0001b0 9a cf 24 be 25 dc 2c 3e a2 a4 cd bd 2b b7 0e bd
       -0.16094819 0.16880853 -0.10041167 -0.03484265
0001c0 ef 68 17 bd 53 c2 84 3e a6 c1 8f be 94 47 9e 3e
       -0.036965307 0.25929508 -0.2807743 0.30913985
0001d0 1e 40 1a 3e dc 0b b7 bd 70 68 91 bd 06 97 57 3e
       0.15063521 -0.08937809 -0.07099998 0.21053705
0001e0 95 69 dd 3e 6c c9 2a 3d d8 e9 1c 3e a4 f0 96 be
       0.43244615 0.041695997 0.1532358 -0.2948047
0001f0 f1 d0 9a 3d 83 91 d8 bd eb bd 97 bd 22 46 5d 3e
       0.07559384 -0.10574629 -0.07409271 0.21608785
000200 88 a2 c5 bd 94 af ba 3e 2f a2 ee bd d4 41 4f be
       -0.09650141 0.3646208 -0.11652028 -0.20239955
000210 60 92 2a be 2e a8 a9 be 60 c6 02 3d ba c4 30 be
       -0.166574 -0.33136123 0.031927466 -0.17262545
000220 9c 03 34 3e 2a 5d 16 3d 3c a3 0f be 9a cc 28 be
       0.17579502 0.036709942 -0.14027113 -0.164843
000230 45 dc 8f be b7 2a 21 3e 5c df a2 bd d9 37 f4 bb
       -0.2809774 0.1573895 -0.07952759 -0.0074529466
000240 54 2a a4 3d bc 47 7c 3e 1d f3 e2 bc 2b 6b 3d 3e
       0.08015886 0.2463674 -0.027703816 0.18497913
000250 2f c1 6e 3e 8e da 8d 3d c2 e8 3f 3e 58 0f a2 bd
       0.23315881 0.069264516 0.18741134 -0.07913083
000260 e9 9f be bc 8d 86 92 3d 80 85 d0 bc 84 29 13 3e
       -0.02326961 0.0715457 -0.025454283 0.14371306
000270 13 a3 7e 3e cf 00 21 be 62 5e 2d 3e f7 2b 26 3e
       0.24866895 -0.15722965 0.16930535 0.16227709
000280 73 bf e0 3d 6d e0 7b 3e b9 50 9f be 9d f9 0b bc
       0.10974016 0.2459733 -0.31116274 -0.008543399
000290 ba fd 5d be 04 97 9a 3e dc fa 32 3e 7c 6c f3 3e
       -0.2167882 0.3019334 0.17478508 0.47543705
0002a0 c0 01 1e 3e 5d 10 86 3e 98 08 45 3d 2c 09 03 bf
       0.15430355 0.2618436 0.0481039 -0.5118587
0002b0 18 a4 af be 03 3a 85 bd 6d 0c 46 3e 21 53 66 3e
       -0.3430488 -0.065052055 0.19340678 0.22492649
0002c0 e4 1a 32 3d 07 a6 0d 3e 1f 38 b4 3e a1 64 82 be
       0.043482676 0.13832866 0.35199067 -0.254674
0002d0 50 09 35 be 5f 65 4c bb c5 06 2e 3b 45 e4 97 3e
       -0.17679334 -0.0031188352 0.0026554328 0.29666343
0002e0 dc 43 3a 3e 68 6a 99 3e 50 be fa bd e0 a5 9f 3e
       0.18189949 0.29963994 -0.122433305 0.3118124
0002f0 de c6 31 3e d7 7d 1a be eb 80 f6 bd 5b 30 c2 3d
       0.17361018 -0.15087067 -0.12036308 0.09481879
000300 70 d5 c3 3e 56 ee 61 be 4f 75 5b 3e a9 a8 39 be
       0.38248777 -0.22063574 0.21431468 -0.18130745
000310 2e 8e 8a 3e f2 88 82 3e 2c 17 05 bd 80 95 bc 3e
       0.270616 0.25495106 -0.0324928 0.3683281
000320 a0 ca 60 3e c3 03 be 3e f0 d0 cc 3c 7d 04 36 3e
       0.21952295 0.37112245 0.025001973 0.1777515
000330 f0 c4 88 3e c6 14 f3 3d 9e a3 e4 bd a7 5e 0f bc
       0.2671275 0.118691966 -0.1116402 -0.008750594
000340 9e 71 c8 3d 23 df 95 bd fc 4f 02 3e 32 93 d5 bc
       0.09787296 -0.073179506 0.12725824 -0.026071165
000350 42 00 66 3e 8c ad 53 be e2 4c 2b 3e 52 3a 7c be
       0.22461036 -0.20671672 0.16728547 -0.24631622
000360 5d 11 26 3e 06 ee a1 3d 30 2c ce 3d 3c 2b 5b 3d
       0.16217561 0.079067275 0.10067022 0.05350803
000370 85 b7 fa 3d c6 cc 00 be c5 19 ed bd f3 12 51 3d
       0.12242035 -0.12578115 -0.11577181 0.051043462
000380 2c 59 16 be 16 86 0a 3f a4 3a ef 3d 26 f6 7b be
       -0.14682454 0.5411085 0.11681107 -0.24605617
000390 5a ca 0f 3a dd 2d 3a 3d c4 62 54 be 87 37 8c 3e
       0.000548517 0.045453895 -0.20740801 0.27386114
0003a0 92 e2 e2 3c 56 69 3f be 88 98 b1 bd db 08 8e 3d
       0.027695928 -0.18692526 -0.08671671 0.06935283
0003b0 85 f4 4e 3e 60 8a c4 bd 1c 4a 98 3e 9d 55 f6 bd
       0.20210464 -0.095967054 0.2974404 -0.12028048
0003c0 9f 43 92 bd b8 55 ed 3d 93 49 d9 bd 00 5b 7b 3d
       -0.07141804 0.11588615 -0.10609736 0.06136608
0003d0 40 d3 4f 3b 62 68 d6 be 52 f5 51 be 76 66 e8 3e
       0.0031711608 -0.41876513 -0.20503739 0.45390671
0003e0 c0 ba bc bd 35 f7 89 3e c2 68 68 3e 49 9c 34 be
       -0.09215307 0.26946416 0.22696212 -0.17637743
0003f0 e4 60 85 3d 29 b5 87 be 89 33 3b 3f fd ec 29 be
       0.06512621 -0.26505402 0.7312551 -0.1659431

encoder.convs.2.lin_l.weight f4 [16, 16]
000000 21 69 ad bc fb b6 68 3e d1 1c c1 3c c7 43 eb bd
       -0.021168293 0.22726052 0.023573311 -0.11487537
000010 fb d2 e2 3d f5 4e 68 bd c3 fc 4b 3e fd d2 4f be
       0.110753976 -0.056715924 0.1992064 -0.2029533
000020 f1 6d 7f bd ef f9 64 be ec fc 02 be 96 e1 b0 bd
       -0.062360708 -0.22360967 -0.12791795 -0.08636777
000030 b1 b0 35 be 4f 75 38 be 3f 56 32 bd b8 a6 25 be
       -0.17743184 -0.180135 -0.043539282 -0.1617688
000040 f5 bb 33 be 4c 7a d6 bb 70 ec 35 be a6 34 04 3e
       -0.17552169 -0.0065453406 -0.17765975 0.12910709
000050 21 b4 82 3e 0c 65 50 3e 17 50 ce 3d 65 9a 3f bd
       0.25528052 0.20351046 0.1007387 -0.0467781
000060 8d 27 81 bd 1a 41 09 be b6 da 44 3e 1f 46 fa 3d
       -0.06306372 -0.1340374 0.19224057 0.12220406
000070 f3 a7 32 3e 24 13 79 bd 19 53 38 be de 8e c6 3d
       0.1744688 -0.06080927 -0.18000449 0.096952185
000080 e3 ad 33 3e d9 35 35 be 95 99 f5 3d 2f f0 24 3e
       0.17546801 -0.17696323 0.11992184 0.16107248
000090 14 38 c2 3e 66 83 4b be ef c3 f4 bd 1c 18 1e bd
       0.3793341 -0.19874343 -0.11951434 -0.03859721
0000a0 be 7b bf bd 36 d2 d3 bd 85 57 54 bf a7 1a 99 be
       -0.09349774 -0.10342829 -0.82946044 -0.29903147
0000b0 f7 e7 d5 bd 62 f8 06 3e 85 1c 0c bd 88 85 4b bf
       -0.104446344 0.13180688 -0.034206886 -0.7950063
0000c0 1c 47 37 be 7e 34 16 be 7c c8 72 3e 38 83 7d 3d
       -0.1789822 -0.14668462 0.23709291 0.061892718
0000d0 a4 0e 4d 3e 34 b9 4e be 36 25 6f 3e f4 4f 50 3e
       0.20025116 -0.20187837 0.23354039 0.20343
0000e0 00 11 8e 3c ec 6f ef bd 48 b2 c8 3d 92 8e 09 be
       0.01734209 -0.11691269 0.097996294 -0.13433293
0000f0 6c 40 d4 bd 6c 10 c0 3d 7e a0 44 be 28 31 79 3d
       -0.1036385 0.09378132 -0.19201848 0.060837895
000100 58 de cc 3c fd 52 94 3d 95 aa f3 3d 28 68 59 3d
       0.025008366 0.07242391 0.1189777 0.053077847
000110 88 2d e4 3c 9b 43 27 3e af a6 45 be 7a 1f 31 3e
       0.027853742 0.16334383 -0.19301866 0.17297164
000120 3c 0e c4 bd e3 a4 ab 3e b6 b5 d0 3e 7c 09 40 3e
       -0.095730275 0.33524236 0.40763634 0.18753618
000130 43 09 24 3e 24 4e 01 3e c0 07 09 3c 68 d4 8a 3e
       0.16019158 0.12627465 0.008363664 0.27115178
000140 d0 18 19 3e c6 09 1b 3e 50 58 3b bd 60 57 4d 3c
       0.14950871 0.15140447 -0.04573852 0.012533039
000150 30 a1 83 bc 70 3d 67 bd 72 a9 2e 3e 0a 0e 19 be
       -0.016068071 -0.056455076 0.17056826 -0.14946762
000160 3c 35 6f be 98 48 29 bd 32 41 15 be 92 12 29 be
       -0.23360151 -0.041328996 -0.14575651 -0.1651099
000170 18 20 93 bd a0 9c 1d bc 00 27 28 3e 52 0f 10 3e
       -0.07183856 -0.009619862 0.16421127 0.14068344
000180 80 60 16 3d 5c 3e 10 3e 95 60 8a 3e 69 3b 3d bc
       0.036713123 0.14086288 0.2702681 -0.011549809
000190 0d c3 b0 3e ab 65 f0 be 39 f8 fb 3b 6b ce 48 bd
       0.34523812 -0.46952567 0.0076895026 -0.04902498
0001a0 09 57 5c be cd 36 87 3e ab 44 f5 3e 7a bf a9 3e
       -0.21517576 0.26408997 0.47903952 0.33153898
0001b0 fd bd 8b 3e 7a 5a 45 bd 4b 81 65 3e 62 ff 83 3e
       0.27293387 -0.04818199 0.22412603 0.2578078
0001c0 88 b5 9d 3d b2 56 11 3e d4 86 80 bd 3c 1a 40 3e
       0.0770064 0.14193228 -0.062757164 0.18760008
0001d0 e0 3a 2b 3c 50 d4 42 bd 1a b5 27 3e a0 81 35 3e
       0.010451049 -0.04756576 0.16377679 0.1772523
0001e0 a0 77 90 bd 61 72 02 3e 38 35 77 bd 80 6f fa bb
       -0.07054067 0.12738945 -0.060353488 -0.0076426864
0001f0 62 88 47 be 45 ca e8 bd e8 cf 06 3d 58 2c 6c bd
       -0.1948562 -0.11366705 0.03291312 -0.057659477
000200 d4 be 9f 3d a0 f0 50 3e 19 01 6b be 26 47 07 3e
       0.078000695 0.20404291 -0.22949637 0.13210735
000210 f4 c5 81 bc 71 b4 aa 3e e9 f3 4c 3e 60 58 65 bd
       -0.015841462 0.3334079 0.2001492 -0.055992484
000220 a7 26 8c bd 40 9b 87 bd c1 62 ed 3d 26 15 2f bd
       -0.0684331 -0.066214085 0.115911014 -0.042744778
000230 be 6f 13 3e 8a fc 61 be 28 6e 2e be d8 eb bf be
       0.14398095 -0.22068992 -0.17034209 -0.37484622
000240 da 68 4e 3e 2c 3d c4 be d3 02 72 bd c0 7c 0e bd
       0.20157185 -0.3832792 -0.059084725 -0.03478694
000250 23 b4 53 3e dd 4c 58 3e 9c 0b ef bd 0d c7 f1 3d
       0.20674185 0.21123071 -0.11672136 0.11805544
000260 f5 d8 10 bc ca dc e9 bd 46 16 50 be 4d de 73 be
       -0.008840789 -0.11419065 -0.20320997 -0.2381527
000270 86 d7 d9 bd 64 39 38 3e 2c 9c 90 3d ad 98 29 3d
       -0.10636811 0.17990643 0.070610374 0.04140537
000280 d1 c7 c8 3d df b5 80 3e 85 06 11 3e 88 34 3f bd
       0.09803737 0.25138757 0.14162643 -0.046680957
000290 de e6 14 be 5b 79 9d 3e 14 ba ee 3d e6 2a 5d 3e
       -0.14541194 0.3075665 0.11656585 0.21598396
0002a0 ad 30 ba 3d 44 ad 52 3e ee 16 12 3e 86 95 f2 3d
       0.090913154 0.20573908 0.1426656 0.118449256
0002b0 44 4d 4c be 52 d7 a1 3e 06 55 5f 3e d7 53 24 3f
       -0.1995135 0.3160959 0.21809778 0.6419043
0002c0 b7 70 a3 3d 2d 5b 98 bd e9 c2 42 be 10 e0 85 bd
       0.07980483 -0.074392654 -0.19019665 -0.06536877
0002d0 40 24 65 be 1f 24 48 3e 94 24 db 3d 0f e4 44 3d
       -0.2237711 0.19545029 0.10700336 0.048069056
0002e0 e4 26 2d be 3e e4 38 be 1b 6e 45 3e f5 32 5e be
       -0.16909367 -0.18055817 0.19280283 -0.21699126
0002f0 20 df fb 3c 85 80 28 3e 9d 06 6f be 30 b8 34 3e
       0.030746043 0.16455276 -0.23342367 0.17648387
000300 e6 64 08 bf 41 0c 77 be bc 8b d6 3e de 34 37 3e
       -0.5327896 -0.24125768 0.41903484 0.17891261
000310 14 e0 1c 3f 9c e5 0c 3d a6 91 82 be 78 c1 1a be
       0.61279416 0.03439866 -0.25501746 -0.15112865
000320 c8 6e 9e be f6 84 9f 3d cc 2b 05 be 1f 2e 95 3e
       -0.30943894 0.07789032 -0.13004988 0.2913675
000330 90 b3 13 3e 44 c6 6c 3e d4 59 36 3d f5 f6 e0 be
       0.14423966 0.23122507 0.04451926 -0.43938413
000340 2f 75 a2 be 05 0a 12 be 7b a1 31 be ce 66 59 3e
       -0.3173003 -0.14261635 -0.17346756 0.21230623
000350 a7 b1 0e be d0 d2 d2 be c0 1c 67 3e a6 4b 23 be
       -0.13934956 -0.41176462 0.22569561 -0.15946826
000360 50 90 f1 be 4e cf 8c 3c 61 05 bf 3e dc 7d 81 bd
       -0.47180414 0.017188694 0.3730879 -0.06322834
000370 04 9f 61 3e a5 20 a6 bd ca f2 a8 bd 82 ce 75 bf
       0.22033316 -0.08111695 -0.08249433 -0.9601823
000380 6c 18 37 be 41 2e 18 3d 9b 31 92 bd 36 94 02 be
       -0.1788041 0.037153486 -0.07138368 -0.1275185
000390 f9 58 ce bd fb 23 09 be 20 37 35 3e e7 ab 2c 3e
       -0.10075564 -0.13392632 0.1769681 0.1686245
0003a0 2b e9 24 bc 9d 05 28 3e 36 09 0e bf dc b3 6e 3d
       -0.010065357 0.16408391 -0.55482805 0.058276996
0003b0 d2 c7 91 3e 1c 28 82 3e 06 72 82 be bd a7 a3 be
       0.28472763 0.25421226 -0.25477618 -0.31963912
0003c0 6e 3a 65 be 0b e3 eb be 66 7e 12 bf 17 c3 48 be
       -0.2238557 -0.46071658 -0.5722412 -0.19605671
0003d0 6d b4 b8 bd 77 6b 68 3e 1a 8f 6b 3d dd 01 a5 be
       -0.090187885 0.22697245 0.05750952 -0.32227984
0003e0 c2 24 ec bd 23 bd 99 be 86 63 2d bf 67 96 87 be
       -0.115304485 -0.30027112 -0.67729986 -0.26481935
0003f0 2f 8a 90 be 79 d7 9f be 81 7c f6 bc 46 dd b4 3c
       -0.28230426 -0.3121908 -0.030088665 0.022078168

encoder.convs.2.lin_l.bias f4 [16]
000000 2c f9 70 3e 58 47 8d 3d 5f d0 be bd 08 49 6c be
       0.23532552 0.06898373 -0.093170874 -0.23074734
000010 fb 71 9a 3d 76 54 26 bd ac 16 2f 3e 33 7a 3d be
       0.07541271 -0.040607892 0.17098492 -0.18503647
000020 b0 b5 af 3d ef f4 3c be 6c a1 f4 bd e9 e0 29 be
       0.08579576 -0.1845281 -0.11944851 -0.16589703
000030 5e d5 0a be 81 11 87 bc 4a b5 44 3e 53 14 d1 3e
       -0.13557956 -0.016487839 0.19209781 0.4083582

encoder.convs.2.lin_r.weight f4 [16, 16]
000000 6b 28 38 3e c4 c0 06 3f 75 d2 9d bd 57 ec 63 3e
       0.17984168 0.52637887 -0.07706157 0.22258125
000010 f2 ad d8 be 57 db e8 bd aa ee 10 be b2 45 59 3e
       -0.4232021 -0.11369961 -0.14153543 0.21217993
000020 3a a1 07 3f 19 33 89 be b9 8c 38 be a2 93 98 be
       0.5298039 -0.26796797 -0.18022431 -0.29800135
000030 eb f6 0f be 59 bf 31 be b6 ed aa 3e ff d5 75 3e
       -0.14059035 -0.1735815 0.33384484 0.24007414
000040 38 8d 64 3e ce cf 1b 3e 61 a6 07 3e e0 4d eb 3d
       0.22319496 0.1521599 0.13247062 0.11489463
000050 c8 77 66 be 03 f9 93 3d 8b c2 07 be 62 11 ac bd
       -0.2250663 0.072252296 -0.13257806 -0.08401753
000060 87 a2 05 3e 61 33 11 be b5 f7 49 3e f4 4e 37 bc
       0.1305028 -0.14179756 0.19723399 -0.0111882575
000070 81 f1 16 be b2 fe 13 be 7b 42 8d be 9c aa 88 3d
       -0.14740564 -0.14452627 -0.27589783 0.06673166
000080 24 f7 4d 3e 92 66 d7 3e 37 14 3e 3e 94 02 9f 3d
       0.20113808 0.42070442 0.18562399 0.077641636
000090 79 d6 b8 3d 98 51 a2 3e ec e4 40 3c 79 49 0d 3e
       0.090252824 0.31702876 0.011773329 0.13797559
0000a0 04 68 a1 bc 80 1f 3f 3e 69 79 40 3f d3 59 2f 3e
       -0.019702919 0.1866436 0.7518526 0.17124109
0000b0 36 8f 92 39 48 13 d3 3d 2a 56 ae 3e 1a de f8 3e
       0.0002795399 0.10306412 0.34050113 0.4860695
0000c0 6a fe 31 3e 08 64 6a be 60 0e a2 bc e8 7d 5e be
       0.17382208 -0.22889721 -0.019782245 -0.21727717
0000d0 00 6f 92 3c f0 4c 40 3d d0 93 90 3d 24 f0 d9 bd
       0.017875195 0.046948373 0.07059443 -0.10641506
0000e0 88 aa ef 3d 14 6f d7 bd ec 3f 82 bd 88 fd 3f 3e
       0.11702448 -0.10519233 -0.063598484 0.18749058
0000f0 56 98 6b be c8 d1 4f 3d a0 41 5c be 58 06 dc 3d
       -0.2300733 0.050737172 -0.21509409 0.107433975
000100 5e 42 29 be 32 cc 7f be 56 68 26 be df 5d 45 3e
       -0.16529223 -0.24980238 -0.16250739 0.1927409
000110 a1 cd 01 bd 11 59 be 3d dc bd ae bc f3 47 9b 3e
       -0.031690244 0.09294332 -0.021330766 0.3032833
000120 f9 70 ce bd 1e 07 7d 3d e6 f0 07 bf 30 5b 64 bd
       -0.100801416 0.061774366 -0.53101957 -0.055751026
000130 08 4d 86 3d 7b 7f 4e be cd 7f f9 3d 01 c0 42 be
       0.06557661 -0.20165817 0.12182579 -0.19018556
000140 67 38 6a 3e 29 42 0d be 23 18 78 3b e8 51 a4 bd
       0.22873078 -0.1379477 0.0037856183 -0.08023435
000150 8c d2 53 3e d7 d8 1f be ec 56 13 3e f6 6c 53 be
       0.20685786 -0.15610062 0.14388627 -0.20647034
000160 f3 43 3b 3e 01 de 78 be 41 7f 02 be fd 10 f8 bd
       0.1828764 -0.24303438 -0.12743856 -0.12112615
000170 c5 d5 48 bd 10 f0 e1 bb ec 12 81 3d 8b 54 3f 3e
       -0.04903199 -0.0068950728 0.06302437 0.18684594
000180 43 d5 37 3e 16 e8 80 be f2 72 4b 3e 03 52 37 bd
       0.17952447 -0.25177068 0.19868067 -0.044755947
000190 f2 dd 92 be 55 48 54 bc a3 53 30 bd 20 d8 b7 3e
       -0.28684956 -0.012956698 -0.043048512 0.35907078
0001a0 cf 8c a6 bd b3 6a 71 3e 9c 0a 26 3f c8 26 8b be
       -0.08132326 0.23575859 0.6485994 -0.27178025
0001b0 fd 1d ce 3d 39 7f 0e be 5d 05 6f be 73 ed 35 be
       0.100643136 -0.13915719 -0.2334189 -0.17766361
0001c0 80 d7 4a be e9 ef ad 3d f1 b9 23 3e ba 46 7c be
       -0.19808769 0.08493025 0.159889 -0.24636355
0001d0 18 59 0b 3e 5f 66 57 be 8e 89 7a be e0 43 8e 3d
       0.13608205 -0.21035145 -0.24466535 0.0694654
0001e0 c0 9c b5 bb 24 4f 2d be de 36 65 3e 8c 1d 91 3b
       -0.0055423677 -0.16924721 0.22384211 0.004428571
0001f0 1c ab 31 be 0a 82 cd 3d a1 c7 de 3a c8 e6 23 bd
       -0.1735043 0.100345686 0.001699675 -0.040015012
000200 d7 79 51 be 39 ca ad 3d 82 3c 8e 3e 07 17 dc bd
       -0.20456634 0.084858365 0.2778054 -0.107465796
000210 d8 03 31 3e de 9a 83 be e7 f4 ef bd 4c 83 ae bd
       0.17286623 -0.25704092 -0.11716633 -0.08521137
000220 a5 c7 ac be 01 55 24 3e 8d 1a 2d be 87 bb 92 3e
       -0.33746067 0.16048051 -0.1690466 0.28658697
000230 c5 47 20 3e b0 04 fd 3d dc 29 04 bd d5 ed 59 3c
       0.15652378 0.1235441 -0.032266483 0.0133013325
000240 a1 d7 8b 3e 86 00 d9 3e c5 af 51 be c4 2e 2e be
       0.2731295 0.42383212 -0.20477207 -0.17010027
000250 3e 97 41 be ae 91 93 3c 88 66 be bb c6 97 20 be
       -0.1890535 0.018013801 -0.0058105625 -0.15682897
000260 10 d7 9e 3e 10 cf 55 3e 4f 4a bc be fc 15 78 3e
       0.31023455 0.2087977 -0.36775443 0.24227136
000270 40 66 11 3d 27 f2 26 be eb ce 47 3e 4b 31 82 be
       0.035497904 -0.16303311 0.19512527 -0.25428233
000280 fc b5 84 be d3 c6 63 be 2f d9 68 be 18 a7 5d bd
       -0.25920093 -0.22243814 -0.22739099 -0.05411443
000290 0f e3 83 3b 9c 68 3b bc 4a e2 89 be f5 4a 88 be
       0.00402487 -0.011438515 -0.26930457 -0.26619688
0002a0 82 a9 26 be 25 77 72 3e a5 ef 1c bf 10 30 85 3e
       -0.162756 0.23678263 -0.6130317 0.2601323
0002b0 4c b2 af bd 8f 7c 06 3e 26 3a 6d be fa 3a 05 3e
       -0.08578929 0.13133453 -0.23166713 0.13010779
0002c0 4e 05 bd bc e3 b2 10 bd 78 3c 0a be 46 ad 5f be
       -0.023073819 -0.03532685 -0.1349963 -0.21843442
0002d0 ec 81 bc bd 63 0f 25 bd 0e f3 07 be 48 1d b1 3d
       -0.09204468 -0.040297877 -0.13276312 0.08648163
0002e0 98 b0 31 bd cf 8f e4 3b fa 67 6e be ef 7d 5a 3d
       -0.043381304 0.006975151 -0.23281851 0.053342756
0002f0 4a 99 0f be 30 96 53 be b6 9c e8 bd 2e d3 68 be
       -0.14023319 -0.2066276 -0.11358015 -0.22736809
000300 2d 85 1d be 7b 9f 8d be 34 23 1c 3f 0e d1 31 be
       -0.15382834 -0.27660736 0.60991216 -0.17364904
000310 bc 6d 4d 3d 6e 51 c3 be 66 4a 69 3e aa 2a 8a 3e
       0.05015348 -0.38148063 0.22782287 0.26985675
000320 4f 62 e6 bd 50 2e 4c be e5 af d8 3e f0 6a 00 bf
       -0.112492196 -0.19939542 0.42321697 -0.50163174
000330 46 6e 81 be 4b b5 d3 be 57 35 13 3d 5c ae 4c be
       -0.25279444 -0.41349253 0.03593954 -0.19988388
000340 32 3f 17 3e 50 fa f2 bd f8 af bd 3c 84 8e 95 bd
       0.14770201 -0.118641496 0.023155198 -0.07302573
000350 76 16 a9 bd 7b f6 84 be c3 61 99 bd ce 14 99 3e
       -0.08256237 -0.259693 -0.0748935 0.29898685
000360 f1 79 18 bb 79 23 8f 3e 0c da 1a 3f 75 b3 cb bd
       -0.0023266042 0.2795675 0.60488963 -0.09946338
000370 a2 33 0f 3e 50 e0 8e be 69 bc 6c be 6b b0 f2 ba
       0.1398454 -0.27905512 -0.23118748 -0.0018515711
000380 33 32 05 3e e1 dc a4 3e 8f c9 b6 bd 6b 45 24 3e
       0.1300743 0.32199767 -0.08925163 0.16042106
000390 a6 56 df bc e8 7f 6c 3e dd d8 28 be 37 e4 59 bc
       -0.027262997 0.23095667 -0.16488977 -0.01329904
0003a0 8d 25 ed 3d 5f 74 0e 3e 54 b4 9e be d2 8f 09 be
       0.11579428 0.1391158 -0.30996954 -0.1343377
0003b0 e9 ce c9 bd 17 e4 19 3e 47 04 71 3e ff cd 11 be
       -0.09853918 0.15028416 0.23536788 -0.14238738
0003c0 84 20 48 bd 52 cd f0 bc 34 86 fd 3e 31 1f 6e 3e
       -0.048859134 -0.02939478 0.4951645 0.23254086
0003d0 ff e5 9e 3e 92 bc a0 3e 96 7d 54 bd 38 8c 26 3e
       0.31034848 0.31393868 -0.05187758 0.16264427
0003e0 7f 37 d8 39 e7 f1 b2 bd 4d 20 87 be 43 fe 72 3e
       0.00041240078 -0.087375455 -0.2639183 0.23729806
0003f0 3d 82 9f 3e dd 8f 80 3c 60 49 de 3e d3 71 20 3f
       0.3115405 0.0156936 0.43415356 0.6267368

encoder.convs.3.lin_l.weight f4 [16, 16]
000000 b1 3a 32 3e 4c 2b 2e 3e 95 22 79 be f8 c0 3b bd
       0.17405201 0.17008704 -0.24329598 -0.045838326
000010 77 6b 37 3e 0e 57 03 3e c1 4a 43 be a9 82 0c be
       0.17912088 0.12826177 -0.19071485 -0.13721718
000020 e8 9a 5c 3d 6d 94 85 bd ac d2 45 3e 9f db 7a bd
       0.053858668 -0.065224506 0.19318646 -0.061244603
000030 e0 3b 4d 3c 63 9f ca 3d e4 23 06 3e 3c 5b 44 bf
       0.012526482 0.09893682 0.13099629 -0.7670171
000040 29 01 cc 3d 50 b3 4c be bb 30 45 be 40 df 33 bd
       0.09961159 -0.19990277 -0.1925687 -0.04391408
000050 15 24 24 bd a4 ba 32 3e 73 bf ee bd 5e d0 56 3e
       -0.040073473 0.1745401 -0.1165761 0.20977923
000060 ea 42 5a bb ee 02 59 3d a7 8b df 3d 6c d4 2e be
       -0.0033304044 0.05298131 0.109153084 -0.1707322
000070 ae 8c 4c be b0 91 64 3b 6e 68 f9 3d fb 94 b9 3d
       -0.1997554 0.0034876876 0.121781215 0.09061619
000080 84 0a 24 3f 34 9b 71 3e b9 aa 97 3e 40 3b dd 3d
       0.64078546 0.23594362 0.2962244 0.10802317
000090 ef 72 62 be eb 3a 9c 3d 27 0e 5a be fe cd 4e be
       -0.22114156 0.07628425 -0.21294461 -0.20195767
0000a0 a9 1f 10 bd 84 bb 14 bc cc 07 68 be 67 9c a7 bd
       -0.035186443 -0.00907791 -0.22659224 -0.08184128
0000b0 fa 87 5d 3e 1d 41 95 3b 10 a4 31 be 91 5d 32 3f
       0.21633902 0.0045548812 -0.17347741 0.6967402
0000c0 57 47 6b 3e ce 3c c4 bc a6 da 83 3c 88 c7 8b 3d
       0.22976433 -0.023954775 0.01609547 0.06825167
0000d0 4c 83 cf bd 32 3d 2a be 63 56 d6 bd c4 95 85 bd
       -0.10132465 -0.16624907 -0.10465696 -0.06522706
0000e0 49 f8 28 3e a1 e6 62 be 34 f9 bc 3c 58 b8 c3 bd
       0.16500963 -0.2215829 0.023068048 -0.09556645
0000f0 95 ed 7d bd 43 12 c5 bc 4c e5 e5 bd 3e 92 96 3d
       -0.061994154 -0.02405656 -0.112253755 0.07352112
000100 40 cb b6 3c 68 63 0d be c9 59 43 3e 06 ef 66 3e
       0.022313714 -0.13807452 0.19077219 0.22552118
000110 52 05 69 be fe 3b 51 3d c0 68 61 be b2 7b 2f 3e
       -0.22755936 0.051082604 -0.22012615 0.1713703
000120 6c 93 00 3e 5b 47 83 be 56 88 7d bd 2f ef 62 3e
       0.12556237 -0.25640377 -0.0618976 0.22161554
000130 13 7d 0b bc 73 4d 11 be 1b 35 0d be df e8 49 3f
       -0.008513707 -0.14189701 -0.1378979 0.7887096
000140 08 46 6a 3e 33 5b 1c bd 76 82 b5 3d 7c a4 0e 3e
       0.22878277 -0.03817291 0.08862774 0.13929933
000150 e5 d5 a3 3e 23 c1 3a 3e 55 f5 03 be 48 d0 4f be
       0.31999126 0.18237738 -0.12886555 -0.20294297
000160 c1 e9 ad be df 21 8f 3e ec 6f 23 be f8 38 04 3e
       -0.33967403 0.2795553 -0.15960664 0.12912357
000170 f3 ba ae 3d cd 59 06 bd a1 10 84 3e c1 33 0c be
       0.085317515 -0.032800484 0.25793937 -0.13691618
000180 1d a5 6a be cf 42 eb 3e f8 f4 f3 bd 4e 7f 76 be
       -0.22914548 0.45949408 -0.119119585 -0.24072
000190 27 be 6b bd d2 e2 66 bc df a0 0b be 0f 2a 5b 3e
       -0.05755439 -0.014092164 -0.13635586 0.21402763
0001a0 cf d9 0e 3e e3 59 e4 bd b8 69 7f 3e 10 fe 83 3c
       0.13950275 -0.11149957 0.24942672 0.016112357
0001b0 2a fc b9 3d 78 68 6e 3d 5f c3 7d be a9 8a ec 3e
       0.090812996 0.058205098 -0.2478156 0.4619954
0001c0 a5 17 aa 3d c8 1b d3 3d dd 6c 5e be 66 b9 43 3e
       0.08305291 0.10308033 -0.21721216 0.19113693
0001d0 4a 1e 56 be 32 73 c1 bd eb cb 1f be c8 49 01 be
       -0.20909992 -0.094458 -0.15605132 -0.12625802
0001e0 38 d4 e5 bd f5 3a a2 be 78 61 84 be 70 ed 69 3d
       -0.11222118 -0.31685606 -0.25855613 0.057111204
0001f0 0e e1 d1 3d ab d8 c1 be ba 72 f0 bd d7 21 00 be
       0.10248004 -0.37860617 -0.11740632 -0.12512909
000200 13 ee aa bc 23 20 0a bd 56 d2 e8 be 48 b1 40 3e
       -0.020865476 -0.033722054 -0.45472974 0.18817627
000210 39 99 fa 3d 4a 79 31 be 2d 66 c1 3c 6c 49 3c be
       0.12236256 -0.17331424 0.023608292 -0.18387383
000220 18 ca 0f bf 16 e3 6a 3c 6c 87 70 be 66 77 fa 3d
       -0.56167746 0.014336368 -0.2348916 0.12229805
000230 de 41 28 3e 0b 9c 8b 3c 8d 58 85 3d 97 ff 8d be
       0.16431376 0.01704218 0.0651103 -0.27734062
000240 c0 1e 67 be b6 c2 4d 3e f9 cd 25 bd 6a 47 1b 3e
       -0.22570324 0.20093808 -0.040479634 0.15163961
000250 ef 0d 90 3e d8 e8 d1 3d ef f4 2f bc 77 1d 2f bd
       0.2813563 0.102494895 -0.010739549 -0.04275271
000260 33 37 14 be 50 86 e6 3d 78 fd 57 3b ad be 50 be
       -0.14474182 0.11256087 0.0032957476 -0.20385237
000270 71 e3 a0 bd bf 0f 58 3e 15 a6 ba 3d 8b e0 e1 be
       -0.07855881 0.21099757 0.09113709 -0.44116625
000280 b6 1d 3d 3e 6f c7 65 bd ba f5 21 bf dc ea 32 3e
       0.18468365 -0.056098398 -0.63265574 0.17472404
000290 db 57 05 be 26 1b 02 be 4c 0c 81 3e 50 18 a0 bc
       -0.13021795 -0.12705669 0.25204694 -0.019542843
0002a0 97 81 22 bf 6a 01 53 be 7c 3c 4c be 17 b0 6f be
       -0.6347899 -0.20606008 -0.19944948 -0.23407017
0002b0 69 0c 9c 3a de e8 86 bc 67 66 a7 3c 07 fe c1 be
       0.0011905554 -0.016468462 0.020434571 -0.3788912
0002c0 b3 8c 48 be 6a 58 50 3e be 8e 62 be 9e e7 6f be
       -0.19584922 0.20346227 -0.22124764 -0.23428199
0002d0 aa c9 39 3d e8 89 43 3d e5 4b 7d be 15 af 6d be
       0.045358337 0.04773894 -0.24735983 -0.2321132
0002e0 5d 15 a7 3e e1 ed 78 3e ae ea ac bd ec 40 77 3e
       0.32633486 0.24309494 -0.08443199 0.2414586
0002f0 6e 69 01 3e af 87 54 3e a8 4b 14 be d0 50 97 3e
       0.12637874 0.20754884 -0.14481986 0.29553843
000300 25 a6 11 3c 64 de 61 bd d6 b5 95 be 10 35 19 3e
       0.00888971 -0.05514373 -0.29240292 0.14961648
000310 59 28 6b 3e 14 95 22 be c0 a1 6b be ed 53 7d be
       0.2296461 -0.15877181 -0.23010921 -0.24739046
000320 27 ac d3 bd 2f d5 a3 be 1c 3e b9 bd 03 b8 75 be
       -0.1033557 -0.31998584 -0.090450495 -0.23995976
000330 b9 9e c6 3d 55 9b 91 3e 0a da 35 3e 99 fd e0 bd
       0.09698243 0.2843882 0.17758957 -0.1098587
000340 ec 80 ee 3d bc ae a2 bd 3c 00 cb be 44 33 17 be
       0.11645684 -0.07943484 -0.39648616 -0.1476565
000350 0d 50 66 3e f1 5b 43 3d 2b 5d 17 3e b2 f2 15 be
       0.22491474 0.047695104 0.14781635 -0.14643362
000360 a2 07 8c be 99 ce a0 be 41 73 68 be d3 f5 1b bd
       -0.27349573 -0.31407622 -0.22700216 -0.038076233
000370 fb 1a 83 3e 0c b3 1d 3d b2 c2 14 3d dd 3d dc bd
       0.25606522 0.03850083 0.03631849 -0.10753987
000380 3c 02 fd 3d e2 bf 54 be d4 ad fe 3c b4 8c 73 be
       0.12353942 -0.20776322 0.031088747 -0.23784143
000390 fc 36 15 be 3c 87 77 3e eb 99 65 bd 48 1d 3c bd
       -0.14571756 0.24172682 -0.05605499 -0.045926362
0003a0 3d 16 e7 3d c5 57 64 be 50 e4 6b bd 80 d5 03 bc
       0.112835385 -0.22299106 -0.057590783 -0.008046508
0003b0 30 80 e6 3c 89 96 5a bd ce 94 34 be 87 7b 7a be
       0.028137296 -0.053366218 -0.1763489 -0.24461184
0003c0 ed 91 b3 39 73 df 67 3e ec ba 6d be 80 76 01 3d
       0.00034250264 0.22643833 -0.23215836 0.03160715
0003d0 4b f7 7e 3e 35 07 81 be a4 f8 a7 3e 3f 8a 4d 3e
       0.24899022 -0.2520081 0.32806885 0.20072268
0003e0 43 23 1a be f4 e6 57 3d ef 1d d1 3d 38 56 47 3e
       -0.15052514 0.05271049 0.102107875 0.19466484
0003f0 60 19 93 3e 28 2c 46 3e c2 24 f3 3c 65 73 75 be
       0.28730297 0.19352782 0.029680613 -0.23969801
