ARES-4573/checkpoints/model_GAE_CTU-13-Scenario-13.pt (torch, 25952 bytes, 18 tensors)

encoder.convs.0.lin_l.weight f4 [16, 64]
0.09636663 -0.065891005 0.050554145 0.12627104 0.01877091 -0.0075918282 -0.052017495 0.0066137686
0.1097611 -0.01959734 -0.0031796591 0.07634674 -0.032220468 -0.042050444 0.036807887 0.10620151
0.029031102 0.01066324 -0.083600126 0.090339154 0.021401865 -0.039326694 -0.0942774 -0.04360908
-0.07214894 0.041294534 0.10729406 -0.00901143 0.0917816 -0.010866168 -0.04379386 -0.098697044
-0.06806715 0.10953289 0.09988932 0.13630489 0.0030856668 0.05795156 0.00035597247 0.13942015
-0.08397558 -0.018243805 -0.10415514 0.028041802 -0.08161844 -0.07196964 0.04460549 0.14006469
0.11988427 0.1015802 -0.015240713 0.01192353 -0.09667514 0.09972489 0.049850162 0.121798396
-0.10582364 -0.014786379 -0.06480661 -0.07996328 -0.058616973 0.055188484 0.0987953 0.07214698
-0.050221954 0.04773287 0.11571106 -0.0012939079 -0.052388716 -0.10611072 0.080955654 -0.035973433
-0.10547653 0.0648794 0.0175132 -0.0578588 -0.13044629 0.0082738185 -0.0444271 -0.029082596
-0.049105678 0.0954054 0.05894312 0.091693014 0.03978711 0.028265836 0.11595744 -0.007850522
0.064453855 0.043421578 -0.12703773 0.07751295 -0.01966469 -0.091811866 0.07683195 -0.10864678
0.051202994 -0.11022927 -0.043259848 -0.12468061 0.081988886 0.023497462 0.09459269 0.030743875
-0.0693863 0.0113891 0.07718465 -0.104047954 -0.09079467 -0.039201666 -0.08549954 -0.030114979
0.11096448 0.06209965 -0.10875049 -0.074856 0.09290606 -0.016993236 -0.06004021 0.017031565
-0.027252465 0.034707915 -0.005103984 0.06366779 0.061403114 0.03647838 0.03131221 -0.039506827
-0.011785513 0.09187039 0.00896811 0.0039137215 -0.006164067 0.072668046 0.011465598 0.12503916
0.15788463 0.17816629 -0.016744124 0.20907956 0.14109778 0.20534287 0.164472 0.12662831
0.07991244 0.2084809 0.022546893 0.20140722 0.21293215 0.124318786 0.050298505 0.0029270682
0.09703408 0.21012145 0.10968291 0.07244099 0.041739855 0.11324528 0.17303333 0.12825648
0.1254576 0.017404374 0.16439775 0.11689702 -0.018954033 0.20787624 0.18339862 0.104884475
0.07921427 0.21617712 0.22799978 0.12427545 0.21994023 0.15674844 0.16355862 0.096501395
0.09477419 0.18384601 0.049154427 0.014617314 0.1819519 0.07390321 0.19215725 0.08313514
0.027754487 0.101789646 0.08949321 0.13259628 0.0074671092 -0.0019296595 0.11036871 0.21672831
0.05151345 0.06764885 0.14245929 0.22413962 0.22632459 0.10442883 0.12397624 0.032114334
0.25261447 0.20647238 0.16248927 0.009099702 0.2011887 0.060098782 0.13573153 0.19050524
0.12555093 0.069560856 0.21496099 0.21525314 0.14270604 0.05241195 0.065773815 0.018242331
0.06362724 0.018874692 0.11949924 0.041755907 0.20171727 0.02938185 0.044351663 0.053505022
0.09768622 0.1794469 0.22049198 0.2545079 0.1007173 0.15987584 0.1393301 0.19946963
0.18927014 0.20402485 0.21579154 0.23458791 0.13691531 0.2180346 0.06029178 0.104278155
0.09560684 0.093102284 0.1376871 0.012923679 0.059682827 0.11881155 0.15566793 0.21909405
0.04470399 0.1610278 0.18821524 0.06383259 0.15178654 0.06501201 0.12719671 0.061841425
00000000: de5b c53d ddf1 86bd dd11 4f3d 324d 013e
00000010: 74c5 993c dfc4 f8bb 4c10 55bd 50b8 d83b
00000020: 6dca e03d 9a8a a0bc d461 50bb ae5b 9c3d
00000030: 9cf9 03bd 163d 2cbd dec3 163d 2d80 d93d
00000040: a2d2 ed3c dfb4 2e3c 8b36 abbd bc03 b93d
00000050: f752 af3c 0715 21bd 8214 c1bd 6f9f 32bd
00000060: d3c2 93bd 7524 293d fdbc db3d ada4 13bc
00000070: fef7 bb3d 0308 32bc 3161 33bd ad21 cabd
00000080: ca66 8bbd c852 e03d c692 cc3d 8293 0b3e
00000090: e638 4a3b 9d5e 6d3d d1a1 ba39 28c4 0e3e
000000a0: 64fb abbd 0874 95bc 4a4f d5bd ecb7 e53c
000000b0: 9227 a7bd d264 93bd 3fb4 363d 1e6d 0f3e
000000c0: e285 f53d 4809 d03d 2fb4 79bc e95a 433c
000000d0: 9efd c5bd 903c cc3d af2f 4c3d 7071 f93d
000000e0: 11ba d8bd 9242 72bc 54b9 84bd cac3 a3bd
000000f0: 5a18 70bd 520d 623d 3155 ca3d ccc1 933d
00000100: 89b5 4dbd 8b83 433d ecf9 ec3d 5898 a9ba
00000110: 8d95 56bd 9450 d9bd 14cc a53d e158 13bd
00000120: 1404 d8bd 7edf 843d d877 8f3c 59fd 6cbd
00000130: b693 05be e98e 073c 31f9 35bd a03e eebc
00000140: 0923 49bd e863 c33d 576e 713d 8cc9 bb3d
00000150: cff7 223d c18d e73c 187b ed3d 7a9f 00bc
00000160: 6200 843d d3da 313d 2e16 02be 1cbf 9e3d
00000170: d817 a1bc dc07 bcbd 125a 9d3d 3482 debd
00000180: 3bba 513d e2bf e1bd 3d31 31bd 8c58 ffbd
00000190: cae9 a73d c07d c03c d0b9 c13d 94da fb3c
000001a0: 681a 8ebd 5999 3a3c fc12 9e3d 1817 d5bd
000001b0: 8ef2 b9bd ed91 20bd 621a afbd b0b3 f6bc
000001c0: 5841 e33d 345c 7e3d 94b8 debd 1a4e 99bd
000001d0: 8845 be3d 6635 8bbc b9ec 75bd c885 8b3c
000001e0: 9040 dfbc e329 0e3d 523f a7bb 4264 823d
000001f0: d581 7b3d 5b6a 153d 3b41 003d e9d1 21bd
00000200: 0618 41bc 8b26 bc3d fbee 123c ad3e 803b
00000210: f1fb c9bb fcd2 943d 34da 3b3c 440a 003e
00000220: 82ac 213e 3971 363e f92a 89bc f418 563e
00000230: f07b 103e 6745 523e 596b 283e daaa 013e
00000240: 22a9 a33d 047c 553e 43b4 b83c b23d 4e3e
00000250: e30a 5a3e d99a fe3d ce05 4e3d 0ed4 3f3b
00000260: ceb9 c63d 142a 573e 6fa1 e03d f15b 943d
00000270: 69f7 2a3d 24ed e73d a62f 313e ab55 033e
00000280: f577 003e 9e93 8e3c e257 283e b467 ef3d
00000290: 7d45 9bbc 82dd 543e d9cc 3b3e accd d63d
000002a0: 173b a23d 895d 5d3e c678 693e 2184 fe3d
000002b0: 0338 613e aa82 203e e97b 273e 86a2 c53d
000002c0: f818 c23d 2142 3c3e 2756 493d 757d 6f3c
000002d0: 9951 3a3e 915a 973d dfc4 443e c242 aa3d
000002e0: 615d e33c 1777 d03d 3748 b73d 52c7 073e
000002f0: a7ae f43b a1ec fcba fd08 e23d 07ee 5d3e
00000300: c4ff 523d 7b8b 8a3d d9e0 113e db84 653e
00000310: a2c1 673e c8de d53d 41e7 fd3d 528a 033d
00000320: af56 813e 7f6d 533e 9663 263e eb16 153c
00000330: 6904 4e3e 242a 763d 35fd 0a3e ce13 433e
00000340: 6c90 003e ec75 8e3d bc1e 5c3e 526b 5c3e
00000350: 8821 123e eaad 563d 6cb4 863d f170 953c
00000360: 004f 823d 199f 9a3c 04bc f43d 3e08 2b3d
00000370: f98e 4e3e 35b2 f03c 17aa 353d 1528 5b3d
00000380: b70f c83d eec0 373e a6c8 613e dc4e 823e
00000390: df44 ce3d 7eb6 233e 8dac 0e3e c441 4c3e
000003a0: 08d0 413e e4eb 503e 75f8 5c3e d037 703e
000003b0: 8733 0c3e 7644 5f3e 83f4 763d c98f d53d
000003c0: 85cd c33d 69ac be3d d9fd 0c3e d7bd 533c
000003d0: fb75 743d 7853 f33d 6a67 1f3e 315a 603e
000003e0: 881b 373d 79e4 243e 7fbb 403e a9ba 823d
000003f0: ee6d 1b3e 0425 853d db3f 023e 6f4d 7d3d

encoder.convs.0.lin_l.bias f4 [16]
0.1883331 -0.13115132 0.13635817 -0.04289701 0.11718447 0.010297575 0.15707096 0.28012878
-0.028124407 0.13693736 0.24932164 0.19838353 0.113505796 -0.025954157 0.17966671 -0.10093193
00000000: 64da 403e 884c 06be 7aa1 0b3e c6b4 2fbd
00000010: 69fe ef3d 29b7 283c 36d7 203e 0a6d 8f3e
00000020: 2865 e6bc 4f39 0c3e 2c4e 7f3e 0d25 4b3e
00000030: ba75 e83d d09d d4bc 8dfa 373e 66b5 cebd

encoder.convs.0.lin_r.weight f4 [16, 64]
0.15333642 0.20075858 0.038915373 0.15056747 0.16110924 -0.0010768893 0.13975202 0.1983243
0.11527352 0.079635285 0.054807007 0.02083145 0.1341506 -0.014368698 -0.003204123 0.058565848
-0.014576494 0.22051646 0.063517146 0.037336364 0.13521646 0.15758988 0.19792785 0.053329222
0.08195211 0.0094021065 -0.00535537 0.049405627 0.11785862 0.041826535 0.06928812 0.14961232
0.12958589 0.18092205 0.16151679 0.16970912 0.039173014 0.17084005 -0.008242326 0.14228809
0.024959048 0.13831103 -0.010569094 0.08309129 0.18067984 0.041284177 0.18117538 0.08435924
0.22106378 0.2215636 0.030042294 0.07451691 0.07824637 0.056530993 0.14488436 -0.010018226
0.028831957 0.08419891 -0.0074221794 -0.015933739 0.1550577 -0.0005745767 0.18684427 0.031213393
-0.016324995 0.06901569 -0.12962393 -0.12805633 -0.001150544 -0.05710727 0.052072987 0.037274405
0.009029215 0.040565267 0.10058565 0.013483322 0.076348715 -0.076832436 0.09663675 -0.02858229
0.061317712 -0.11023795 -0.081473716 -0.079529755 0.05967734 -0.010521152 -0.12107506 0.11623461
0.026224032 0.10861238 0.00924792 0.01156335 0.083744295 -0.091398604 0.11169284 -0.08675329
0.0049740253 -0.08765245 -0.0891776 0.08985668 -0.039370164 -0.029815152 0.09130847 0.11610635
-0.11909858 -0.008537659 0.029338554 0.11366039 -0.056189597 -0.047036573 -0.07962058 0.025583148
0.024472997 -0.008326912 -0.019033626 -0.09337864 -0.057697624 -0.053895876 0.02647838 0.04884447
0.052000865 -0.101770915 -0.015991192 -0.030211136 0.11833165 0.08384644 -0.09966304 -0.07503923
0.011842638 0.07498582 -0.0031000068 0.1650176 0.05114314 0.043533597 0.11217724 0.06632989
0.20070036 0.21957968 -0.005338679 0.16231413 0.108877845 0.171878 0.059407737 0.09680533
0.103931345 0.14912917 0.16859409 0.15502006 0.12161058 0.006551035 0.03446332 0.035058092
-0.018300017 0.22600709 0.049676724 0.023182904 0.049662434 0.17414089 0.027910037 0.0018233407
0.012841208 0.1337403 0.10115552 -0.0065118656 0.020765183 -0.0020583423 0.14915128 0.16283782
0.12756225 0.06622187 0.03929685 0.15568718 0.07756507 0.086204305 0.06529225 0.1279942
0.1355914 0.2089707 0.21728185 0.07405404 0.124847315 0.022719461 0.012431173 0.20992419
0.120994434 0.044117276 0.16911231 0.15669757 0.15101513 0.15916026 0.112945504 0.015338397
-0.022930771 0.21022846 0.17545705 -0.00932898 0.18614873 -0.028716851 0.17134237 0.17523593
0.16672452 0.14109518 0.012481592 0.03458584 0.114988856 0.13749202 0.19776799 0.093752705
0.13966684 -0.0062092794 0.06282079 0.16252868 0.09840882 0.18700992 -0.012110514 0.004785234
0.12748958 0.08296528 -0.018613428 0.14152794 0.0933444 0.118420824 0.11566184 0.0019999712
0.004343891 -0.011820494 0.17898643 0.01957548 0.20072162 0.04827389 0.11586029 0.20757851
0.02111228 -0.03036744 0.106218725 -0.0019863734 0.15707025 0.1378872 0.17876019 0.07520745
0.0065263715 -0.027000481 0.0074552638 0.19953209 0.06143382 0.08590281 0.061669614 0.02436938
0.19052236 0.05580681 0.027525144 0.20368637 0.1630092 0.15481128 0.17776985 0.008812122
00000000: 3904 1d3e a893 4d3e ba65 1f3d 5c2e 1a3e
00000010: d2f9 243e 6926 8dba 271b 0f3e 8615 4b3e
00000020: 8614 ec3d d317 a33d 507d 603d b8a6 aa3c
00000030: c65e 093e b06a 6bbc 43fc 51bb bee2 6f3d
00000040: 3fd2 6ebc 11cf 613e 4715 823d 04ee 183d
00000050: 2f76 0a3e 3e5f 213e 99ad 4a3e be6f 5a3d
00000060: 82d6 a73d 4b0b 1a3c 1a7c afbb 8e5d 4a3d
00000070: dc5f f13d 4d52 2b3d eee6 8d3d f933 193e
00000080: 2ab2 043e a143 393e a864 253e 3ac8 2d3e
00000090: e273 203d b2f0 2e3e d20a 07bc f8b3 113e
000000a0: eb76 cc3c 68a1 0d3e fe29 2dbc c42b aa3d
000000b0: 2304 393e 9919 293d 0a86 393e 8ac4 ac3d
000000c0: 8b5e 623e 91e1 623e 421b f63c 529c 983d
000000d0: a23f a03d 0b8d 673d 915c 143e 7c23 24bc
000000e0: ff30 ec3c 7a70 ac3d c135 f3bb 7987 82bc
000000f0: 72c7 1e3e 319f 16ba 1b54 3f3e 3bb3 ff3c
00000100: ffbb 85bc 1958 8d3d 23bc 04be 3321 03be
00000110: dacd 96ba 50e9 69bd 7c4a 553d 0cad 183d
00000120: 46ef 133c c427 263d d9ff cd3d 27e9 5c3c
00000130: b75c 9c3d 535a 9dbd 7de9 c53d 6825 eabc
00000140: 4828 7b3d 6fc4 e1bd b1db a6bd 7fe0 a2bd
00000150: 3a70 743d e960 2cbc 33f6 f7bd 690c ee3d
00000160: c8d3 d63c 2b70 de3d 9684 173c 3574 3d3c
00000170: 2182 ab3d 312f bbbd 37bf e43d b5ab b1bd
00000180: 26fd a23b 2183 b3bd bfa2 b6bd c706 b83d
00000190: 9c42 21bd e83e f4bc efff ba3d 2bc9 ed3d
000001a0: f5e9 f3bd 8ae1 0bbc 6857 f03c c7c6 e83d
000001b0: 1027 66bd 6ca9 40bd 1d10 a3bd c093 d13c
000001c0: 987b c83c 9a6d 08bc 68ec 9bbc 4d3d bfbd
000001d0: 5854 6cbd ecc1 5cbd 30e9 d83c 2411 483d
000001e0: dcfe 543d 456d d0bd f6ff 82bc 587d f7bc
000001f0: dd57 f23d afb7 ab3d 231c ccbd 2bae 99bd
00000200: a007 423c 2a92 993d 7c29 4bbb 60fa 283e
00000210: 787b 513d 4950 323d 2ebd e53d f7d7 873d
00000220: 6584 4d3e 7fd9 603e 16f0 aebb ad35 263e
00000230: 59fb de3d c900 303e 8755 733d df41 c63d
00000240: f5d9 d43d 51b5 183e eea3 2c3e 94bd 1e3e
00000250: f80e f93d 11aa d63b 6929 0d3d 1399 0f3d
00000260: ebe9 95bc 676e 673e d279 4b3d 13ea bd3c
00000270: d66a 4b3d fd51 323e 97a3 e43c 29fd ee3a
00000280: ee63 523c 38f3 083e a02a cf3d 7d61 d5bb
00000290: bf1b aa3c 41e5 06bb 1dbb 183e f5be 263e
000002a0: ae9f 023e 559f 873d bcf5 203d 766c 1f3e
000002b0: 6fda 9e3d e28b b03d f1b7 853d e910 033e
000002c0: 79d8 0a3e 6afc 553e 227f 5e3e a5a9 973d
000002d0: f3af ff3d 2a1e ba3c 1eac 4b3c 5ef6 563e
000002e0: eecb f73d 51b4 343d c72b 2d3e 5475 203e
000002f0: b6a3 1a3e e8fa 223e f94f e73d e64d 7b3c
00000300: 50d9 bbbc 2146 573e 03ab 333e 94d8 18bc
00000310: c69d 3e3e 9a3f ebbc 6074 2f3e 0c71 333e
00000320: d5b9 2a3e 417b 103e 977f 4c3c e2a9 0d3d
00000330: 477f eb3d b5ca 0c3e b183 4a3e 6b01 c03d
00000340: d304 0f3e 3677 cbbb 30a8 803d eb6d 263e
00000350: 908a c93d 877f 3f3e 2d6b 46bc 74cd 9c3b
00000360: a18c 023e b3e9 a93d 307b 98bc b3ec 103e
00000370: 592b bf3d 9e86 f23d 1de0 ec3d f311 033b
00000380: 3357 8e3b bfaa 41bc 3848 373e c25c a03c
00000390: f889 4d3e d8ba 453d 2948 ed3d 768f 543e
000003a0: a9f3 ac3c 23c5 f8bc 3489 d93d d12d 02bb
000003b0: 06d7 203e 4d32 0d3e e90c 373e 5d06 9a3d
000003c0: 2cdb d53b 1d30 ddbc 494b f43b 2452 4c3e
000003d0: 07a2 7b3d d0ed af3d 4799 7c3d 4ba2 c73c
000003e0: 4b18 433e ae95 643d 697c e13c 2993 503e
000003f0: e2eb 263e d986 1e3e 4d09 363e b860 103c

encoder.convs.1.lin_l.weight f4 [16, 16]
0.008717385 0.10418753 -0.037594415 -0.23772319 -0.059411872 -0.2893209 0.05654155 0.11871196
-0.08945313 -0.29091415 -0.071174115 0.10690784 -0.2786097 0.10554567 0.11444562 -0.20724171
0.06422192 0.119567096 -0.060307354 0.19935554 -0.11113966 0.31246373 -0.26312998 0.19978067
-0.056210905 -0.2511704 0.13006748 -0.08924899 0.04282767 0.11516738 0.015847405 0.07984865
-0.08968651 -0.21395887 0.06622329 0.06171728 -0.076562114 -0.030933548 0.14943604 0.09218725
-0.0116172135 0.29120144 0.07566375 0.18770532 0.14357348 0.120723456 0.10716031 0.08980444
-0.14369118 0.18637674 0.015600188 -0.017715383 0.09552267 -0.28929353 0.06823335 0.1716933
0.14972404 0.12108985 -0.22797492 0.16998604 0.052278016 -0.24367583 0.19961366 0.1949457
0.06704319 0.24514976 0.10434947 0.2868126 -0.12399897 -0.13744909 0.16939722 0.14261253
-0.2122216 -0.043100834 0.26666507 0.2829696 -0.014178703 -0.1117695 0.07395633 -0.00031912327
-0.4231654 0.18011035 -0.30845568 0.115254 -0.26432738 -0.30001503 -0.0025428324 -0.2004871
0.16853717 -0.1349717 -0.089564525 0.11864352 -0.32205534 -0.10292584 0.117051624 0.21088743
0.20582351 0.1980157 0.28537697 0.24557318 0.11539213 0.3354405 0.042833846 0.15587471
-0.07546288 0.11261876 0.30623388 0.34953904 0.19204172 0.16434827 0.3108736 0.12151444
-0.120752744 0.15254188 0.18386361 0.124627575 0.050660618 0.18535487 -0.22738291 0.021906067
-0.21964505 0.109380186 -0.0007230597 -0.07948102 0.043347154 -0.038268596 0.10567206 0.1345016
-0.12401861 -0.2165651 0.022328228 -0.15287778 -0.14177427 0.11773336 0.059407473 -0.05555871
-0.09088725 -0.18488109 -0.106830895 0.01602444 -0.14605176 -0.22696763 -0.24220908 -0.23575917
-0.12778233 0.0673579 -0.149065 0.12584326 0.09934816 -0.19205636 0.027940705 -0.10956469
0.20734021 0.1479966 0.07424309 -0.15108559 0.0076688076 -0.15761775 -0.008242543 0.24714482
-0.06957286 -0.14376941 -0.07128533 -0.13214655 0.13771975 -0.11694938 0.14254345 0.14894551
0.15040106 -0.011363859 -0.073480986 0.053106938 -0.10598503 0.10046926 0.03539737 0.08694437
-0.07722149 0.1492818 -0.081932016 0.09342435 -0.019217715 -0.30084592 -0.05143201 -0.11257772
-0.123951346 -0.028095046 -0.1360786 0.005726435 -0.17463763 -0.15511483 0.109556116 -0.20474339
-0.0528879 -0.032618992 0.21706118 0.030543467 0.31483486 0.2756834 0.28530803 0.17889619
-0.05456704 0.10566358 0.1394695 -0.092605084 0.36132073 0.07105821 0.32663774 -0.23354238
-0.059924357 -0.09804073 -0.00227532 0.009050862 -0.047266442 -0.025229776 -0.06757576 0.04704702
-0.13665956 -0.04086532 0.10986695 0.13452047 -0.0049121003 -0.027462095 0.031312063 0.11509693
0.064087376 -0.14839038 -0.2239542 0.120918855 -0.12521748 0.07780783 -0.20138302 0.12096044
0.10510814 -0.04345589 -0.17564027 -0.010353872 0.14913872 0.18892393 -0.0050024637 -0.020688415
0.18004042 0.043563306 0.25235054 0.236891 -0.1439275 -0.16878745 -0.14979182 -0.012184638
0.22634831 -0.17232431 0.061550505 0.15039353 -0.04686884 -0.20961496 -0.23056522 0.03717798
00000000: 5dd3 0e3c 4660 d53d 9afc 19bd b56d 73be
00000010: dd59 73bd de21 94be 1d98 673d 421f f33d
00000020: 3433 b7bd b3f2 94be bcc3 91bd 7ff2 da3d
00000030: eea5 8ebe 5428 d83d 7762 ea3d 2c37 54be
00000040: c886 833d 98df f43d d804 77bd dc23 4c3e
00000050: 319d e3bd 3ffb 9f3e f9b8 86be 4e93 4c3e
00000060: 683d 66bd 6899 80be 6930 053e 2dc8 b6bd
00000070: 116c 2f3d e0dc eb3d 6bd2 813c b087 a33d
00000080: 90ad b7bd 0918 5bbe 14a0 873d 42cb 7c3d
00000090: 99cc 9cbd 5a68 fdbc c305 193e abcc bc3d
000000a0: 2056 3ebc 5b18 953e 99f5 9a3d d335 403e
000000b0: ed04 133e dc3d f73d dd76 db3d 64eb b73d
000000c0: c823 13be 8bd9 3e3e ee97 7f3c da1f 91bc
000000d0: 64a1 c33d 481e 94be edbd 8b3d 5ed0 2f3e
000000e0: 4251 193e f5fd f73d 4272 69be d210 2e3e
000000f0: 7921 563d 2886 79be 8667 4c3e d89f 473e
00000100: f14d 893d 8a08 7b3e 2db5 d53d 1ad9 923e
00000110: 2cf3 fdbd 74bf 0cbe 7776 2d3e 0509 123e
00000120: 9e50 59be 808a 30bd 5388 883e 64e1 903e
00000130: ca4d 68bc 68e7 e4bd 6b76 973d 0050 a7b9
00000140: 23a9 d8be d96e 383e e7ed 9dbe 4a0a ec3d
00000150: eb55 87be 929b 99be a6a5 26bb 7e4c 4dbe
00000160: 0295 2c3e 0536 0abe 9b6d b7bd 60fb f23d
00000170: 70e4 a4be c8ca d2bd c3b8 ef3d e0f2 573e
00000180: 66c3 523e a1c4 4a3e ee1c 923e 8977 7b3e
00000190: b652 ec3d dbbe ab3e 8b72 2f3d 9f9d 1f3e
000001a0: 488c 9abd aaa4 e63d b0ca 9c3e c8f6 b23e
000001b0: 96a6 443e ea4a 283e d32a 9f3e 90dc f83d
000001c0: 374d f7bd f033 1c3e be46 3c3e be3c ff3d
000001d0: 8281 4f3d abcd 3d3e 11d7 68be 5a74 b33c
000001e0: a2ea 60be b802 e03d b78b 3dba f2c6 a2bd
000001f0: c98c 313d 88bf 1cbd 986a d83d caba 093e
00000200: 78fd fdbd 3ec3 5dbe b0e9 b63c fe8b 1cbe
00000210: 462d 11be 301e f13d 4055 733d 8891 63bd
00000220: 1823 babd 7851 3dbe 28ca dabd b045 833c
00000230: 988e 15be 346a 68be a805 78be da6a 71be
00000240: 5fd9 02be f0f2 893d 7fa4 18be 0edd 003e
00000250: 0c77 cb3d 6caa 44be e8e3 e43c 7463 e0bd
00000260: fe50 543e 6c8c 173e c30c 983d 2eb6 1abe
00000270: 9f4a fb3b 8c66 21be bb0b 07bc 8813 7d3e
00000280: 377c 8ebd 4a38 13be 0bfe 91bd 6d51 07be
00000290: 6806 0d3e 2883 efbd e9f6 113e 2c85 183e
000002a0: bc02 1a3e 7b2f 3abc 337d 96bd a986 593d
000002b0: ae0e d9bd d4c2 cd3d d5fc 103d e40f b23d
000002c0: 4d26 9ebd 54dd 183e f9cb a7bd 4455 bf3d
000002d0: 786e 9dbc 7a08 9abe 5faa 52bd 268f e6bd
000002e0: 34da fdbd 9527 e6bc 3058 0bbe d2a4 bb3b
000002f0: 35d4 32be 6cd6 1ebe f55e e03d 40a8 51be
00000300: fca0 58bd 7e9b 05bd 4945 5e3e 4b36 fa3c
00000310: 0932 a13e 6026 8d3e e513 923e 9030 373e
00000320: b081 5fbd 2666 d83d 18d1 0e3e bca7 bdbd
00000330: 08ff b83e f886 913d 103d a73e bc25 6fbe
00000340: 3e73 75bd 94c9 c8bd 891d 15bb 114a 143c
00000350: 759a 41bd adae cebc 2965 8abd 60b4 403d
00000360: 7cf0 0bbe 6562 27bd ec01 e13d bcbf 093e
00000370: aff5 a0bb 30f8 e0bc 1441 003d f0b7 eb3d
00000380: 3e40 833d a6f3 17be 4054 65be 4ea4 f73d
00000390: 0339 00be b659 9f3d 5a37 4ebe 1bba f73d
000003a0: f042 d73d cefe 31bd 0bdb 33be 49a3 29bc
000003b0: d2b7 183e 4675 413e b5eb a3bb c07a a9bc
000003c0: 845c 383e 706f 323d 1734 813e 8e93 723e
000003d0: bb61 13be 9ed6 2cbe 0763 19be 13a2 47bc
000003e0: dac7 673e c975 30be 621c 7c3d c300 1a3e
000003f0: 8af9 3fbd 4ea5 56be 4a19 6cbe f047 183d

encoder.convs.1.lin_l.bias f4 [16]
0.16647315 0.047871534 0.13555197 0.095375575 -0.20286646 0.17680499 0.16338097 -0.12571912
-0.17985165 -0.26106143 -0.16202267 0.2487991 0.014095413 -0.14377107 -0.24096219 -0.04664154
00000000: f077 2a3e f114 443d 23ce 0a3e 4554 c33d
00000010: 3abc 4fbe 5e0c 353e 574d 273e 83bc 00be
00000020: 082b 38be d8a9 85be 45e9 25be 31c5 7e3e
00000030: 72f0 663c b938 13be cbbe 76be 330b 3fbd

encoder.convs.1.lin_r.weight f4 [16, 16]
0.3421858 0.085826814 0.09705719 0.10373657 0.15478544 -0.025832558 0.22689556 0.14382325
-0.12879452 -0.017113255 0.14970462 0.20479766 0.28168866 -0.18492588 0.19043057 -0.22933316
0.11661469 -0.19827774 -0.1941428 -0.15021192 0.17913243 0.14986035 -0.007141278 -0.044674244
-0.20951784 -0.2438051 -0.10240873 0.086795114 -0.1768858 -0.052037597 0.025285883 0.0028149784
-0.0565656 0.03917515 0.365837 -0.19211364 -0.09401447 0.29186836 0.025503334 0.26707587
0.1989741 -0.14459804 -0.043684084 -0.28205162 0.119196415 0.14921215 -0.16113402 -0.13609347
0.06444988 0.06346259 -0.23044257 -0.042210486 -0.21015958 0.065903544 -0.0062949164 -0.0054063248
-0.011798203 -0.043679032 -0.26106858 0.12950365 -0.047177564 0.0069762766 -0.03201872 -0.23515561
0.027369827 0.21521467 0.16847299 -0.0036298602 0.062466852 0.1187958 -0.07775838 0.0774714
0.082351625 0.041310903 -0.19127116 -0.06200327 0.13510485 0.16459739 -0.1339025 0.081597805
-0.02165692 0.059366517 0.1325641 -0.13616532 0.23934402 0.16872208 0.24091956 0.15575196
0.10289401 0.06548642 -0.027075566 0.23434177 -0.028561523 0.06448534 -0.04713594 -0.10587117
-0.16105324 -0.061224043 0.21234186 0.15447867 0.021268072 0.2394427 0.20838442 -0.09657084
-0.18503037 0.23385957 -0.22181147 -0.18917818 -0.15686715 -0.1611937 -0.15614402 0.0075776875
-0.056545354 0.19764265 -0.2691287 -0.21424912 -0.23629937 -0.17417279 0.04388367 -0.20223282
-0.054620415 -0.12646517 -0.09139452 -0.09553357 0.07287123 -0.11070183 -0.115212806 0.14212665
0.22725105 0.2034893 -0.057118 0.02055631 -0.14235345 -0.02447164 0.0069908956 -0.14609587
-0.036515325 0.0954533 0.037550967 0.23265845 -0.08581409 -0.104772866 -0.24729522 0.11929962
-0.14246012 -0.23300365 -0.011026385 -0.13077506 -0.18894969 0.11055852 -0.17587095 0.085719444
0.21272272 0.12204484 -0.1365866 0.18381535 -0.18402776 0.20219335 -0.07710505 -0.1124275
0.05084303 0.22618276 0.029234717 0.31918654 0.16707158 -0.17753676 -0.042748068 0.31438294
0.22896552 0.28963515 0.3779209 -0.12354936 -0.09938887 -0.0939419 -0.07255251 -0.060987383
0.28884 0.029486028 0.24722566 0.0060009765 0.32221955 0.033114027 0.30192772 0.331641
-0.013394177 0.35634926 0.27965015 0.07188047 0.18072765 -0.12161428 0.18685815 -0.15096933
-0.07253836 -0.09575403 -0.17470677 0.22017872 -0.03962472 0.024292745 0.0009359471 0.06796483
-0.20997387 0.07671884 -0.09129201 -0.16696246 -0.13272491 -0.19494918 0.19585642 0.09558925
0.19132596 -0.20118368 -0.23421392 0.07900162 -0.12925684 -0.119807445 -0.15306683 -0.23946081
-0.1472762 -0.16403891 0.120397374 -0.036051475 0.1283934 0.21734723 0.1538147 -0.20347816
0.0988354 0.13516264 -0.13857476 -0.09905159 0.05800394 -0.011122485 -0.21857074 -0.082032345
-0.06898436 0.11323511 0.06957515 0.09360729 -0.070757195 -0.22758949 0.23739578 0.007731527
0.20721693 -0.14178267 0.1392012 0.19201036 0.03873732 -0.18060431 0.21245961 0.30118924
0.1950581 0.22804375 0.18774231 0.23116645 0.04077013 0.19279775 0.24653573 -0.24927393
00000000: fa32 af3e f8c5 af3d ecc5 c63d d773 d43d
00000010: 1380 1e3e cd9e d3bc 4f57 683e 6746 133e
00000020: b6e2 03be 1931 8cbc 2b4c 193e 7ab6 513e
00000030: 7f39 903e 365d 3dbe 3b00 433e 50d6 6abe
00000040: afd3 ee3d 5209 4bbe 5fcd 46be 27d1 19be
00000050: 7e6e 373e fe74 193e 6201 eabb 57fc 36bd
00000060: d88b 56be 0ba8 79be abbb d1bd a3c1 b13d
00000070: 8d21 35be 6025 55bd 5724 cf3c 807b 383b
00000080: 55b1 67bd 1f76 203d fd4e bb3e 70b9 44be
00000090: a98a c0bd c56f 953e 5eec d03c 2bbe 883e
000000a0: debf 4b3e 8211 14be 15ee 32bd 1269 90be
000000b0: 401d f43d 12cb 183e 5100 25be 165c 0bbe
000000c0: 4cfe 833d adf8 813d 23f9 6bbe e7e4 2cbd
000000d0: 1334 57be 70f8 863d 9645 cebb 8a27 b1bb
000000e0: 404d 41bc c9e8 32bd c8aa 85be 9b9c 043e
000000f0: 433d 41bd 4099 e43b 1026 03bd a2cc 70be
00000100: b036 e03c 3c61 5c3e 2f84 2c3e f3e2 6dbb
00000110: 3edd 7f3d 364b f33d c93f 9fbd 53a9 9e3d
00000120: f8a7 a83d 9f35 293d 96dc 43be 24f7 7dbd
00000130: ed58 0a3e 388c 283e bd1d 09be c01c a73d
00000140: da69 b1bc 4e2a 733d e2be 073e ec6e 0bbe
00000150: 9916 753e 7bc5 2c3e 9eb3 763e 717d 1f3e
00000160: 18ba d23d bf1d 863d 94cd ddbc 4af7 6f3e
00000170: dbf9 e9bc e410 843d 9e11 41bd fcd2 d8bd
00000180: 24eb 24be 10c6 7abd 2570 593e a82f 1e3e
00000190: 613a ae3c 7830 753e ba62 553e efc6 c5bd
000001a0: 9a78 3dbe e278 6f3e 8c22 63be edb7 41be
000001b0: c8a1 20be f60f 25be 38e4 1fbe 404e f83b
000001c0: 1a9c 67bd d662 4a3e 3dcb 89be 1f64 5bbe
000001d0: 76f8 71be 5a5a 32be 5dbf 333d 1f16 4fbe
000001e0: a8b9 5fbd 1680 01be 0d2d bbbd 1ba7 c3bd
000001f0: 833d 953d a4b7 e2bd b1f4 ebbd a689 113e
00000200: 80b4 683e 805f 503e 90f4 69bd b565 a83c
00000210: 1ac5 11be c078 c8bc e213 e53b 289a 15be
00000220: 1891 15bd 057d c33d 0bcf 193d 043e 6e3e
00000230: 4cbf afbd 2893 d6bd f53a 7dbe 5c53 f43d
00000240: 11e1 11be 8298 6ebe 03a8 34bc e6e9 05be
00000250: 077c 41be 816c e23d 8417 34be ad8d af3d
00000260: fcd3 593e a5f2 f93d 5cdd 0bbe 173a 3c3e
00000270: c671 3cbe c60b 4f3e 41e9 9dbd 6440 e6bd
00000280: c840 503d 749c 673e a57d ef3c 6b6c a33e
00000290: d014 2b3e 32cc 35be 9918 2fbd cdf6 a03e
000002a0: f075 6a3e 0f4b 943e d97e c13e 7207 fdbd
000002b0: 648c cbbd 9c64 c0bd 6996 94bd e8cd 79bd
000002c0: d6e2 933e af8c f13c b928 7d3e d7a3 c43b
000002d0: f6f9 a43e 93a2 073d 4596 9a3e d9cc a93e
000002e0: 4073 5bbc 6973 b63e 4e2e 8f3e 1136 933d
000002f0: ab10 393e e810 f9bd be57 3f3e b497 1abe
00000300: fe8e 94bd b01a c4bd 55e6 32be 8876 613e
00000310: 884d 22bd 9401 c73c 595a 753a 2531 8b3d
00000320: 6403 57be c41e 9d3d 4ef7 babd 35f8 2abe
00000330: 0ae9 07be c2a0 47be 968e 483e 4cc4 c33d
00000340: f4ea 433e 1803 4ebe c6d5 6fbe 9acb a13d
00000350: e85b 04be 9b5d f5bd 8dbd 1cbe 3735 75be
00000360: 92cf 16be d1f9 27be e692 f63d b6aa 13bd
00000370: 8f79 033e 4690 5e3e 9a81 1d3e 945c 50be
00000380: 376a ca3d 1368 0a3e 8be6 0dbe 8fdb cabd
00000390: 8a95 6d3d 153b 36bc 02d1 5fbe 9300 a8bd
000003a0: ac47 8dbd cfe7 e73d 6b7d 8e3d 2eb5 bf3d
000003b0: 26e9 90bd 380d 69be e117 733e c058 fd3b
000003c0: ad30 543e 7a2f 11be c28a 0e3e 5d9e 443e
000003d0: 06ab 1e3d 56f0 38be 038f 593e 7a35 9a3e
000003e0: 50bd 473e 4d84 693e 853f 403e e6b6 6c3e
000003f0: 94fe 263d c66c 453e dd73 7c3e aa41 7fbe

encoder.convs.2.lin_l.weight f4 [16, 16]
0.12965916 0.031930204 -0.22383456 -0.055115104 0.2574097 -0.22778079 0.03588983 -0.07427713
-0.2053428 0.1458769 0.026401684 0.16652994 -0.21927387 0.13717698 0.18775854 -0.1455127
0.41265792 0.36360145 -0.19157122 0.18974899 0.012331486 0.081283234 0.24494421 0.12781766
-0.09310621 0.21206544 0.29921275 0.22622012 0.05084229 -0.20358336 -0.022071583 0.1404786
-0.050270498 -0.12758517 0.17951065 -0.041591823 -0.24489677 -0.16029117 -0.24732545 0.13834772
-0.02868238 -0.12742531 -0.19173032 0.12183419 -0.21607238 -0.22738615 -0.022526681 0.14927304
-0.084316604 -0.0578512 0.04075059 -0.20240009 0.070590094 0.19823883 0.110746846 0.27175474
0.21718729 -0.11978742 0.20776817 0.2139877 0.08409608 -0.07628526 -0.108668916 -0.06577286
0.023293817 -0.010970494 -0.17346612 0.18001404 -0.35698673 0.08976486 -0.1286003 -0.03676943
0.16550106 0.18872921 -0.12065673 0.048167687 -0.3258229 -0.13529943 -0.21681815 0.108348146
-0.21832293 -0.12995777 -0.18665345 -0.057295885 -0.04903555 0.18675448 -0.28300723 -0.003730376
0.2419819 0.19599809 -0.04260851 -0.14389673 -0.12156422 0.03166274 0.0357315 -0.03068148
-0.046302963 -0.0031964183 0.17510942 0.110576525 -0.30324516 0.0053783916 0.16980264 0.19803208
0.16683841 -0.12593274 -0.20214108 0.126381 0.16406581 0.1752308 0.112004876 0.111241624
-0.27252087 0.06326868 0.022153625 -0.030684056 0.18788265 -0.19949827 0.07496326 -0.11063004
0.12546888 -0.22683427 -0.14505205 -0.19232474 0.21774434 0.14665753 0.17018704 0.18124343
-0.07167471 -0.042181667 0.05190543 -0.012654243 0.0523763 -0.20270164 0.16898583 -0.19630416
0.17439818 0.0774189 0.022651333 -0.017533077 0.024431173 -0.12561873 -0.13293275 -0.147314
-0.17437853 0.15329735 0.04173851 -0.016487015 0.09170187 0.21006909 -0.0058926963 -0.1185307
-0.18132621 0.21078011 -0.22372441 0.12491161 0.24861562 0.15141645 0.021136895 -0.04252201
0.17123538 -0.12878034 0.07546451 -0.07832649 0.1226534 -0.081085496 -0.1809361 -0.109114364
0.14702168 0.15430911 -0.20279582 -0.24378435 -0.058785345 0.0070340275 -0.07028964 0.15918714
0.098773606 -0.06598888 -0.0053583784 0.10105 -0.41471276 -0.15938058 -0.29528058 0.101770416
0.027143627 -0.2599034 0.2919809 0.20418404 -0.39364806 0.1585695 -0.01882662 0.10674418
0.08272987 0.23227619 0.0022606482 -0.07331349 0.09410137 0.22605592 -0.063501105 -0.15646137
0.234216 -0.08529572 -0.30202866 -0.27881584 0.06637415 0.11560177 -0.08968554 -0.4013279
0.17501715 0.015217547 0.2035208 -0.023373514 0.2073406 -0.06344834 -0.13436416 0.1451101
0.062386185 0.22511648 0.00042977452 -0.20900808 -0.19556184 -0.05613774 -0.037468016 -0.15559174
0.016618665 -0.19732375 -0.0282346 0.112616025 0.040841136 -0.020054819 0.036078498 -0.17465599
-0.24758092 0.057914946 -0.2794505 -0.38212347 -0.2643189 0.22680782 -0.18130971 0.1056074
-0.058704913 0.06509557 -0.2967921 -0.21729903 -0.28680232 0.14888321 -0.3005717 -0.0032036158
0.040548235 0.051242284 -0.25308225 -0.3536912 0.037975535 -0.18940566 -0.12551923 -0.48210406
00000000: 5fc5 043e 3fc9 023d e334 65be 60c0 61bd
00000010: 34cb 833e 5e3f 69be 3701 133d 9c1e 98bd
00000020: 6245 52be c160 153e 5848 d83c d386 2a3e
00000030: 5489 60be 1f78 0c3e c643 403e 4801 15be
00000040: e647 d33e f829 ba3e 3f2b 44be 8f4d 423e
00000050: 000a 4a3c d377 a63d a8d2 7a3e a2e2 023e
00000060: 78ae bebd af27 593e 6a32 993e 3fa6 673e
00000070: 0140 503d 2878 50be 77cf b4bc 9fd9 0f3e
00000080: 70e8 4dbd b0a5 02be a4d1 373e 305c 2abd
00000090: 38c6 7abe 5e23 24be e242 7dbe 06ab 0d3e
000000a0: 50f7 eabc c87b 02be f454 44be 3484 f93d
000000b0: 1442 5dbe ead7 68be e089 b8bc 08db 183e
000000c0: 2fae acbd 61f5 6cbd 17ea 263d f841 4fbe
000000d0: 8a91 903d 1fff 4a3e 3ecf e23d 7023 8b3e
000000e0: 5866 5e3e 1b53 f5bd 2ec1 543e 971f 5b3e
000000f0: 913a ac3d 723b 9cbd cf8d debd ecb3 86bd
00000100: add2 be3c 96bd 33bc 1aa1 31be 9a55 383e
00000110: f7c6 b6be a4d6 b73d ccaf 03be 8b9b 16bd
00000120: 1c79 293e 3b42 413e e01a f7bd 7b4b 453d
00000130: 42d2 a6be ef8b 0abe 9405 5ebe a2e5 dd3d
00000140: 0c90 5fbe a613 05be 1522 3fbe 17af 6abd
00000150: 80d9 48bd 913c 3f3e 53e6 90be 5379 74bb
00000160: 1aca 773e b9b3 483e 4386 2ebd aa59 13be
00000170: a9f6 f8bd cab0 013d 315b 123d ba57 fbbc
00000180: 2da8 3dbd 007b 51bb e24f 333e f275 e23d
00000190: f342 9bbe 383d b03b bee0 2d3e ecc8 4a3e
000001a0: b0d7 2a3e 83f4 00be 12fe 4ebe 056a 013e
000001b0: de00 283e b46f 333e d062 e53d a6d2 e33d
000001c0: db87 8bbe 0293 813d 857b b53c 215d fbbc
000001d0: 4f64 403e 4649 4cbe 5686 993d 0192 e2bd
000001e0: ea7a 003e 3e47 68be 8688 14be c7f0 44be
000001f0: 5ff8 5e3e 642d 163e 8345 2e3e e197 393e
00000200: 31ca 92bd afc6 2cbd ca9a 543d be53 4fbc
00000210: 8888 563d 0591 4fbe 9f0a 2d3e f503 49be
00000220: 7095 323e cd8d 9e3d 4a8f b93c 87a1 8fbc
00000230: e223 c83c 32a2 00be 861f 08be 7bd9 16be
00000240: 4990 32be fbf9 1c3e 00f6 2a3d c70f 87bc
00000250: 31ce bb3d 5a1c 573e 8517 c1bb 39c0 f2bd
00000260: 94ad 39be bed6 573e 0318 65be a8d1 ff3d
00000270: 1895 7e3e ea0c 1b3e 4827 ad3c 8f2b 2ebd
00000280: 5458 2f3e fede 03be 238d 9a3d a469 a0bd
00000290: b531 fb3d 2710 a6bd 5047 39be 5a77 dfbd
000002a0: da8c 163e 3503 1e3e b5a9 4fbe 9ba2 79be
000002b0: e7c8 70bd b37d e63b 04f4 8fbd f401 233e
000002c0: d149 ca3d 2e25 87bd 5695 afbb 4df3 ce3d
000002d0: 3b55 d4be aa34 23be 042f 97be 026d d03d
000002e0: 505c de3c 0f12 85be 857e 953e 9f15 513e
000002f0: 3d8c c9be 0b60 223e 493a 9abc b19c da3d
00000300: 476e a93d cfd9 6d3e 6227 143b 6225 96bd
00000310: 38b8 c03d 347b 673e de0c 82bd 6937 20be
00000320: 52d6 6f3e 86af aebd 80a3 9abe f3c0 8ebe
00000330: 2cef 873d 9fc0 ec3d 0dad b7bd da7a cdbe
00000340: b237 333e 0553 793c c267 503e d079 bfbc
00000350: 1851 543e 34f1 81bd c296 09be be97 143e
00000360: a888 7f3d ef84 663e 5c53 e139 3706 56be
00000370: 5d41 48be b0f0 65bd 1078 19bd 7153 1fbe
00000380: de23 883c 3d0f 4abe 3f4c e7bc 3ba3 e63d
00000390: 0949 273d 014a a4bc 0cc7 133d 05d9 32be
000003a0: da85 7dbe 3938 6d3d 2314 8fbe b0a5 c3be
000003b0: cf54 87be 4f40 683e 41a9 39be b148 d83d
000003c0: 9074 70bd d450 853d 22f5 97be a383 5ebe
000003d0: c1d7 92be d774 183e 89e4 99be c1f3 51bb
000003e0: e815 263d 6ee3 513d ff93 81be 0317 b5be
000003f0: 3c8c 1b3d 8ff3 41be 1d88 00be 58d6 f6be

encoder.convs.2.lin_l.bias f4 [16]
0.21915321 -0.10820618 -0.08520645 0.14876723 0.045200817 0.28802863 0.099859424 0.09067549
-0.14028239 -0.24194512 0.121408485 0.075955145 0.28861493 -0.25202718 0.113991424 0.15911102
00000000: b369 603e 349b ddbd b880 aebd 7056 183e
00000010: 7e24 393d 7d78 933e 1983 cc3d 12b4 b93d
00000020: 30a6 0fbe 76c0 77be 03a5 f83d 5f8e 9b3d
00000030: 56c5 933e b509 81be 5674 e93d 00ee 223e

encoder.convs.2.lin_r.weight f4 [16, 16]
0.26799557 0.17240252 -0.06925792 -0.2301756 -0.16112173 0.296499 -0.25961924 -0.13867784
0.20637776 -0.0076654186 -0.105059035 0.10041545 0.010728095 0.021576127 0.18282999 0.012293376
-0.059893813 -0.21245733 0.17543651 -0.03669588 0.3440077 0.1994976 0.24029282 0.14254376
0.19253834 -0.16305079 -0.08462005 0.06179196 0.19867133 0.00888617 0.1305953 -0.055584624
-0.2452837 0.019959956 -0.0053509176 -0.15429375 0.24350616 -0.20054194 -0.21185607 -0.17952228
-0.22701815 -0.050385624 -0.1335809 0.20500994 0.13384217 0.118787676 0.21477973 -0.2064459
-0.2438083 0.20773034 0.26767537 0.092737466 0.24980383 0.09348019 0.033287343 -0.08334229
0.10581446 -0.17132403 0.14507799 -0.25861874 -0.13998967 0.19264702 -0.110231236 -0.24522233
-0.007142182 -0.2174578 0.06211351 -0.10782933 -0.054712474 0.034444787 -0.16684148 -0.025288377
-0.029777706 -0.28062063 -0.13282256 0.22739129 -0.22455233 -0.049594164 -0.17738697 0.3208087
0.36071354 0.15963013 -0.19836256 -0.17179672 -0.1699677 0.21716903 0.007846861 -0.11949001
-0.20327188 0.20395374 0.23508884 0.26040938 -0.2627551 0.029276498 0.25244883 -0.0621094
-0.27773204 -0.19120358 -0.085076146 0.022571199 0.10995932 -0.07897707 0.21710739 0.22836871
0.14650746 -0.17306478 -0.005236981 0.12621176 0.19704069 -0.20246117 -0.021350179 -0.18097845
0.0046260823 0.17829221 -0.09119601 0.043158527 -0.15941799 -0.124736555 0.16187555 -0.012918938
0.052708525 -0.18458684 0.36838245 0.12542611 0.095535465 0.0029806325 0.074415885 0.39094254
-0.094938986 0.26795593 -0.07727457 -0.017361052 -0.26133105 0.07817597 -0.29650223 0.11328333
-0.12570778 0.17934157 0.25556695 0.15599667 -0.25274348 0.13166997 -0.2373641 0.03537792
-0.1559276 0.22541106 -0.03417003 0.09861291 0.068885036 0.14307159 0.1604769 0.007934248
-0.17791256 0.0846411 -0.10620858 -0.039304513 0.026790908 0.21764576 0.20039418 0.049157664
-0.024158476 0.24632464 0.1784999 -0.19421208 -0.11421733 -0.08547087 -0.02658306 -0.21651173
-0.20853159 -0.18098603 -0.043461557 0.15908879 -0.2614006 -0.07768838 -0.008304955 0.08204522
-0.029212367 -0.20213044 0.058289956 0.098517664 -0.13684903 -0.17050938 0.1109895 0.012284478
0.18628988 0.099079415 0.1585655 -0.23587506 0.018006476 -0.010205522 -0.06064871 0.011672945
0.23330048 -0.10444374 -0.07140834 -0.07360786 -0.070869006 0.1062827 -0.061885003 0.13398717
-0.21613845 0.19462188 0.09080652 0.2578966 -0.3459846 0.1797103 0.118965164 0.20288134
0.10077062 -0.11726874 -0.08778976 0.006986648 0.041604474 -0.27044892 -0.06659719 -0.23662072
-0.17078885 -0.09377536 -0.10624959 0.02665177 0.15657492 -0.081789166 -0.042723715 0.05787484
0.13400558 0.2281882 0.04865652 -0.023426382 -0.25932068 0.14542331 0.007943721 0.08828358
0.010048126 -0.062126607 0.21223319 0.060230877 -0.22782522 -0.21385875 0.15290616 0.0078120413
0.22395845 0.13067165 0.13308282 -0.031522244 -0.14968365 0.26929256 -0.23180918 -0.15351386
0.1626099 0.1929912 0.25164515 0.25100026 -0.2768074 0.15068555 -0.16056529 0.22110184
00000000: b736 893e 498a 303e 19d7 8dbd 27b3 6bbe
00000010: 18fd 24be b8ce 973e d0ec 84be 9001 0ebe
00000020: b154 533e 312e fbbb 3129 d7bd 9ea6 cd3d
00000030: e4c4 2f3c 6bc0 b03c c937 3b3e 286a 493c
00000040: 3753 75bd 6a8e 59be a1a5 333e 6b4e 16bd
00000050: c721 b03e 1949 4c3e 520f 763e fef6 113e
00000060: c528 453e c9f6 26be 474d adbd 9119 7d3d
00000070: 7f70 4b3e 4c97 113c c6ba 053e b4ac 63bd
00000080: a62b 7bbe 1083 a33c c056 afbb 2eff 1dbe
00000090: ae59 793e de5a 4dbe ccf0 58be b0d4 37be
000000a0: 7277 68be 2861 4ebd 6ec9 08be 20ee 513e
000000b0: ec0d 093e f446 f33d 38ef 5b3e 8e66 53be
000000c0: e2a8 79be 43b7 543e bf0c 893e 24ed bd3d
000000d0: 93cc 7f3e 8b72 bf3d 4f58 083d 5daf aabd
000000e0: 40b5 d83d 916f 2fbe 538f 143e ad69 84be
000000f0: 7459 0fbe 4345 453e eac0 e1bd 901b 7bbe
00000100: f708 eabb 42ad 5ebe bc6a 7e3d a0d5 dcbd
00000110: 301a 60bd fa15 0d3d 7ed8 2abe 9229 cfbc
00000120: 60f0 f3bc 82ad 8fbe a302 08be 43d9 683e
00000130: 0cf1 65be 4023 4bbd eea4 35be 0a41 a43e
00000140: 72af b83e 1576 233e 8e1f 4bbe 7beb 2fbe
00000150: 030c 2ebe 8f61 5e3e 1f90 003c 2eb7 f4bd
00000160: 8126 50be 40d9 503e 21bb 703e 6154 853e
00000170: d687 86be 44d5 ef3c f940 813e 6d66 7ebd
00000180: e532 8ebe dfca 43be 673c aebd 3ce7 b83c
00000190: 5a32 e13d bbbe a1bd 6651 5e3e 7dd9 693e
000001a0: 0d06 163e e537 31be fb9a abbb a83d 013e
000001b0: 09c5 493e fb51 4fbe 92e6 aebc 6a52 39be
000001c0: 6496 973b 3c92 363e f9c4 babd ffc6 303d
000001d0: 783e 23be e175 ffbd b4c2 253e f4a9 53bc
000001e0: e5e4 573d 5504 3dbe a09c bc3e b46f 003e
000001f0: 19a8 c33d b756 433b 5b67 983d 9f29 c83e
00000200: 5f6f c2bd 8531 893e 2142 9ebd c438 8ebc
00000210: 2fcd 85be b91a a03d 24cf 97be 1701 e83d
00000220: 8ab9 00be 51a5 373e acd9 823e 97bd 1f3e
00000230: 9867 81be 7ed4 063e 930f 73be 70e8 103d
00000240: 7cab 1fbe 28d2 663e e0f5 0bbd 91f5 c93d
00000250: 9913 8d3d 5c81 123e 0e54 243e a6fe 013c
00000260: b62e 36be 5058 ad3d e283 d9bd c5fd 20bd
00000270: 9b78 db3c 88de 5e3e 2234 4d3e 8c59 493d
00000280: ffe7 c5bc 873c 7c3e aec8 363e 88df 46be
00000290: c7ea e9bd 5a0b afbd b8c4 d9bc 40b5 5dbe
000002a0: 4e89 55be 6754 39be bf04 32bd 2ce8 223e
000002b0: 4dd6 85be 161b 9fbd 8211 08bc 5307 a83d
000002c0: c64e efbc 48fb 4ebe 73c1 6e3d a1c3 c93d
000002d0: 2722 0cbe 039a 2ebe 774e e33d d644 493c
000002e0: c6c2 3e3e 26ea ca3d ff5e 223e 3b89 71be
000002f0: 5182 933c 1035 27bc c86a 78bd e13f 3f3c
00000300: 52e6 6e3e 99e6 d5bd 893e 92bd b8bf 96bd
00000310: c523 91bd bfaa d93d 217b 7dbd ef33 093e
00000320: 6653 5dbe f54a 473e c5f8 b93d 060b 843e
00000330: e524 b1be fa05 383e 02a4 f33d 20c0 4f3e
00000340: d460 ce3d 982a f0bd 1ecb b3bd 40f0 e43b
00000350: 7469 2a3d 4878 8abe 1c64 88bd b44c 72be
00000360: 46e3 2ebe 4c0d c0bd 6399 d9bd d054 da3c
00000370: 2d55 203e 1481 a7bd 10ff 2ebd 2b0e 6d3d
00000380: c238 093e 2baa 693e 0f4c 473d afe8 bfbc
00000390: aec5 84be d9e9 143e 6126 023c 06ce b43d
000003a0: e5a0 243c 7878 7ebd a853 593e a7b4 763d
000003b0: 044b 69be cafd 5abe 6f93 1c3e 27fc ff3b
000003c0: 5d55 653e cace 053e dd46 083e 781d 01bd
000003d0: ac46 19be b7e0 893e 635f 6dbe bd32 1dbe
000003e0: 3683 263e 7c9f 453e a2d7 803e 1b83 803e
000003f0: b3b9 8dbe 504d 1a3e 3a6b 24be 8568 623e

encoder.convs.3.lin_l.weight f4 [16, 16]
0.28425553 -0.11679017 -0.18454593 -0.18062189 0.08364441 0.09586221 0.21644825 0.11673163
-0.009740312 -0.017073859 0.053349618 0.0424064 0.18266805 -0.16208605 0.18449995 0.23703256
0.13162474 -0.42037636 0.15946043 -0.22234823 0.31852114 0.18780598 -0.10394272 -0.014195276
0.20743796 -0.10761244 0.16754913 0.10758582 0.10871039 -0.15037704 0.34201577 0.3144551
0.18023586 -0.12923959 -0.24481437 -0.110717274 0.11143144 0.033240665 0.16488838 0.05522767
-0.2567865 -0.22862181 -0.09399802 -0.22740988 -0.20507416 0.009473071 -0.07639238 0.13841939
-0.16551429 0.083303206 -0.12497833 -0.16933422 0.16687839 -0.011344235 0.21209085 -0.34753668
0.015088503 -0.24957049 0.1315508 0.10341437 -0.018030474 0.23616585 -0.1662952 -0.22452368
0.30024907 -0.10730126 0.16237745 0.09377323 0.13608387 -0.084512636 -0.11689297 0.2637562
0.16199827 -0.05862672 0.15416424 -0.102497764 0.048755508 0.0416053 0.23736076 0.3129146
0.16462179 -0.088874154 0.02014336 -0.33338368 -0.09654816 -0.047643524 -0.21473953 0.2061846
0.013366997 -0.35730675 -0.166043 -0.083027124 -0.2639741 0.15909046 -0.030638864 -0.22200514
0.022468653 -0.14059724 0.07886934 0.06970149 -0.02449617 0.02146616 -0.039308377 0.18246172
-0.16461968 0.026227634 0.1929849 0.11448765 -0.17441253 0.23148134 -0.13722256 -0.1129262
0.29641232 -0.21762736 0.009998977 0.08958489 0.38028878 0.032810915 0.2518224 0.40224448
0.10675289 0.048056316 0.18940994 -0.13253824 0.40082484 0.17298672 0.30044454 0.43679842
-0.24546719 -0.0094273165 -0.12374967 0.10754353 0.01979363 -0.22084872 -0.020153577 0.074570596
-0.076913744 -0.023656577 -0.17781994 0.18803893 -0.24200952 -0.14796418 -0.22349067 -0.111163646
-0.12598225 0.07142207 0.21611774 0.019596083 0.066062875 0.18622048 -0.24760659 -0.022653341
0.13317005 0.048586395 -0.13466635 -0.06474433 -0.13347846 0.23074026 -0.09644088 -0.048629567
0.018466009 -0.17709267 -0.16370627 -0.15444072 0.040611878 -0.12161819 -0.18641336 -0.22862418
-0.017155942 -0.108145244 -0.14186388 0.07376846 -0.0124551905 -0.18067479 0.09511526 0.09105828
0.035265606 0.27021012 -0.042822003 0.1812473 -0.06516992 0.03191522 0.08417262 -0.073405504
0.16831544 0.030178947 -0.010698937 0.27022406 0.038930327 0.13582742 0.20435368 0.028558638
-0.09442494 0.0069778985 -0.12454149 -0.0033317518 0.124509715 0.11722509 0.10745029 0.0982466
-0.067487754 -0.31409642 -0.32571882 0.1882343 0.018158566 -0.05971079 0.14679487 -0.22343339
0.0016295118 -0.08955994 0.10053301 0.19745548 -0.06434953 0.30134115 0.2410729 0.17849538
-0.08471602 0.09008102 0.1542291 -0.14446613 0.3084683 -0.21726158 -0.0060123843 -0.01741165
-0.07634243 0.098793544 -0.0124411285 -0.049277466 -0.16375788 -0.2223074 0.074550316 -0.14694226
0.10446046 -0.21172915 -0.06435281 0.0559514 0.16052517 0.0155388415 -0.16611974 -0.17078076
-0.07614538 0.10474084 -0.20330656 -0.18573093 -0.22997339 -0.17080665 0.22899216 0.1045113
-0.117970146 0.1886717 -0.08839069 -0.22818676 -0.06336272 -0.12533674 0.104011655 -0.03873894
00000000: f189 913e af2f efbd 9cf9 3cbe f2f4 38be
00000010: c34d ab3d 6853 c43d 9ca4 5d3e fe10 ef3d
00000020: d495 1fbc 7ade 8bbc 2185 5a3d 55b2 2d3d
00000030: 550d 3b3e e3f9 25be 8eed 3c3e aab8 723e
00000040: a3c8 063e 923b d7be 9849 233e 41af 63be
00000050: 3415 a33e 3650 403e ecdf d4bd 4e93 68bc
00000060: 9e6a 543e e963 dcbd 0092 2b3e f455 dc3d
00000070: 8ea3 de3d 70fc 19be b11c af3e 4200 a13e
00000080: c08f 383e 6257 04be 9eb0 7abe bdbf e2bd
00000090: 2b36 e43d 5d27 083d 80d8 283e 6936 623d
000000a0: 8579 83be d61b 6abe 0982 c0bd 23de 68be
000000b0: f6fe 51be f134 1b3c 9c73 9cbd d0bd 0d3e
000000c0: 947c 29be df9a aa3d a4f4 ffbd f365 2dbe
000000d0: 2be2 2a3e 2cdd 39bc 582e 593e 54f0 b1be
000000e0: c535 773c 688f 7fbe 41b5 063e eaca d33d
000000f0: a5b4 93bc 76d5 713e 4a49 2abe 89e9 65be
00000100: 3fba 993e c3c0 dbbd 4646 263e 2e0c c03d
00000110: 9259 0b3e f614 adbd 9565 efbd 0d0b 873e
00000120: e0e2 253e 9222 70bd 3bdd 1d3e 59ea d1bd
00000130: dbb3 473d 526a 2a3d b30e 733e 5836 a03e
00000140: 9d92 283e a703 b6bd b003 a53c 44b1 aabe
00000150: 0bbb c5bd db25 43bd aee4 5bbe 0e22 533e
00000160: 4001 5b3c e9f0 b6be 2d07 2abe 200a aabd
00000170: 9d27 87be 9ce8 223e 5bfe fabc 5155 63be
00000180: 2e10 b83c b9f8 0fbe 4086 a13d a8bf 8e3d
00000190: 31ac c8bc cdd9 af3c d201 21bd 3fd7 3a3e
000001a0: 1092 28be 56db d63c d59d 453e 8078 ea3d
000001b0: 3399 32be 7209 6d3e 1284 0cbe da45 e7bd
000001c0: 5bc3 973e b5d9 5ebe c0d2 233c 4878 b73d
000001d0: 36b5 c23e bd64 063d deee 803e fdf2 cd3e
000001e0: 42a1 da3d b3d6 443d aef4 413e 1bb8 07be
000001f0: ea38 cd3e 6e23 313e ded3 993e 0ba4 df3e
00000200: c05b 7bbe 0875 1abc 7870 fdbd c83f dc3d
00000210: 4026 a23c 2b26 62be 1d19 a5bc 78b8 983d
00000220: f484 9dbd 70cb c1bc 6e16 36be 478d 403e
00000230: 58d1 77be ec83 17be bdda 64be c4a9 e3bd
00000240: 7e01 01be bc45 923d f84d 5d3e f787 a03c
00000250: f94b 873d 95b0 3e3e 958c 7dbe 8093 b9bc
00000260: bb5d 083e 8702 473d fae5 09be ad98 84bd
00000270: 94ae 08be 2d47 6c3e cc82 c5bd cc2f 47bd
00000280: 0746 973c c857 35be 9ea2 27be b525 1ebe
00000290: a458 263d f512 f9bd 25e3 3ebe 751c 6abe
000002a0: 9e8a 8cbc 417b ddbd c444 11be eb13 973d
000002b0: db10 4cbc d002 39be cacb c23d c37c ba3d
000002c0: ab72 103d fb58 8a3e 2066 2fbd e498 393e
000002d0: cf77 85bd 89b9 023d b262 ac3d a055 96bd
000002e0: e25a 2c3e d739 f73c 984a 2fbc cf5a 8a3e
000002f0: 6875 1f3d 5816 0b3e 1742 513e cef3 e93c
00000300: dd61 c1bd dba6 e43b 9c0f ffbd 8559 5abb
00000310: f3fe fe3d b513 f03d e60e dc3d 8335 c93d
00000320: 0537 8abd 3fd1 a0be 9ec4 a6be 7ec0 403e
00000330: 46c1 943c 4d93 74bd 6551 163e b9cb 64be
00000340: 5895 d53a 346b b7bd 40e4 cd3d c531 4a3e
00000350: b0c9 83bd 6349 9a3e d0db 763e 7ec7 363e
00000360: 987f adbd 667c b83d 3cee 1d3e eeee 13be
00000370: 8fef 9d3e d279 5ebe 8903 c5bb e0a2 8ebc
00000380: 6c59 9cbd 4554 ca3d e0d5 4bbc 2bd7 49bd
00000390: 25b0 27be 8da4 63be d6ad 983d 0878 16be
000003a0: 5eef d53d 87cf 58be 68cb 83bd 4c2d 653d
000003b0: b660 243e a096 7e3c 4b1b 2abe 27e1 2ebe
000003c0: 1cf2 9bbd 5e82 d63d 982f 50be 4030 3ebe
000003d0: 257e 6bbe f0e7 2ebe ec7c 6a3e 050a d63d
000003e0: 559a f1bd 2733 413e 2e06 b5bd caa9 69be
000003f0: 50c4 81bd 4658 00be 1004 d53d b9ac 1ebd

encoder.convs.3.lin_l.bias f4 [16]
0.17843483 0.08667136 0.19118954 0.21977106 -0.05353149 -0.07730642 0.18334563 -0.013934342
-0.20122764 0.2713223 0.13658604 -0.10398857 0.17864949 0.23875739 -0.22541763 0.04790997
00000000: 9fb7 363e c180 b13d 31c7 433e aa0b 613e
00000010: d643 5bbd d452 9ebd f5be 3b3e de4c 64bc
00000020: 9e0e 4ebe c2ea 8a3e 36dd 0b3e f6f7 d4bd
00000030: e4ef 363e d17c 743e e1d3 66be 3f3d 443d
