ARES-4573/checkpoints/model_GAE_IDS2018.pt (torch, 14226 bytes, 12 tensors)

encoder.convs.0.lin_l.weight f4 [16, 32]
000000 4d cb 16 be ff 0f 1e 3e bc 6d c3 3d c7 fc 1c 3e
       -0.1472599 0.1543579 0.095424145 0.15330802
000010 42 6b b6 bd a4 4a 9b bd 20 d4 85 bd e0 3f 0a 39
       -0.089071766 -0.07582596 -0.065346 0.00013184501
000020 6f 54 05 be 5d 19 b9 3c c6 d4 ee bd 61 a2 c9 3c
       -0.1302049 0.022595102 -0.11661677 0.024613561
000030 b1 69 22 3e 81 63 d9 3c 9f a4 00 3e f1 52 04 be
       0.1586063 0.026536705 0.12562798 -0.12922265
000040 7f 92 e7 bc 1a 5a e6 bd 19 df bb bc 98 d1 96 bd
       -0.028268097 -0.11247654 -0.02293353 -0.073641956
000050 ba 5c d4 bd 1d 41 32 be d0 0a 8d bd 31 bb a6 3c
       -0.10369249 -0.17407651 -0.06886828 0.020352932
000060 44 fb 0c bd ed fd 2b be cc 93 04 3e b5 d2 02 3e
       -0.034419313 -0.16796084 0.12947005 0.12775691
000070 0d 13 e1 bd cc 04 70 3c 98 98 e9 3d 1d 4e 2f be
       -0.10989962 0.014649581 0.11406058 -0.17119642
000080 d3 2d e2 bd ef 4c 13 3e 82 18 2d 3d 61 01 d1 3d
       -0.110438965 0.14384817 0.0422597 0.10205341
000090 5e 59 e3 bc 21 5c 9f 3d 26 eb 26 3e 99 b0 24 3b
       -0.027752575 0.07781244 0.1630064 0.0025129674
0000a0 be c6 39 bc db 02 fb bd 55 69 97 3c 9b 90 21 3e
       -0.011338888 -0.12256404 0.018482843 0.15777819
0000b0 e8 6e f8 bd 1c 81 03 3d 78 cf 32 3e bb cd 99 bb
       -0.12130529 0.03210555 0.17461956 -0.0046937144
0000c0 89 2c a0 bc 13 be f7 bb 5c db d3 bc a6 0c 89 3d
       -0.019552486 -0.0075605004 -0.025861435 0.066918656
0000d0 a1 da fe bd 21 11 e8 3d b3 23 92 3a 2a 7f be 3c
       -0.12444044 0.11331392 0.0011149555 0.023253996
0000e0 8a 95 0a 3d 9a fb 13 3e c7 2a 83 bd 1f bb eb bd
       0.033834018 0.14451447 -0.064046435 -0.115103
0000f0 6f 29 a8 bd a3 de ab bd fe 17 25 bd be d4 3d 3e
       -0.08211028 -0.08392074 -0.040306084 0.18538186
000100 bf a5 0c be 7c 08 d6 bd 00 2d 14 be 6e 17 b7 bd
       -0.13735102 -0.10450837 -0.14470291 -0.08940016
000110 8e 15 b6 bb b7 f9 dd bd f7 0b a7 3a b1 42 72 3d
       -0.0055567687 -0.10838645 0.0012744655 0.059145633
000120 ee 40 fb bc 0c fd 9a 3d 03 b8 23 3d 08 42 2e 3e
       -0.03067061 0.07567796 0.03997041 0.17017376
000130 b7 99 1d bc c3 4a 1c 3e 2a e2 06 3e f9 da ab 3d
       -0.009619168 0.15262894 0.13172212 0.08391375
000140 54 ac cb 3d b5 ac f3 bd c4 b0 f3 bd b5 63 99 3d
       0.09944978 -0.118981756 -0.1189895 0.07489721
000150 73 3d 82 3d 0a c0 22 3e d2 6a c1 bc 32 8a 07 bd
       0.06359377 0.1589357 -0.023610506 -0.033090778
000160 5b f9 f6 3d d4 9b a7 3b 3d 56 29 3e 0b e2 b9 bd
       0.120592795 0.0051150117 0.16536804 -0.090763174
000170 2c 01 70 bd 2f d2 e6 3b e4 df bf 3d 4d 4d 1f be
       -0.058594868 0.007044099 0.093688756 -0.15556832
000180 57 a7 8a bd 0d 9d e1 3d 79 48 98 3c f3 a3 da 3d
       -0.06770199 0.11016283 0.018589245 0.10675802
000190 c5 f2 9f bd a0 c4 04 be 75 3d 0e be d5 dc f0 bd
       -0.078099765 -0.12965631 -0.13890631 -0.1176087
0001a0 b0 b1 1a be 13 1a 8e 3d 39 fd ef 3c 31 7a 06 be
       -0.15106845 0.06938567 0.02929555 -0.1313255
0001b0 de 43 13 3e 65 84 03 3d fe d7 42 3d ff db bd bd
       0.14381358 0.032108683 0.047569267 -0.092704765
0001c0 01 57 d5 3d 81 58 12 be 29 96 e2 3d eb 0c ea bd
       0.10416985 -0.14291574 0.11063797 -0.11428245
0001d0 30 ea 68 3d 25 49 a8 bd 61 e4 c5 3d ee 78 2a be
       0.056863964 -0.08217076 0.096627004 -0.16647694
0001e0 70 ce 57 bd 8e 08 87 bd 70 cd fd bd 0c 25 d7 bd
       -0.05268711 -0.065934286 -0.123927 -0.10505113
0001f0 38 e7 8a bd 02 67 e7 38 f9 a9 db 3d c5 9c 41 bd
       -0.06782383 0.00011034125 0.10725779 -0.047268648
000200 ed 46 1a 3e 70 99 da bd e8 b2 e8 bd ee 66 02 bd
       0.15066119 -0.10673797 -0.11362249 -0.031836443
000210 ed b6 5f bd ba 5b 09 3d e3 19 10 3e da 48 1b 3d
       -0.05461781 0.033534743 0.14072375 0.037911274
000220 31 a1 2e be 78 02 aa bd 10 7b 6c bd 69 fe 3b be
       -0.17053677 -0.08301252 -0.05773455 -0.18358769
000230 73 3e 03 3d c7 da 06 3e ea 7d 85 3d 9d f0 d5 bc
       0.032041978 0.13169394 0.06518157 -0.02611571
000240 dc c1 13 bd 3c db d7 bd 95 12 2d bd 39 9a 07 3e
       -0.03607355 -0.105398625 -0.04225405 0.13242425
000250 ba 72 e8 bd 84 ad b9 3b db f9 1b be d9 51 91 bd
       -0.11350007 0.0056664366 -0.15232031 -0.07095689
000260 29 d0 4a bc 85 d8 1f be 99 32 d0 3c 93 9a 32 be
       -0.012378731 -0.1560994 0.025414752 -0.17441778
000270 d0 35 c2 bd 44 a0 cd 3d d1 a5 12 3e 5f 3e 15 bd
       -0.0948292 0.10040334 0.14321066 -0.036436435
000280 38 2b 4d be b5 6a 60 be 88 8b f0 bd 92 29 28 be
       -0.20036018 -0.21915706 -0.117453635 -0.16422108
000290 1e 37 88 3d 6d d4 4c be 18 b3 04 3d 7e 7a 25 bd
       0.06651138 -0.20002909 0.03239736 -0.04040002
0002a0 13 d8 02 be a6 8a 8f 3d c3 96 c7 3c 5e 3c a4 bd
       -0.12777738 0.07008867 0.024363881 -0.080193266
0002b0 47 7a 46 be ae 10 01 be 4d 5e 8b bc 56 1f a2 3d
       -0.19382583 -0.12604019 -0.01701274 0.07916133
0002c0 87 df 08 be ea 03 17 be dd a6 7c be 2a e7 0d 3d
       -0.13366519 -0.14747587 -0.24673028 0.034644283
0002d0 2a c9 c9 3d 7c 5d 43 3d 1f a7 30 be 06 91 57 3d
       0.09852822 0.047696576 -0.17251252 0.05262854
0002e0 7f aa 02 be 5b d4 96 3c fd 76 f0 3c f0 5e 5f be
       -0.12760352 0.018411806 0.029353613 -0.2181356
0002f0 af eb f7 bc 11 41 61 bb 1b 9c 38 be 35 26 b7 3d
       -0.03026375 -0.0034371058 -0.180283 0.08942834
000300 dc 39 75 3e c4 32 7f 3e 0f 8d cc 3d 55 cc e1 3b
       0.23947853 0.2492171 0.09987842 0.0068908134
000310 09 87 9f 3b b6 e3 27 3e 2d e4 87 3d 3d c9 77 3e
       0.0048683924 0.16395459 0.06635318 0.2419786
000320 61 83 7f 3e 51 c1 eb 3d 38 28 31 bd c2 c2 2f 3e
       0.24952461 0.115114816 -0.043251246 0.17164138
000330 72 f3 84 3e 96 c4 69 3d 04 c0 12 3c c2 40 76 3d
       0.25966984 0.057072245 0.008956913 0.06012035
000340 d5 d7 01 3e f0 35 f3 bc 64 94 48 3e e7 48 35 3e
       0.1267999 -0.029688805 0.19587857 0.17703591
000350 d6 cb 0a 3d 3b 67 13 3d 7b 21 90 3c 2c 69 75 3e
       0.0338858 0.03598712 0.01759409 0.23965901
000360 23 45 53 3e 12 5c 1b 3e 40 94 bf 3d 2f 21 15 3e
       0.20631842 0.15171841 0.09354448 0.1456344
000370 29 47 8b 3e fa 38 21 3e 0c 0f 5a 3c b5 ee 2d 3e
       0.27202728 0.15744391 0.0133092515 0.16985591
000380 03 21 34 3b ec 71 88 3d 9a c2 27 bd 56 b5 8a 3d
       0.0027485497 0.06662354 -0.04095707 0.06772868
000390 19 30 a8 3d fa 88 0c bd 19 07 3f 3e 79 d6 71 3e
       0.08212299 -0.03431032 0.18655051 0.23616971
0003a0 88 85 99 bd ec 34 fe 3d 03 98 49 bd 83 af 1a 3d
       -0.07496172 0.12412438 -0.049217235 0.037765037
0003b0 90 5c 21 3e 08 f2 8e 3d 4a 81 01 3e 85 00 80 3c
       0.15757966 0.069797575 0.12646976 0.015625248
0003c0 c6 66 77 3e e9 60 25 bc d8 0f d9 3d 8e 76 ba 3d
       0.24160299 -0.010093906 0.10598725 0.09104644
0003d0 e5 f4 45 3e 77 45 ba 3d 57 ca 37 3e ca 94 f2 3d
       0.19331701 0.090952806 0.1794828 0.118447855
0003e0 52 12 3e 3e 60 e0 99 3d aa 0d 07 3e 22 36 7d 3e
       0.18561676 0.07513499 0.13188806 0.24727681
0003f0 f4 cc 7a 3c 08 0c 7d 3a d4 0d 4e 3e 40 df 0f 3e
       0.015307654 0.0009652977 0.20122463 0.14050007

encoder.convs.0.lin_l.bias f4 [16]
000000 75 ef a8 bd 90 11 be 3c ee 4a cd bd c8 c7 3c 3e
       -0.08248798 0.023201734 -0.10024057 0.18435585
000010 69 47 28 3d 97 01 97 bd 35 c8 8c bd 00 fc 9d 3e
       0.041083727 -0.0737335 -0.06874124 0.30856323
000020 a9 c1 08 3e 53 7d 12 bd 3e d7 20 be a0 8e ef 3d
       0.13355125 -0.03576405 -0.15707108 0.116971254
000030 95 ec ca bd 18 e0 79 3e af ed 2b be 26 73 96 bd
       -0.09908406 0.24401891 -0.16789888 -0.073461816

encoder.convs.0.lin_r.weight f4 [16, 32]
000000 06 4e c8 bd 26 9b 6d 3e ed 00 6e 3e ea e9 a1 bd
       -0.09780507 0.23203716 0.2324254 -0.07905944
000010 3f 70 55 3e cc 18 12 bd 22 74 bd bd 29 9f 20 3e
       0.208436 -0.03566818 -0.09250666 0.15685715
000020 08 1e 30 3e 70 1c 30 3e 70 8b d2 3d df 3a 77 3e
       0.17198956 0.17198348 0.10280502 0.24143551
000030 5e df a4 bd 62 06 1d 3e 5f 22 81 3c 6a e3 a4 3d
       -0.080504164 0.15334466 0.01576346 0.08051188
000040 e6 59 46 3e b7 7f 60 bd 30 d5 18 3e a8 63 15 3d
       0.19370231 -0.0548093 0.14925075 0.036471993
000050 5f 97 3e 3e 41 80 89 3d 8e 50 23 3e e0 30 77 3e
       0.18612431 0.067139156 0.15948698 0.24139738
000060 16 f0 0d 3c ee 9d d1 bd 6e 41 74 3e 09 43 d1 bc
       0.008663198 -0.10235201 0.23853084 -0.02554466
000070 90 be e5 3d 4f 16 3a 3e 3f 92 35 3d 24 fa 56 3e
       0.112179875 0.18172573 0.044328924 0.20993859
000080 29 97 53 3e ca 57 67 3d c7 bd 0d 3e 34 ff d7 3d
       0.20663132 0.056480207 0.13841926 0.10546723
000090 4b af 87 3e e7 9a 5b 3e 7e 4a d2 bc 80 71 df 3d
       0.26500925 0.2144581 -0.025670286 0.1091032
0000a0 25 ea 3f 3e 8d ab 68 3e 03 16 1c 3e c5 32 2b 3e
       0.18741663 0.22721691 0.15242772 0.16718586
0000b0 64 6e 73 3d b1 69 c4 3d b0 08 f8 bc 7b 4d 73 3e
       0.05943145 0.095904715 -0.03027758 0.23760025
0000c0 63 d2 6c 3e 70 b7 ac bb 4f cb 72 bd cf 6f 6b 3e
       0.23127131 -0.005270891 -0.05927592 0.2299187
0000d0 96 51 84 bd 2d 5f 52 3e 70 14 a4 bd cb df dd 3a
       -0.06460874 0.20544119 -0.08011711 0.0016927657
0000e0 92 19 8d 3c 9f 33 84 3e 6e 98 7e 3d cf 6c 7a 3e
       0.017224107 0.25820634 0.062157087 0.2445557
0000f0 bf df 12 3e 0b d3 86 3e 89 2d 56 3e a3 98 63 3e
       0.14343165 0.26332888 0.20915808 0.22226195
000100 94 7b 70 3e 60 6e e9 3c 30 90 03 3d b4 fc 0c 3e
       0.23484641 0.028495014 0.03211993 0.13768274
000110 f6 20 72 3e 86 5b 80 3c cb ec 6e bd dc c5 6b bd
       0.23645386 0.015668642 -0.058331292 -0.05756174
000120 fc 3f 78 ba 51 17 df 3d ba da 76 3d 5b 8c 09 3d
       -0.00094699836 0.10893119 0.060267188 0.03358112
000130 e2 82 fb ba b8 be 01 3e 27 e5 84 bd 49 60 82 3e
       -0.0019188786 0.1267041 -0.0648902 0.25464085
000140 22 82 5a 3d d7 df e8 3d 02 4b 0e 3e bc a6 43 3c
       0.05334676 0.11370819 0.138958 0.011941608
000150 2c 85 61 3e 9d a3 a2 3d 97 05 c3 3d 0f 53 b3 bd
       0.22023457 0.07941363 0.095225506 -0.087560765
000160 9b 22 d2 3d 08 c6 10 3e 80 c5 d7 3d 5e 71 81 3d
       0.10260507 0.14138043 0.10535717 0.06320451
000170 04 59 5b 3e a2 c6 61 3e 3e 49 4f 3e 13 f9 4c 3d
       0.21420676 0.22048429 0.20242783 0.050042223
000180 72 c1 c1 3d 31 22 73 bd 70 d2 8b bd 66 e1 07 3d
       0.09460725 -0.05935878 -0.06827247 0.03317394
000190 a6 ae ab 3d c2 4f 1f bd da f9 aa bd db f4 13 3e
       0.08382921 -0.038894422 -0.08348437 0.14448874
0001a0 62 ca 03 3e 31 f8 57 bd 85 10 3a 3e 28 65 8b bd
       0.12870172 -0.05272693 0.18170364 -0.068064034
0001b0 9e 8a 4a 3e e3 c5 21 3e 01 bb 8d 3b c9 f2 6d 3e
       0.19779441 0.15798144 0.004325271 0.23237146
0001c0 c8 1e 10 bd b6 a4 88 bc 20 e3 51 3e b4 b2 97 3c
       -0.035185605 -0.016680103 0.20496798 0.01851783
0001d0 b5 20 f0 bb 0e 3c bb 3d 45 14 0c 3d ef a5 33 3e
       -0.0073281177 0.09142314 0.034199018 0.17543767
0001e0 a1 65 55 3e d5 20 12 3e 47 83 d1 3d 63 2a de 3d
       0.2083955 0.14270337 0.10230117 0.108479284
0001f0 27 a4 8c 3d 6b bb ad 3d 15 17 8a 3d 31 0b 3d 3e
       0.06867247 0.08483013 0.06742684 0.184613
000200 4b f5 8e 3d 58 cd 3f bd fb 6d 1a 3d 4b e9 9d bc
       0.0698038 -0.04682669 0.03770254 -0.019276282
000210 28 e0 08 3d d0 bb ed 3d 46 e9 18 be 5c d3 80 bb
       0.033416897 0.11608088 -0.14932737 -0.003931446
000220 c7 d1 86 bd af b7 4e be a1 a6 4d be 94 cf 55 bd
       -0.065829806 -0.20187257 -0.20083095 -0.052199915
000230 2f 9e c7 3d 97 1c 15 be 1d b7 e9 3c 17 29 95 3d
       0.09746968 -0.14561687 0.028529698 0.07283228
000240 0b b1 21 be 09 f7 3f 3d 0f 41 8d 3b 64 8d 42 be
       -0.15790193 0.04686645 0.004310734 -0.18999249
000250 38 ec 04 bd 4d b1 47 be fb 83 00 3e 53 5c 5c 3d
       -0.03245184 -0.19501229 0.12550347 0.053798985
000260 88 70 1e 3d 22 72 da 3d ae 5f d9 3d fe f4 15 3e
       0.038681537 0.106663 0.106139526 0.14644238
000270 83 bd 33 3d 32 71 20 be 1e 63 0a 3e ee 45 a4 3c
       0.043881904 -0.1566818 0.13514373 0.020052876
000280 50 0f 82 3c 3a f8 a1 3c 35 80 80 3e 98 a7 ff 3d
       0.015876442 0.019771684 0.25097814 0.12483138
000290 2b 30 5b 3e 46 77 cb 3d 2f d4 7e 3e 91 5e 33 bd
       0.21405093 0.09934859 0.24885629 -0.043791357
0002a0 15 c2 02 3e 4b cf 02 3e 22 0e ab 3d 35 a5 78 3e
       0.12769349 0.12774388 0.08352305 0.24281771
0002b0 ae ee f7 3d b8 d7 c2 3d b1 2a 53 3e 26 a6 92 3d
       0.121060714 0.09513801 0.20621754 0.071605965
0002c0 ca d6 97 3d e6 82 76 bd d6 db ac 3d 1b ad 47 3b
       0.07414015 -0.06018343 0.08440368 0.003046817
0002d0 15 6c 40 3e 3b 17 75 3e b8 86 a2 bd e6 de 89 bc
       0.1879123 0.23934643 -0.07935852 -0.01682992
0002e0 8e f2 82 3e 71 a2 25 3c 2e 9a 78 3e 8b eb 84 3e
       0.2557568 0.01010953 0.24277565 0.25960955
0002f0 21 df 28 3d 75 ac 6b bd d9 20 32 3e d3 e6 29 3e
       0.041228417 -0.057537515 0.17395343 0.16591959
000300 61 59 66 3e 78 5e c6 3d 0f 78 2b 3e b6 58 a4 bd
       0.22495033 0.09685987 0.16745017 -0.08024733
000310 6e f9 c3 3d ca 49 e7 3d b3 7e 3a 3e d4 e0 be bc
       0.09569059 0.11293371 0.18212394 -0.023300566
000320 fd a0 4d 3d 47 70 0b bd 51 27 43 bd 75 65 14 3e
       0.05020236 -0.034042623 -0.047644917 0.14491828
000330 7a 49 c9 3d 89 f7 10 3e e8 d5 89 3d 90 2f 89 3d
       0.09828468 0.14156927 0.067302525 0.06698525
000340 ae 2d 84 3d cd d1 2a 3e 27 dc 50 bd 52 1f e0 3d
       0.06454025 0.16681595 -0.050991204 0.10943474
000350 79 4c 2c 3e 79 07 32 3e f7 3d 5d bc c9 37 55 3e
       0.16826047 0.17385663 -0.013503543 0.20822062
000360 2a 69 3e bd 1d 6e 27 3e 28 1d 5d 3e 39 b2 9d 3d
       -0.04648701 0.16350599 0.21593153 0.07700009
000370 33 7f 00 3e 1d e3 c4 bd 4e ca b7 3a 07 9a f5 3a
       0.12548523 -0.09613631 0.0014022083 0.001873792
000380 ce 88 c8 bd 6a 7a ef 3c 26 a4 42 3e 36 f0 4b 3d
       -0.097917184 0.029233176 0.1900793 0.04978963
000390 b8 25 77 3e b2 5c bd bd 11 76 0c 3e 25 cc 60 3e
       0.24135482 -0.09246196 0.13716914 0.21952875
0003a0 22 36 74 3e 8d db f9 ba 7e 5a be bd 47 27 de 3a
       0.23848775 -0.0019062624 -0.09294604 0.0016948961
0003b0 93 75 4a 3e bc 41 a8 3d 53 49 71 3e 26 a2 7f bd
       0.19771414 0.08215663 0.23563127 -0.062410496
0003c0 08 55 34 bd 88 85 20 3e f2 55 02 3e ea 58 45 bd
       -0.044026405 0.15675938 0.12728098 -0.0481805
0003d0 63 ac 6c 3e 9f ad c5 ba a2 5a a4 bd 30 26 ed 3d
       0.23112635 -0.001508165 -0.08025099 0.11579549
0003e0 93 94 04 bd 37 00 8f bc 9b 6c 03 bd a3 01 eb 3d
       -0.032368254 -0.017456157 -0.032085996 0.114749216
0003f0 14 13 19 3e f8 03 3e 3e bc a8 08 bd eb b1 cf 3c
       0.14948684 0.18556201 -0.033364043 0.025353393

encoder.convs.1.lin_l.weight f4 [16, 16]
000000 88 db 2c 3e 1c a4 a7 3e 50 55 58 3e 38 86 14 be
       0.1688062 0.32742393 0.21126294 -0.14504325
000010 9f 1c 1e bd f6 39 a1 3e c8 5e 9e 3d 18 11 49 3d
       -0.038601514 0.31489533 0.07732922 0.049088567
000020 f9 18 b9 3d 53 d9 b2 bd d3 fb 96 bd 2d 4c 8a bb
       0.09037966 -0.087328576 -0.073722504 -0.0042205066
000030 82 55 80 3e cb 0d 2d bd a4 fc 85 bd 16 fb bf bd
       0.25065237 -0.042249482 -0.06542328 -0.09374063
000040 57 e2 6a 3d 90 a1 b0 3e 5b 38 a1 3e 39 db 00 3e
       0.05734476 0.34498262 0.31488308 0.12583627
000050 ae 02 0a be 68 d7 45 3e 9c 63 99 3e 9d 35 17 3e
       -0.13477585 0.19320452 0.29958808 0.14766546
000060 80 a1 77 3e 87 d5 01 be 7e bf 83 be f6 59 b1 bd
       0.24182701 -0.1267911 -0.25732034 -0.08659737
000070 2f 8b 09 3e 9e aa b4 3e 50 ce 55 3d 46 f5 8c be
       0.13432 0.3528642 0.052198708 -0.2753088
000080 e0 7b 4e bd 0f 32 c5 bc dd 46 de bd be 50 96 bd
       -0.050411105 -0.024071721 -0.1085336 -0.07339619
000090 f4 8d 7b 3d 97 9e 50 3e 20 61 66 3e a4 82 eb 3d
       0.061414674 0.20372997 0.22497988 0.11499527
0000a0 30 bb 12 be 5b da 61 3e d1 cd 71 3e 13 d4 50 bd
       -0.14329219 0.22055952 0.23613669 -0.0509835
0000b0 fa 6d a9 3c 25 a7 a1 3e 6c 0b b4 bd 60 bc 24 3e
       0.020682324 0.31572834 -0.08791241 0.16087484
0000c0 9d de 0f be ce 7f e6 3c 8d d2 8f 3d d5 46 20 3e
       -0.14049764 0.028137114 0.07022581 0.1565202
0000d0 92 9e 5a 3e 92 54 a6 be f4 86 55 3e 1b 99 b1 3c
       0.21349552 -0.32486397 0.20852262 0.021679452
0000e0 c7 15 7e be 48 e0 59 3d 5c 72 cb bc 31 47 aa bd
       -0.24812995 0.053192407 -0.024834804 -0.0831436
0000f0 fd be 80 be c1 31 7d be b0 da d2 3c 40 90 8f 3e
       -0.25145712 -0.24726011 0.025739044 0.28039742
000100 5c 51 66 3e 5b 79 d7 3d ea 33 85 3e f1 96 29 be
       0.22491974 0.105211936 0.2601617 -0.16561486
000110 9f 1f 31 be 58 1e 24 3e 12 35 80 be 59 5b 47 3e
       -0.17297219 0.160272 -0.2504049 0.1946844
000120 1c a2 ad 3d 5d c4 a6 bd ac 42 6d 3e e5 c4 3c 3d
       0.084781855 -0.08142922 0.23169965 0.04608621
000130 13 10 7a 3e c6 a9 27 3e 88 37 32 bd f4 45 b1 3c
       0.24420194 0.16373357 -0.04350999 0.021639802
000140 cf 7c 19 3e 31 08 cf 3d d9 e6 1a 3e 48 0c ee bd
       0.14989017 0.10108984 0.15127124 -0.11623436
000150 20 67 21 be 74 b9 a8 3e be 49 07 be f3 66 22 3e
       -0.15761995 0.3295399 -0.13211724 0.15859585
000160 48 a7 76 3e 04 36 50 be 61 08 1d bd 3f f1 0e bc
       0.2408725 -0.20333105 -0.03833807 -0.00872451
000170 12 a5 81 3e 99 eb 39 3d 24 38 67 3e a7 0f 08 bf
       0.2532125 0.0453907 0.2258001 -0.53148884
000180 a3 fc 19 3e f0 de 3f 3e 92 87 63 bb 68 9b 91 bc
       0.1503778 0.18737388 -0.0034718257 -0.017774299
000190 31 f9 0c be 2c 0a 0f 3e 79 0a 40 3e 31 29 ab 3c
       -0.13766934 0.13968724 0.18753995 0.020893665
0001a0 8a 8a 8d 3e 7c 2f b7 bc bc 6c f4 bc 16 35 a4 3e
       0.2764476 -0.02236151 -0.029837005 0.3207175
0001b0 96 1f ef 3d 94 40 69 3e d4 e4 16 3e 16 90 10 3d
       0.116759464 0.22778541 0.14735729 0.03529366
0001c0 40 ad 94 bd f2 bc 5a 3e 22 e7 28 be 4b 70 82 3c
       -0.07259607 0.2136114 -0.1649442 0.015922686
0001d0 85 05 2e 3e ca 29 94 bc be 70 3a bd be 6f ea 3d
       0.16994293 -0.018086333 -0.045517676 0.114470944
0001e0 1d f5 6a be 2c 58 4a 3e e6 5d 40 3e b2 01 23 bd
       -0.22945066 0.19760197 0.1878582 -0.03979654
0001f0 52 8d df bd d1 71 5b bd 80 b6 7e 3e ef 1a ea bd
       -0.109156266 -0.05357534 0.24874306 -0.114309184
000200 5c 48 4e 3d f3 13 78 be 50 d9 bd 3d 85 1f 1b 3e
       0.050361976 -0.2422636 0.09269965 0.15148742
000210 85 71 6d 3d 3f 93 5e bc db b7 24 3d bd 42 7d 3e
       0.05796959 -0.013584911 0.0402144 0.2473249
000220 5d 8e d8 3d 6a e5 3e bd f2 a5 47 be 83 4e 6d 3e
       0.10574029 -0.046605505 -0.19496897 0.23174481
000230 cc 99 c5 bd ba d8 7e 3e e0 cc 4d bd c7 b1 72 3d
       -0.09648475 0.24887362 -0.050244212 0.059251573
000240 1a 81 68 be ac 6e 17 be 8f b7 3a 3d c7 bd 8c be
       -0.22705498 -0.14788312 0.04558521 -0.2748854
000250 d9 26 7c bd c4 c2 ef 3d 90 5a 6b 3e 90 e8 6c 3e
       -0.061560486 0.117070705 0.22983766 0.2313559
000260 a6 d2 ee bd 74 e7 ef 3b 1a 1a 55 be d5 00 32 3e
       -0.11661272 0.0073212925 -0.20810738 0.1738313
000270 8f eb a5 3c f3 b0 89 3e 30 4d 1f bd 51 a6 d1 3e
       0.020253925 0.26892814 -0.03889197 0.40947202
000280 cc 71 1f 3e f1 87 89 3e 5c 7a fe 3c db f5 12 be
       0.15570754 0.26861528 0.031064205 -0.14351599
000290 dc 98 2b be cc 46 41 be 2c 02 ff 3d eb 63 b9 bd
       -0.1675753 -0.18874663 0.12451586 -0.09052261
0002a0 fc e2 31 bd d6 18 06 3e ea f5 5f 3e b3 2a b8 3c
       -0.04342936 0.13095412 0.21871153 0.022481298
0002b0 c7 70 5e 3e c8 96 a1 bc 30 eb 4c bd 55 26 9a bd
       0.21722709 -0.019725218 -0.05002898 -0.075268425
0002c0 38 28 e8 bd 00 22 8c 3d 00 61 b1 ba a0 76 f9 bd
       -0.11335796 0.068424225 -0.0013532937 -0.12180829
0002d0 b8 d4 22 3e e8 ba e4 bd 20 62 2d be 08 bd b1 3d
       0.15901458 -0.11168462 -0.16931963 0.08678633
0002e0 a0 85 7b bc da ec 0c be 18 fb 50 be 8c 66 99 bd
       -0.015351683 -0.13762227 -0.20408285 -0.074902624
0002f0 bc 02 44 be c4 3c 0b 3e 00 19 ff bc cc da 03 3e
       -0.19141668 0.13597399 -0.03113985 0.12876433
000300 a3 bb 59 3e 34 2c 33 bb b2 34 80 bd 30 33 ec 3c
       0.21262984 -0.002733958 -0.06260051 0.028833002
000310 a8 35 19 3f 75 3f 98 bd f8 91 02 be f2 90 5a 3e
       0.598475 -0.074339785 -0.12750995 0.21344355
000320 9d 1a 9e 3d 68 85 4e 3e b4 98 17 3e d5 17 2a bd
       0.0771992 0.20168078 0.14804345 -0.041526634
000330 38 38 74 be 83 15 8e 3e 10 87 ac 3c d0 2c 7a 3e
       -0.23849571 0.27750787 0.021060497 0.24431157
000340 e3 ff 9a be 6e 0d f7 3c 0a 63 3e be 8e d0 4d bd
       -0.3027335 0.030157771 -0.18592468 -0.05024772
000350 f4 52 4c be 42 2a 9b be ac cd cc 3d 1b 8d b4 3e
       -0.19953519 -0.30305678 0.10000166 0.35263905
000360 47 ef 34 bd da e3 4f bc d5 c3 65 3e 35 b0 0c 3e
       -0.044173505 -0.012688601 0.22437985 0.13739093
000370 22 d9 21 be d4 95 60 3e 20 ab 36 3e d0 19 ab 3e
       -0.15805486 0.21932155 0.17838717 0.3341813
000380 fa fb 42 3e 06 1b 48 3e 29 62 f2 bd 77 34 1e 3c
       0.19041434 0.19541559 -0.11835129 0.009656063
000390 80 75 bb bd 2b cc 23 bd 48 cb 20 3e f1 2f 73 be
       -0.09153271 -0.03998963 0.15702546 -0.23748757
0003a0 e8 0e e2 3d 92 e9 13 be 00 b2 b3 3a ba fb 8f bd
       0.110379994 -0.14444569 0.0013709664 -0.07030435
0003b0 82 89 0e be 3a 28 00 bc ce ad 01 be e6 b7 3d 3e
       -0.13919643 -0.007822091 -0.12663957 0.18527183
0003c0 83 88 c7 bd c9 56 1b 3e 01 01 8f bd ec 9c 53 be
       -0.097428344 0.15169825 -0.06982613 -0.2066533
0003d0 69 e8 3d 3e 01 9f 9f bd 2b ad e8 bd 68 dd 11 3c
       0.18545689 -0.077939995 -0.11361154 0.008902885
0003e0 af 05 4f bc 06 e3 80 3d 22 f5 8c bd 46 77 a7 bd
       -0.012635632 0.06293301 -0.06882693 -0.081770465
0003f0 5c 34 02 3e 82 62 d6 3d d2 46 62 3e d1 34 8e 3c
       0.12715286 0.104680076 0.22097328 0.01735917

encoder.convs.1.lin_l.bias f4 [16]
000000 b8 be 6c bc 1e 56 a2 3c 3e 12 76 bd 47 6c 7d bd
       -0.014449768 0.019816454 -0.06007599 -0.06187084
000010 af aa d8 bd 18 94 23 bd 9e ce fb 3d 33 33 b0 3d
       -0.1057943 -0.039936155 0.122952685 0.086035155
000020 3c 74 17 3e 11 ec a1 be 75 9f 75 3e 98 4e 4e bd
       0.14790434 -0.31625417 0.2398661 -0.05036792
000030 77 b3 16 be a9 e1 42 3e 7d e2 38 be 40 28 f8 bd
       -0.14716898 0.19031395 -0.18055148 -0.12117052

encoder.convs.1.lin_r.weight f4 [16, 16]
000000 d2 97 a3 bd 14 8d 95 bd f3 74 92 3d 8b ea 91 be
       -0.07987942 -0.07302299 0.071512125 -0.28499255
000010 17 9f f4 3d 78 79 ab bc bc 2d 32 3e 8b 73 11 bd
       0.119444065 -0.020931944 0.17400259 -0.03551058
000020 e7 ed c3 bd 70 2d 87 3d c1 f2 79 3e ff a4 a3 bd
       -0.09566861 0.066004634 0.2440901 -0.07990455
000030 0b a1 aa be 48 df c1 be 08 9f 07 3d 54 a7 8b bd
       -0.3332599 -0.37865663 0.03311065 -0.06819025
000040 99 cf 8b be cd ec 79 be 32 37 03 bd 7f 9a 8e be
       -0.27306822 -0.24406739 -0.03203506 -0.27852246
000050 60 35 ff 3d c0 e0 d8 be 68 94 a7 bd 99 51 0e 3e
       0.12461352 -0.4235897 -0.08182603 0.13898315
000060 5b 7c c2 be a0 65 7c 3d e6 82 ab bd 82 f8 83 bc
       -0.379855 0.061620355 -0.08374576 -0.016109709
000070 7a e4 bb 3d e2 99 94 be 20 12 72 3d 17 dc f6 3d
       0.09174438 -0.29023653 0.059099317 0.120536976
000080 dd b2 d4 3d be f1 71 3e dc 6b 83 3e 11 1b 14 be
       0.10385678 0.23627374 0.25668228 -0.1446345
000090 7a f8 88 be b1 c2 2b be 82 f2 bf 3d af 5b fb 3d
       -0.26752073 -0.16773488 0.093724266 0.12273347
0000a0 d2 7f 0f 3e 14 55 de 3d c8 0a 79 3e 1a 3f 25 be
       0.14013603 0.10856071 0.24320519 -0.16137353
0000b0 4c 7a 3d be b9 49 a5 bd 0c b3 46 3e 16 67 a2 be
       -0.18503684 -0.08070702 0.19404238 -0.31719273
0000c0 c9 2b 93 3e 17 2c dc 3d 22 f5 44 3e 9a 3d 9e 3e
       0.28744343 0.10750597 0.19234136 0.30906373
0000d0 c6 7b 8a 3e 78 e0 a1 3e 1f 4d 62 bd e5 7e e8 bd
       0.27047557 0.3161657 -0.05524933 -0.11352328
0000e0 c1 e8 37 3e f2 16 4c 3e c0 f6 cb 3b 3c 9b bc bd
       0.17959882 0.19930628 0.0062244833 -0.09209296
0000f0 fd ba 02 3c ce 62 34 bd f8 d7 f5 3d ed cf c5 be
       0.007979152 -0.04403954 0.120040834 -0.38635197
000100 65 35 48 3e 50 b9 18 bd 2b 72 25 be 3c 53 f5 bd
       0.19551618 -0.037286103 -0.16156833 -0.11978766
000110 32 64 0d be fa 63 6f be bc 6e f4 3c 26 96 70 bd
       -0.13807753 -0.23377982 0.029837959 -0.058736943
000120 d2 2e 11 be 78 5e 14 bd a2 1e 19 bd ec 35 db 3d
       -0.14178017 -0.036222905 -0.03738273 0.10703644
000130 81 67 62 be 4d 05 a2 bd 80 99 5f bb b7 1b 0d be
       -0.22109796 -0.07911167 -0.0034118593 -0.13780104
000140 19 7e 06 3e e4 b6 4a be 90 c3 1d 3e 87 af d5 3d
       0.1313404 -0.1979633 0.15406632 0.1043387
000150 3c cf 8d bb fc 86 d3 3d 9c 70 25 be 5e 83 88 3c
       -0.004327683 0.103284806 -0.16156238 0.016664203
000160 9d 56 9a be b6 c1 22 be b2 87 b0 3d cb ef 7b 3e
       -0.30144206 -0.15894207 0.08619632 0.24603193
000170 0a ac 56 be 65 12 6b be 20 8a 0f be 14 b1 d3 3d
       -0.20964065 -0.22956236 -0.14017534 0.10336509
000180 31 0b 0c be a6 5e 03 be c5 45 e4 3b 17 22 97 3e
       -0.13676144 -0.12829074 0.006966325 0.29518196
000190 86 a1 90 3d e3 b9 36 bd 63 7b 70 3e 95 86 84 3e
       0.07062058 -0.04461087 0.23484568 0.25883928
0001a0 f3 9c 6c 3e 8d 47 3a bc b1 30 99 bc 25 62 6f 3e
       0.23106746 -0.011369598 -0.018699976 0.23377283
0001b0 ec 31 4c 3e ce fb 24 3e 12 60 38 3e 8e 57 04 bb
       0.19940919 0.16111681 0.18005398 -0.0020193788
0001c0 87 43 83 3e 81 90 c0 3d 93 19 89 3e 8a 7e 89 3e
       0.25637457 0.09402562 0.26777324 0.26854354
0001d0 1a 93 45 3e 05 b5 4b 3e ae d6 54 3e d4 c2 f6 bd
       0.19294396 0.19893272 0.20785019 -0.12048879
0001e0 c6 1d ab bd 61 49 2e bd f6 f0 0b be ed 9f 11 3e
       -0.08355288 -0.04255045 -0.13666138 0.14221163
0001f0 9e 3c 25 3d 77 18 17 be a0 64 e5 bd 49 33 b0 be
       0.040341012 -0.14755426 -0.11200833 -0.34414127
000200 65 a4 87 3d 66 25 89 3e 8e 59 45 3e f9 57 56 3e
       0.06623153 0.26786345 0.19272444 0.20931996
000210 28 c5 0a 3e 70 cd 08 3e a5 5a 4d 3c aa 4e 37 be
       0.13551772 0.13359618 0.012533818 -0.17901102
000220 ea bc 49 3e 10 9b 27 be 82 dd 13 be e6 da d3 3d
       0.19700971 -0.16367745 -0.14439967 0.10344486
000230 53 f2 1f 3e 2f 93 26 be 2c 03 22 3e 55 01 b4 be
       0.15619783 -0.16267084 0.15821522 -0.35157266
000240 5d 80 0b 3e aa d8 39 3e a1 3e 6d 3d 9f 29 c1 bd
       0.13623185 0.18149057 0.057921056 -0.09431767
000250 1d 69 32 be 6e c2 90 3e de 5b 13 3d 45 ab 0b be
       -0.1742291 0.28273338 0.035976283 -0.13639553
000260 09 02 9f 3e fc c9 25 bd be bd 0d bd 14 6c 43 3d
       0.3105624 -0.04047583 -0.03460478 0.047710493
000270 73 05 6f 3e 76 18 28 bd 00 33 a5 3a 14 35 5c be
       0.23341922 -0.041038953 0.00126037 -0.21504623
000280 63 24 e1 bd f0 b9 71 3c c3 4d 8c 3d 04 47 44 3e
       -0.10993268 0.014753804 0.06850769 0.19167715
000290 d2 af 33 be 59 d2 50 3e b2 b8 86 3e ba f3 f8 3c
       -0.17547539 0.20392741 0.26312786 0.030389655
0002a0 a9 50 f8 3c d7 4f 9e 3d 36 78 64 be 9f db 62 3e
       0.0303119 0.07730072 -0.22311482 0.22154091
0002b0 4b 56 b3 3c 8f af ec 3c 38 bc f2 3d d4 35 39 3e
       0.021891734 0.028892307 0.11852306 0.1808694
0002c0 84 e7 ec bd 42 09 3c be 02 f7 76 be 7a c4 55 be
       -0.115675956 -0.18362907 -0.24117664 -0.20875731
0002d0 78 43 57 bd 20 bd 46 be e0 ca ce bc ac 3f 07 be
       -0.052554578 -0.19408083 -0.025243223 -0.13207883
0002e0 e6 0e 11 3e 44 1b 2f 3e ce 93 58 3e 66 df 27 be
       0.1416584 0.17100245 0.21150133 -0.16393813
0002f0 8e a9 34 be 80 9c b1 3d 98 d7 69 bd 42 25 42 3e
       -0.17642805 0.08672428 -0.05709037 0.18959525
000300 f3 e4 8f be d9 32 48 3e 21 2b 62 be e5 89 63 be
       -0.28104362 0.19550647 -0.22086765 -0.22220571
000310 11 7b 6a 3f 0b 05 12 be 23 43 44 be c0 54 0d 3e
       0.91594034 -0.14259736 -0.19166236 0.13801861
000320 e8 47 28 3e c0 87 0e 3e 00 fb f9 3c 3e 96 2b bd
       0.1643368 0.13918972 0.030515194 -0.04189133
000330 62 a7 39 be 80 8e 61 3e 80 6e 0b be a1 59 94 bc
       -0.18130258 0.22027016 -0.13616371 -0.018109145
000340 32 6a 57 3e e4 e2 25 3c 4f 71 4b 3e 5f 46 45 bd
       0.21036604 0.010124896 0.19867443 -0.048162814
000350 2f b2 50 3e 47 48 18 be 1c 04 38 3e e5 c3 4a 3e
       0.20380472 -0.14871322 0.17970318 0.1980129
000360 10 07 ee 3c d0 78 38 3e 60 59 11 3c cb 5a 8e be
       0.029056102 0.18014836 0.008871406 -0.27803645
000370 e4 53 13 3e b0 d6 85 be 20 b9 00 3c 57 00 f8 be
       0.1438747 -0.26140356 0.007856637 -0.4843776
000380 b4 c5 f3 bd fb 19 d9 bd f4 f8 c6 bd 3e f7 90 be
       -0.11902943 -0.106006585 -0.09715453 -0.2831363
000390 a8 4d fe bd fe 33 6d be b5 64 6c be 3e 99 93 be
       -0.124171555 -0.23164365 -0.23085292 -0.28827852
0003a0 d9 14 38 be 40 76 65 bd c8 9f 66 3e 0d ba 59 be
       -0.17976703 -0.056020975 0.22521889 -0.21262379
0003b0 f4 ab 42 be e4 c8 76 be 6e 7f 6f 3e 01 35 33 bd
       -0.19010907 -0.24100071 0.23388454 -0.04375172
0003c0 31 d4 98 bd 2a b9 04 3e 00 ce 1f be 1b c0 97 bd
       -0.07462347 0.1296126 -0.15605927 -0.07409688
0003d0 23 16 62 3e df 6f ff 3d 65 85 4f be 1f 93 9e bd
       0.22078757 0.124725096 -0.2026573 -0.07742905
0003e0 66 82 86 3c 0f f8 cc 3d 14 8e eb bd 0a 55 2a 3e
       0.0164196 0.10008251 -0.115017086 0.16634002
0003f0 7b ca 95 bb ea 57 5d be f4 31 89 3d a4 a6 7e be
       -0.0045712567 -0.21615568 0.06698981 -0.24868256

encoder.convs.2.lin_l.weight f4 [16, 16]
000000 03 64 d6 3b cf 17 84 be 6f e8 a8 bd 5c db 8d bd
       0.006542684 -0.25799415 -0.08247458 -0.06926605
000010 e0 f4 65 be ec d1 90 bd 35 99 35 bb a5 aa 1b be
       -0.22456694 -0.070712894 -0.0027709727 -0.15201814
000020 d4 2b c7 3c 7b 80 f7 3d 25 3d 96 3c 78 47 7b be
       0.024312891 0.120850526 0.018339703 -0.24538982
000030 00 16 4f ba d2 67 03 be e8 f0 91 3d c0 67 4d be
       -0.00078997016 -0.12832573 0.07126027 -0.20059109
000040 70 33 82 be 6c fc cc bd e0 6d 22 3e 9d 01 ca bd
       -0.2542987 -0.10009083 0.15862226 -0.09863589
000050 84 4e 7a bd 9d aa 31 be e9 3d 33 be 71 33 37 bc
       -0.061110035 -0.1735024 -0.17504086 -0.011181698
000060 52 0a 77 3b b8 4b f7 3c 51 35 01 3e 98 7a 98 3d
       0.003769536 0.030187473 0.12617995 0.07445258
000070 c9 d9 7d 3e 44 53 65 bd f1 5c d3 bd 0c 98 50 3e
       0.2479011 -0.05598761 -0.103204615 0.20370501
000080 1d 7d 8f 3e 2e f2 7d 3e 65 9c 89 3d c7 7d ba 3d
       0.2802514 0.24799415 0.06719283 0.091060214
000090 0e 5f 82 3e a0 b0 9a 3e 66 13 29 be 81 1d 6a be
       0.25463146 0.3021288 -0.16511306 -0.22862817
0000a0 a4 af 43 be 31 64 f3 3d 36 eb a1 3e 30 99 85 3c
       -0.1910997 0.11884344 0.31624764 0.016308397
0000b0 8a 0f ad be 32 63 4b be ef 0e ec 3d b0 d7 65 3e
       -0.33800918 -0.19862059 0.11526286 0.2244556
0000c0 3e 99 05 bd a6 93 9b be c5 ff dd 3e 22 87 ae 3e
       -0.032616846 -0.30386084 0.433592 0.34087473
0000d0 96 27 41 be a4 a9 91 be c3 05 81 3e e9 df 99 bd
       -0.18862757 -0.28449738 0.25199708 -0.075134106
0000e0 3e 47 a9 3e df 1f eb 3d c4 03 8f 3d 8e c3 08 be
       0.33062166 0.11480688 0.0698314 -0.13355848
0000f0 07 36 f9 3d c2 04 55 3e 31 65 b4 bd 3d 1c 0d be
       0.12168508 0.20802596 -0.08808363 -0.13780303
000100 76 69 87 3e bc 72 1b 3e c0 fc 92 be 2d 10 7a be
       0.26447648 0.15180486 -0.28708458 -0.24420233
000110 43 af ef bd 2f 19 97 bc 3a 90 23 3e 1a 07 27 be
       -0.117033504 -0.018444626 0.15972987 -0.16311303
000120 7d d5 d2 3d 97 93 0b 3e f5 b2 1f 3e fc 2c 7e be
       0.10294626 0.1363052 0.1559561 -0.24821848
000130 52 76 a4 bd 09 df 44 be c8 34 9f 3d 3e 81 92 bc
       -0.0803038 -0.19225706 0.07773739 -0.017883893
000140 95 77 34 3e 62 70 66 3d 04 e2 0f 3d 59 77 ba 3d
       0.17623742 0.05625952 0.035127655 0.09104795
000150 f2 78 0d be c5 68 c6 3d dc 42 8d 3e e5 0c 0a 3e
       -0.13815668 0.09687952 0.27590072 0.13481481
000160 ba 48 e1 bc fa f2 79 bd 6d 46 1c 3e 4c 1e 61 be
       -0.027500499 -0.061022736 0.1526124 -0.21984214
000170 12 c2 6b 3d ea 15 68 3e 7b 72 fe 3c fd 75 3e bc
       0.057558127 0.2266461 0.031060448 -0.01162481
000180 58 99 61 be 3c 3f 63 be 8d ca 01 3e 59 ce 21 be
       -0.22031152 -0.22192091 0.12674923 -0.15801372
000190 ab e5 72 bc f6 56 24 be 36 f1 e3 3d 69 3f 88 3d
       -0.014825265 -0.16048798 0.11129992 0.066527195
0001a0 5d eb 39 be 32 a7 0d 3e e6 ef cf bb 30 0b f8 bd
       -0.1815619 0.13833311 -0.006345737 -0.12111509
0001b0 18 4a bb 3e ed b1 db bd a7 5a 62 be 25 6a 10 3d
       0.36579967 -0.10727296 -0.22104894 0.035257477
0001c0 64 f2 0a be 98 eb cf bd ee e1 5f be c0 7d 7e bd
       -0.13569027 -0.10152358 -0.21863529 -0.062131643
0001d0 c0 63 4b 3e 42 45 68 be a2 1b 2d be d8 15 60 bd
       0.1986227 -0.2268267 -0.16905072 -0.05470833
0001e0 30 9a 4a be d0 ad 3f 3d e8 7c 4b bd 74 a8 41 3e
       -0.1978538 0.04679662 -0.049679667 0.18911916
0001f0 0a 6c 7e be 20 20 09 3c 70 c6 e1 3d 18 ee 04 3d
       -0.24845901 0.008369476 0.11024177 0.032453626
000200 65 71 2f bd 31 6e 87 3e 77 aa e9 bd 4d 38 9f 3e
       -0.04283275 0.26451257 -0.11409467 0.31097642
000210 29 00 db 3d 82 c4 2e 3e 9e 2f 41 3e 85 88 11 3d
       0.1069339 0.1706715 0.18865821 0.035530586
000220 58 0b 61 3d f5 5e 04 3d 89 64 5f be 50 ae d7 3d
       0.05494246 0.03231712 -0.21815695 0.10531294
000230 67 9e a4 3d 2d b0 2c 3e 06 f0 2a bd 86 32 5c be
       0.08038025 0.1686408 -0.04173281 -0.21503648
000240 da 41 56 3b 0f 62 35 3d 3e 04 b0 bd ac 51 9f 3e
       0.003269306 0.04428297 -0.08594559 0.31116998
000250 9d 59 b8 3c d7 9c 8d 3d 6f 6e 7e 3e 7b da 0e 3e
       0.022503668 0.069146805 0.24846815 0.13950531
000260 df d2 95 bd a8 d0 56 3e f3 0f 20 3e 20 72 ff 3d
       -0.07315611 0.20978034 0.15631084 0.124729395
000270 e2 12 0e 3e a2 c5 16 3e de 79 38 be 7d fd 9a bc
       0.1387439 0.14723828 -0.18015239 -0.0189197
000280 11 b5 38 be 6e 4e 08 3e 4b fe e6 3d 2a 51 de be
       -0.18037821 0.13311169 0.11278971 -0.43421298
000290 8e bf ae bd 82 95 89 bd 47 b1 5a be 2a dd da 3d
       -0.0853263 -0.067179695 -0.21356688 0.10686715
0002a0 58 46 a0 be 68 3d a5 be 33 24 80 be 00 6e 59 ba
       -0.31303668 -0.32273412 -0.25027618 -0.00082942843
0002b0 11 8c b8 be 36 5c 97 be 6a 90 7e 3e 64 97 d7 3d
       -0.36044362 -0.2956254 0.24859777 0.10526922
0002c0 d8 a0 5a 3d b0 62 fe 3d 78 ca 0c 3b f4 64 a3 bb
       0.05337605 0.12421167 0.0021482985 -0.0049864
0002d0 cb 40 72 be f0 0c a1 3c 4f 9d 7c be 75 54 41 bd
       -0.23657529 0.01965949 -0.24669383 -0.047199685
0002e0 97 55 3d be ac 7b 3a be a8 d6 4a be 18 da f7 bd
       -0.18489681 -0.1821124 -0.19808447 -0.12102145
0002f0 70 3f 18 be 80 c2 3a be 9c 81 ba bd dc e8 69 be
       -0.1486795 -0.18238258 -0.09106752 -0.22842735
000300 88 db 96 3e 15 a0 50 3e aa 99 c1 be d2 63 94 be
       0.29464364 0.20373566 -0.3781255 -0.28982407
000310 be 2b d6 bc ff 26 48 3e 1f 09 8b 3e 6e 4f f7 bd
       -0.026143905 0.19546126 0.27155396 -0.12075697
000320 c8 08 82 3d 04 be 84 be 63 01 5b 3b d0 be 1e bd
       0.06349331 -0.2592622 0.0033417575 -0.03875619
000330 32 37 bb be fd 2e e1 bd 58 82 87 3d 21 34 13 3e
       -0.36565548 -0.109952904 0.06616658 0.14375354
000340 f1 6d 61 be 7e 67 e2 bd b0 66 20 3e 76 93 b0 3d
       -0.22014596 -0.11054896 0.15664172 0.08621876
000350 17 a6 cf 3d c7 d5 5b be 36 1a b1 3e 41 8d 2e be
       0.10139101 -0.21468268 0.3459031 -0.17046072
000360 f4 45 da bb 3e 01 5e 3e f5 e1 1f 3d 7c b3 f6 bd
       -0.006661171 0.21680161 0.03903385 -0.12045953
000370 3b 87 01 bd 8d dd 89 3e 0d 64 d6 b9 c4 4e f7 3d
       -0.031623106 0.26926842 -0.00040891804 0.1207557
000380 26 6f f9 bb fc 9d 88 be c8 17 64 3d 18 d7 81 3e
       -0.007612127 -0.26683033 0.055686742 0.25359416
000390 af 86 f6 bd fe e2 1f be e5 81 0d 3e aa 3d 33 bd
       -0.120374076 -0.15613934 0.13819082 -0.04375998
0003a0 46 71 f4 3d 0b 5e 8c bc 2d 27 22 3d 10 55 d0 3c
       0.11935668 -0.017134687 0.039588142 0.025431186
0003b0 60 80 0f 3d 24 29 aa bd 7c dc c2 3d 4e 27 96 bd
       0.035034537 -0.08308628 0.0951471 -0.073317155
0003c0 24 15 4a 3e ff 65 cb 3d 72 82 95 bc 07 83 39 3d
       0.19734627 0.099315636 -0.018250678 0.045290973
0003d0 10 1d 91 bd 7c 8a 4b 3e 2e 06 6d 3e f8 72 f5 3c
       -0.07085621 0.19877046 0.23146889 0.029962048
0003e0 85 f2 f5 bd da 13 83 3e aa b2 72 3e b4 84 2e 3e
       -0.120091476 0.25601083 0.23700967 0.1704281
0003f0 b7 40 bb bd 30 be 06 3e 80 cd ec 3b ad 64 d2 bd
       -0.09143203 0.13158488 0.007226646 -0.10273109

encoder.convs.2.lin_l.bias f4 [16]
000000 1c 75 84 be a6 6a 3c bd 89 da 14 3e 3c 23 57 3e
       -0.25870597 -0.046000145 0.1453649 0.21009535
000010 c2 5a 76 3d 13 6e fd 3d ce cb 1e 3e d0 f6 45 bd
       0.060145147 0.123745106 0.15507433 -0.048331082
000020 de d4 40 3e c5 15 d4 3c e8 6d a0 bd bd 20 54 be
       0.18831202 0.025889287 -0.07833463 -0.20715614
000030 4a cc 67 be d1 84 fc bd fa 65 e2 3c b8 67 92 3e
       -0.22636524 -0.1233002 0.027636517 0.28594756

encoder.convs.2.lin_r.weight f4 [16, 16]
000000 fc ae c7 3c 93 54 b9 3c 27 ef d6 bd af 0f da bd
       0.024375431 0.022623336 -0.104948334 -0.10647523
000010 d4 52 b7 bd 05 5e 9a 3d 70 ce 02 3d 73 fa d2 bd
       -0.08951345 0.07537464 0.031935155 -0.10301676
000020 9f ea 1a 3d c6 a3 60 bd 24 f9 e6 bc 4e 85 35 3e
       0.03782141 -0.054843687 -0.028194971 0.17726633
000030 74 59 d5 bd 5f 6f 63 3e 0a 06 0c be d4 2c 6d 3e
       -0.104174525 0.22210453 -0.13674179 0.23161632
000040 11 ad cd 3d cc f0 55 3d 50 e5 3a bc 79 5e 3c bd
       0.100427754 0.052231595 -0.011407211 -0.045988534
000050 a3 dc 6d be ad 52 9f be 6b 78 51 3e b1 9b 9c 3e
       -0.23228697 -0.31117764 0.20456092 0.30587533
000060 ae 8c 04 3e 73 af 33 bd 33 d5 a1 3d 80 66 19 bc
       0.1294429 -0.043868493 0.07901993 -0.009362817
000070 f2 d0 0c 3f 39 23 07 be fc c3 b1 3d 70 82 7a bd
       0.55006325 -0.1319703 0.08679959 -0.06115955
000080 7d 97 cf bd e4 01 84 be 88 a7 60 3e 23 4a 8f bd
       -0.10136316 -0.25782692 0.21938908 -0.06996562
000090 25 0e 9c 3c fc d6 d5 3d 89 aa 77 3e af 8f 30 3e
       0.019049713 0.10441396 0.24186148 0.17242311
0000a0 4e 6f 4c 3e 5f 92 bd 3d f8 9e 2c 3e 4a 57 62 3e
       0.19964334 0.09256434 0.16857517 0.2210361
0000b0 6a f4 b5 3e 2b ac 0f 3e cb 86 85 3d 52 85 ef 3c
       0.35538036 0.1403052 0.0651985 0.029238377
0000c0 8a d7 a6 3e 52 29 7b 3e e4 bb a5 be 5c 54 50 be
       0.32586318 0.24527481 -0.32369912 -0.2034468
0000d0 79 26 3a bd df 04 16 3e 9d 5f bb 3d 84 0d 30 be
       -0.045446847 0.14650296 0.09149096 -0.17192656
0000e0 98 f7 95 be 0c 8a 9f be 5a 51 3b 3e e0 43 90 bc
       -0.29290462 -0.3116001 0.18292752 -0.01761049
0000f0 09 05 54 3f 2f 95 bb bb 68 4d 58 bd e3 e5 07 be
       0.82820183 -0.005724571 -0.052808195 -0.13271289
000100 06 0c 2a be a9 b7 83 be a7 b5 e3 bd 64 6e 51 be
       -0.16606149 -0.2572606 -0.11118632 -0.20452267
000110 32 89 0c bd 38 31 72 bc 37 5f 9c 3e e6 b8 50 3b
       -0.034310527 -0.0147822425 0.30541393 0.003184849
000120 5f bf 6f 3e c7 d2 2a 3e 55 d4 26 be d0 12 00 be
       0.23412846 0.16681968 -0.16291936 -0.12507176
000130 61 4f 9f 3c 5f 0f 21 be 3a 8d 26 3d aa 0b 89 3d
       0.01944703 -0.1572852 0.040662028 0.06691678
000140 00 32 19 be 35 8b 1c bd 57 e6 37 be 5f 91 a8 3e
       -0.1496048 -0.038218696 -0.17958961 0.3292341
000150 63 2f 3d 3e 8b b0 98 3c ab 8a 43 3e 75 29 37 be
       0.18475108 0.01863887 0.19095866 -0.17886908
000160 66 23 86 3e f5 61 b7 bc 3e 7d 3f 3d da e4 31 3e
       0.26198882 -0.022385577 0.0467503 0.17372456
000170 22 0b ff bd 95 2c e3 3d 1e 25 01 bd cf 27 86 3b
       -0.12453295 0.11092488 -0.03152954 0.004094101
000180 65 f9 69 3e ae 29 f2 bc ac 5d 87 bd 85 62 97 3d
       0.22849043 -0.02956089 -0.06609663 0.07391838
000190 9d f0 2e be 40 c3 11 be 5d b9 ab 3d c8 c3 89 3e
       -0.17083974 -0.14234638 0.083849646 0.26907182
0001a0 d9 f8 f6 3d 52 fd 0b be d9 ba 59 3e 68 8f bc bd
       0.12059183 -0.13670853 0.21262683 -0.0920704
0001b0 68 b3 06 3f cc 6d c4 3d ea d4 36 3e df f6 5f bd
       0.526175 0.095912546 0.17854658 -0.054678794
0001c0 5c 09 d0 bd 50 fd 4b bd 00 e8 14 3b d4 9e f1 bd
       -0.10158035 -0.049802125 0.002272129 -0.11797872
0001d0 ac f3 2f 3e 62 40 09 be 10 fe 21 3d c6 8c 44 be
       0.17182797 -0.13403466 0.039548934 -0.19194326
0001e0 80 4c fe bc 10 a4 5c bd ac d4 cc bd 90 d3 05 3e
       -0.031042337 -0.0538674 -0.100015014 0.13068986
0001f0 c8 95 64 be e0 ce d6 3c c0 95 bf bc 54 23 05 be
       -0.22322762 0.026221693 -0.023386836 -0.13001758
000200 14 29 80 3e e3 bd 86 3e 91 64 7c 3d c3 53 48 ba
       0.2503134 0.26316747 0.061619345 -0.0007641876
000210 d8 a0 40 3e 8e fb c2 3c fb 98 46 be eb c4 51 3e
       0.18811357 0.023801591 -0.19394295 0.20485274
000220 04 3f 01 be 1b 01 45 3d 93 d4 c7 3c a8 84 57 3e
       -0.12621695 0.048096757 0.024393355 0.21046698
000230 65 09 80 3d e6 66 4b be 52 ec 0a bc 61 af 5a be
       0.06251792 -0.19863471 -0.008479195 -0.21355964
000240 4a a6 97 3e 0c 0f c9 3e 36 bc 14 be 11 73 53 3d
       0.29619056 0.39269292 -0.14524922 0.051623408
000250 d4 42 12 ba 5e b7 cf 3d 5a 8c 70 3e ea 88 63 be
       -0.0005579416 0.101423964 0.2349104 -0.22220197
000260 c8 0c 6e bd 87 f4 f8 bc 06 54 2b be c8 87 d2 3d
       -0.058117658 -0.030390037 -0.16731271 0.102798045
000270 86 89 22 bc 53 e3 6c be 71 95 b5 3d dd bd ca bc
       -0.009920483 -0.23133592 0.08866394 -0.024748737
000280 35 2c 48 3e 2d 66 89 be ab 45 44 3e f6 d5 00 3c
       0.19548114 -0.26835766 0.19167201 0.007863512
000290 d1 a5 c6 3d ba d4 0b be 76 2d 26 3d 99 fc 09 3e
       0.09699596 -0.13655367 0.0405707 0.13475265
0002a0 69 4e 5c 3e 6d 72 18 3e 3c 95 2e 3e 90 8e 57 bd
       0.21514286 0.148874 0.17049116 -0.052626193
0002b0 a5 b4 43 be 11 aa 8f 3d 24 81 69 3e 8a ba 62 3e
       -0.19111879 0.070148595 0.2280317 0.22141472
0002c0 a9 e9 22 be fa 1a 30 3e 5a 38 a4 3d a3 19 72 bd
       -0.15909447 0.1719779 0.08018561 -0.05910648
0002d0 14 3a e5 3d c0 d2 2a bc 6d 4d 22 bc cd 3d 2a be
       0.11192718 -0.010426223 -0.009906155 -0.16625138
0002e0 46 c7 80 bd 68 8c 61 3e 92 d7 05 3e 40 e4 4e be
       -0.062880084 0.22026217 0.13070515 -0.20204258
0002f0 c0 fd 67 bc a3 4b f1 3d dc 1a db bd c8 42 00 bd
       -0.01415962 0.11782005 -0.106984824 -0.031313688
000300 cb a0 6e bd dc 77 0b bd 4b 78 a3 3e 26 6d d7 bd
       -0.058258813 -0.034049854 0.31927714 -0.10518865
000310 2d df b2 be 18 5d d4 bd 16 bb af bd ef 05 44 3e
       -0.34935895 -0.10369319 -0.08580606 0.19142888
000320 36 70 67 3e 16 0e 31 3b 64 a6 5d bc 70 41 ac 3d
       0.22601399 0.0027016453 -0.01352844 0.08410919
000330 9d 3e 81 3c 7c 70 a3 3e ae 8a ca 3c 3a 04 95 bd
       0.015776927 0.31921756 0.02472433 -0.07276197
000340 d3 3d e3 bd 1c a1 ac 3e dc 93 95 be 8b 69 57 3e
       -0.110957764 0.33716667 -0.2921437 0.21036355
000350 31 64 2b 3d 18 30 77 3d e4 c8 e3 3d ea db 97 3e
       0.041843597 0.0603486 0.11122301 0.2965997
000360 d7 88 32 be 3d 25 50 be 32 9f 6f 3e d0 ab f8 bd
       -0.17435013 -0.20326705 0.23400572 -0.12142146
000370 5b eb 49 bd 2f 8f 3a 3e 40 3b d4 bd b9 34 11 3e
       -0.049296718 0.18218683 -0.103628635 0.14180268
000380 1d 85 0d 3d 24 76 b3 3e 56 e9 1e 3e ca 14 81 bc
       0.034550775 0.35051072 0.15518698 -0.015756983
000390 ff 2c 3e 3d 01 8f 8d 3e 0a 03 91 3d 84 7b 9e bd
       0.04642963 0.27648166 0.07080658 -0.077384025
0003a0 fa 66 0a 3e 4a 3a b7 bd 7b 23 e4 3d 18 7c 98 bd
       0.13515845 -0.08946665 0.1113958 -0.07445544
0003b0 47 8d 96 be e7 df ab bd e0 cc 89 3c 75 59 cb 3d
       -0.2940466 -0.08392315 0.016821325 0.09929172
0003c0 c3 18 86 3e 9f c7 77 3e ad be c1 bd 43 1b 82 3e
       0.26190767 0.24197243 -0.09460197 0.25411424
0003d0 4f 9b 75 3e 6f dd 54 3e 82 ef 5a 3d 79 d1 2c be
       0.23985027 0.20787595 0.05345107 -0.16876782
0003e0 1a 02 16 be 79 68 51 3d de 53 17 be dc 9c b3 3d
       -0.14649239 0.051125024 -0.14778087 0.08770153
0003f0 3c 66 c4 be b0 ab 63 be d5 72 f5 bd 55 f5 06 3e
       -0.3835925 -0.22233462 -0.11984793 0.13179524

encoder.convs.3.lin_l.weight f4 [4, 16]
000000 a8 31 47 3e 91 a6 93 be 62 6b 54 be 47 8b 71 3e
       0.19452536 -0.28838018 -0.20744088 0.23588286
000010 32 7b 08 be f7 83 65 be 9b fd db bc 74 16 55 be
       -0.13328245 -0.22413622 -0.026854327 -0.20809346
000020 c2 eb 12 3e 8c 18 64 3e ec bb bc 3e 8f 3c 9c be
       0.14347747 0.22274989 0.36862123 -0.30514953
000030 d7 f0 f1 3d 07 d4 29 3e 0a 59 aa 3e 1e 61 b3 3e
       0.11813515 0.16584788 0.33271056 0.35035032
000040 7e 34 81 bd f3 29 fe bd c2 c6 41 bd 65 b2 c4 3e
       -0.0630884 -0.12410345 -0.04730869 0.38417354
000050 5d 78 16 be b7 77 5a 3e 5f 56 77 3d 22 b5 70 3e
       -0.14694352 0.2133473 0.060385104 0.23506597
000060 e0 c4 91 3e 9e 9c 9a 3e fe 4e 6d bc b7 1c 7c be
       0.28470516 0.30197614 -0.014484165 -0.24620329
000070 72 1f 3e be 85 44 80 3e 41 99 09 3e 7e f2 46 3e
       -0.18566683 0.25052276 0.13437368 0.19428441
000080 10 16 c4 3d 07 40 2b 3e cd 65 90 3d 49 93 4e bd
       0.095745206 0.16723643 0.07050667 -0.05043343
000090 a0 73 fd 3d e8 17 5f be f3 47 7b be cc e1 ad 3d
       0.12375569 -0.21786463 -0.24539165 0.08490333
0000a0 fc 60 98 3e 32 91 c1 3a ed a2 c1 3e 3f 69 a4 3e
       0.29761493 0.0014768003 0.37819615 0.32111546
0000b0 95 57 7b be 84 10 98 3d fe 91 41 3e b3 43 a5 bd
       -0.24545129 0.07425025 0.18903348 -0.08069553
0000c0 0d cd 6e 3e 34 e5 43 be 2e 85 2d be 4c cf bc 3d
       0.23320408 -0.19130403 -0.16945335 0.09219226
0000d0 4f 2a 8f be 57 4c 7f 3e 93 d9 75 be f8 5a e6 bd
       -0.27961966 0.24931465 -0.24008779 -0.1124782
0000e0 80 d1 4e 3d 26 e9 a5 3e d3 3e 93 3e 96 51 7f b9
       0.050492764 0.3240444 0.2875887 -0.00024349088
0000f0 62 c1 02 be 48 07 83 3e a4 fe 10 3e 43 9e 97 3e
       -0.12769082 0.25591493 0.14159638 0.29612932

encoder.convs.3.lin_l.bias f4 [4]
000000 d7 e2 40 3d 3a a3 84 3e 80 e5 b5 3d 28 6a cf 3d
       0.04709133 0.25905782 0.08881664 0.101276696

encoder.convs.3.lin_r.weight f4 [4, 16]
000000 77 3e 80 be 7b 64 02 3c 81 d7 c7 bd 51 4f 1c bd
       -0.25047657 0.007958527 -0.09757901 -0.03816158
000010 67 5d b7 3d 0f 66 53 3e 0d 6b 61 be c6 04 56 be
       0.08953362 0.20644401 -0.22013493 -0.20900258
000020 b2 61 73 3d e0 fb b3 3d a4 77 db bd 55 60 19 3c
       0.05941934 0.08788276 -0.10716179 0.009361346
000030 bd 9a f4 3e 2b d3 7f bd 2e 18 da bd c9 eb 28 3e
       0.47774306 -0.062457245 -0.10649143 0.16496195
000040 56 7a 5b 3e 11 63 03 be 7d 94 40 3e 20 61 54 3d
       0.21433386 -0.1283076 0.18806644 0.051850438
000050 87 3b 2f 3c ad 8b 00 3d 87 bf a2 be 8c 9e f5 3d
       0.010695345 0.031383205 -0.3178675 0.11993131
000060 a8 ee 44 bd 8c 03 12 be 74 b6 d0 bd 9c be 49 be
       -0.048079163 -0.14259166 -0.1019105 -0.19701618
000070 24 5f 28 3e 45 9a 12 be d0 a4 82 bc 86 4f 28 3e
       0.16442543 -0.14316662 -0.01594773 0.16436586
000080 a1 99 c2 3c 5e fe 15 be c7 9b 2d 3c 41 6f 5a be
       0.023754897 -0.14647815 0.010596222 -0.21331502
000090 46 b7 93 3e ae 60 b3 3d 69 97 86 3d 5c 56 64 be
       0.28850764 0.087586746 0.06571848 -0.22298568
0000a0 f8 10 0a 3e 76 6c e0 3c 45 28 ad be ca 4a 26 3e
       0.13483036 0.027395468 -0.33819786 0.16239467
0000b0 33 ef fd 3e 79 c9 84 bc 69 ed 15 3e 8d f6 42 3e
       0.49596557 -0.01620935 0.14641346 0.19039364
0000c0 4e 8a 58 3e 33 93 95 be 2b aa bd 3e 66 ec 89 b9
       0.21146509 -0.29213867 0.3704389 -0.00026306807
0000d0 66 b1 c7 3d 4e 40 06 be 7a 5f 2c be bc 87 78 3e
       0.09750633 -0.13110468 -0.16833296 0.24270529
0000e0 8c 53 4e 3e d7 3a 2c 3e 9b e9 a1 bd be 80 5b be
       0.20149058 0.1681932 -0.07905885 -0.2143583
0000f0 9d ba ab 3e 12 cc 50 be 35 a9 30 be e8 7d 16 3e
       0.33540812 -0.20390347 -0.17252047 0.14696467
