ARES-4573/checkpoints/model_GAE_CTU-13-Scenario-1.pt (torch, 11930 bytes, 9 tensors)

encoder.convs.0.lin_l.weight f4 [16, 32]
-0.14135067 0.03396899 0.0023810861 -0.06482626 0.11068569 0.114526786 -0.15608506 -0.14161946
0.10341846 -0.10736705 0.034111593 -0.04708005 0.031611633 -0.09755105 0.0005648942 -0.06258082
-0.079634786 -0.0869107 0.039485738 0.11438749 -0.0043564034 -0.0017264824 0.14585288 0.14250053
-0.025662605 -0.14475346 0.041483898 0.052781742 -0.13988261 -0.15858184 0.01854257 0.17262106
-0.24949142 -0.17799014 -0.15233766 -0.24752285 -0.20021965 0.047383152 0.043831456 -0.22142668
-0.08758397 -0.2353491 -0.017950742 -0.21211429 -0.18146183 -0.17331153 -0.065316364 0.026753997
-0.1653603 -0.058767516 0.049379792 -0.10208506 -0.07312014 -0.078247115 -0.093631856 0.014757844
0.004278986 -0.18604915 0.07742382 0.010344613 -0.11903385 0.06253461 -0.08186618 0.020334212
-0.13758564 0.17119326 0.17915995 -0.11957537 -0.14570914 -0.038935624 -0.09617026 0.059745762
0.09120339 -0.010009894 0.13656114 0.019213017 -0.03944244 -0.13837717 0.06869769 -0.15404575
0.011909794 0.03835314 -0.08648917 0.06562158 0.046878055 0.13081717 0.123078845 -0.1305469
-0.1186508 -0.052366897 -0.11465878 0.06794048 -0.10330798 -0.122450255 0.06400261 0.11920226
0.089240804 -0.03551655 0.16561781 0.23122531 0.27872664 0.15740663 0.26335725 -0.017428955
0.30975205 0.026482666 0.019970492 0.26750168 0.10135186 0.24972871 0.01681504 0.27437845
0.3082878 0.19416091 0.28323838 0.014392848 0.10159917 0.19444077 0.2405284 0.046242293
0.2531228 0.082452916 0.046278264 0.1752135 -0.00017024165 -0.021611607 0.1994127 0.20084597
0.04545501 -0.045706518 -0.15180725 -0.16453545 0.1466332 -0.17577723 0.030754967 0.1210503
0.11252879 -0.1339827 -0.07952397 -0.16386296 0.08836217 -0.18841837 -0.1852625 -0.14054057
0.12167223 0.09206005 0.09592408 0.11311422 -0.10496963 -0.12111045 -0.13112436 0.03580467
0.046239354 0.0141579425 -0.15852192 -0.006820754 -0.11632927 -0.05728688 -0.049890913 -0.01373714
-0.03266536 0.27323225 0.047113527 0.1775701 0.24407205 0.19357148 0.24613604 0.22215863
0.2517791 0.159646 0.2352429 0.04549555 0.02708063 0.20674765 0.16871938 0.11570668
-0.02677685 0.18010007 0.23684353 0.10192609 0.16294864 0.20103338 -0.052245077 0.09325099
0.056757823 0.031981967 0.23038322 0.29760772 0.15054229 0.23235878 -0.008811613 0.15347923
-0.09229504 -0.17846082 -0.033185415 -0.013159657 -0.07797046 0.005634929 0.015439919 0.09091177
-0.059184708 -0.06313395 -0.07196239 -0.04503643 -0.18405728 -0.09119148 -0.21892014 -0.19342837
-0.22000827 0.06166531 -0.17102559 -0.083698325 -0.050533205 0.08670002 0.010796153 -0.19532058
0.103468865 -0.23687255 -0.046448074 0.092089705 0.08387779 -0.11040448 -0.187406 0.008190619
0.1362705 -0.094239615 -0.02797339 -0.107507125 0.06750878 0.037626937 0.08762707 -0.06065174
-0.17064437 -0.07444583 -0.13825402 -0.0425872 0.06424429 -0.14706624 -0.008251615 -0.17295481
-0.12527269 -0.1237682 -0.060189873 -0.08956884 0.027210215 0.108064346 0.13329452 0.055698346
-0.0011697436 -0.03150224 0.12003186 -0.10124539 0.12777582 -0.17020273 -0.1319409 0.046892542
00000000: 3bbe 10be 1123 0b3d ff0b 1c3b a1c3 84bd
00000010: 2eaf e23d 058d ea3d c3d4 1fbe b104 11be
00000020: 0fcd d33d 42e3 dbbd 99b8 0b3d 03d7 40bd
00000030: 337b 013d d8c8 c7bd 6815 143a 5f2a 80bd
00000040: 9017 a3bd 3dfe b1bd ccbb 213d fd43 ea3d
00000050: 29c0 8ebb 234b e2ba 755a 153e a9eb 113e
00000060: 623a d2bc 403a 14be 05eb 293d ab31 583d
00000070: 633d 0fbe 4763 22be 96e6 973c 93c3 303e
00000080: ae7a 7fbe 0c43 36be 67fe 1bbe a176 7dbe
00000090: 6106 4dbe d614 423d 9d88 333d adbd 62be
000000a0: 395f b3bd 5bff 70be 6f0d 93bc 7d34 59be
000000b0: 21d1 39be 9478 31be 96c4 85bd 332b db3c
000000c0: 3654 29be 35b6 70bd 7742 4a3d f911 d1bd
000000d0: 03c0 95bd 0640 a0bd 0fc2 bfbd e2ca 713c
000000e0: bc36 8c3b ab83 3ebe 6190 9e3d 747c 293c
000000f0: 05c8 f3bd 2512 803d 75a9 a7bd ef93 a63c
00000100: 40e3 0cbe 494d 2f3e b575 373e eee3 f4bd
00000110: c734 15be f67a 1fbd eaf4 c4bd f9b7 743d
00000120: d8c8 ba3d 8a00 24bc afd6 0b3e 9e64 9d3c
00000130: 658e 21bd bfb2 0dbe 60b1 8c3d 2bbe 1dbe
00000140: 4c21 433c 2f18 1d3d 3c21 b1bd 9b64 863d
00000150: 3403 403d f0f4 053e c310 fc3d 16ae 05be
00000160: 31ff f2bd ac7e 56bd 39d2 eabd 6124 8b3d
00000170: 2293 d3bd 33c7 fabd cd13 833d 5120 f43d
00000180: e2c3 b63d cd79 11bd b797 293e 54c6 6c3e
00000190: 42b5 8e3e 342f 213e c3d6 863e 2bc7 8ebc
000001a0: d297 9e3e 2df2 d83c 2899 a33c fbf5 883e
000001b0: 9091 cf3d e2b8 7f3e b2bf 893c 557b 8c3e
000001c0: e6d7 9d3e 1ed2 463e 9f04 913e fbcf 6b3c
000001d0: 3a13 d03d 7b1b 473e 144d 763e 8f68 3d3d
000001e0: 5099 813e 13dd a83d 478e 3d3d 2b6b 333e
000001f0: e582 32b9 d30a b1bc d832 4c3e 91aa 4d3e
00000200: 082f 3a3d c236 3bbd 5c73 1bbe fb7b 28be
00000210: 0327 163e f2fe 33be d7f1 fb3c 38e9 f73d
00000220: 7f75 e63d c332 09be 77dd a2bd b1cb 27be
00000230: 3af7 b43d bff0 40be 74b5 3dbe dee9 0fbe
00000240: 4a2f f93d fb89 bc3d d873 c43d 6ea8 e73d
00000250: 51fa d6bd c108 f8bd 7745 06be eba7 123d
00000260: 7a65 3d3d b7f6 673c 9253 22be a280 dfbb
00000270: 0a3e eebd a6a5 6abd 6a5a 4cbd be11 61bc
00000280: 1dcc 05bd 19e5 8b3e 1dfa 403d f0d4 353e
00000290: 06ee 793e 9a37 463e 160b 7c3e 8d7d 633e
000002a0: 31e9 803e 3e7a 233e 84e3 703e 8b59 3a3d
000002b0: 33d8 dd3c a8b5 533e c6c4 2c3e a0f7 ec3d
000002c0: 205b dbbc 276c 383e 1c87 723e a0be d03d
000002d0: 02dc 263e b2db 4d3e effe 55bd 60fa be3d
000002e0: e47a 683d 86ff 023d 94e9 6b3e 0a60 983e
000002f0: c227 1a3e 76ef 6d3e 955e 10bc a929 1d3e
00000300: 2f05 bdbd 6fbe 36be 6eed 07bd 9a9b 57bc
00000310: faae 9fbd 36a5 b83b b7f7 7c3c f32f ba3d
00000320: aa6b 72bd 5f4c 81bd 0461 93bd 1f78 38bd
00000330: 8379 3cbe 99c2 babd 9a2c 60be 1612 46be
00000340: d949 61be c494 7c3d 5521 2fbe 076a abbd
00000350: e8fb 4ebd c88f b13d 59e2 303c 1e02 48be
00000360: 7ce7 d33d b88e 72be 5640 3ebd 8799 bc3d
00000370: 1ec8 ab3d be1b e2bd 5ce7 3fbe f231 063c
00000380: 7e8a 0b3e b300 c1bd 7328 e5bc b22c dcbd
00000390: 0b42 8a3d b41e 1a3d d275 b33d f56d 78bd
000003a0: 66bd 2ebe 0e77 98bd 7692 0dbe ea6f 2ebd
000003b0: 8392 833d 8898 16be c831 07bc 111b 31be
000003c0: 7c47 00be 2f7a fdbd a889 76bd de6f b7bd
000003d0: f5e7 de3c d750 dd3d 5c7e 083e f323 643d
000003e0: 1552 99ba 7e08 01bd 44d3 f53d be59 cfbd
000003f0: aad7 023e a049 2ebe 841b 07be 6512 403d

encoder.convs.0.lin_l.bias f4 [16]
-0.014704361 0.27662736 -0.055540014 0.15498477 0.24860945 0.19194481 0.30376506 -0.14991578
0.023348814 0.06674985 0.07178007 -0.16853708 0.06924871 -0.0739679 0.23767142 0.25619882
00000000: 8fea 70bc 1aa2 8d3e ed7d 63bd 54b4 1e3e
00000010: 7a93 7e3e 2e8d 443e 1887 9b3e 8683 19be
00000020: 0346 bf3c 25b4 883d 6e01 933d fc94 2cbe
00000030: 45d2 8d3d 7b7c 97bd 2360 733e 7e2c 833e

encoder.convs.0.lin_r.weight f4 [16, 32]
0.12865855 0.09513125 -0.016581835 0.16311857 -0.08272267 0.008737042 -0.046512965 -0.12895961
-0.08377211 0.042861257 -0.015772214 -0.11710584 -0.022473859 0.030530397 -0.12368205 0.10676178
-0.15029341 0.0016912898 -0.1446074 -0.15940918 -0.021959476 0.16043814 0.16711466 0.063535064
0.13701943 -0.09663475 0.09952403 0.107862994 -0.16894548 -0.13546951 0.07637144 0.016335234
0.04539698 0.025555141 0.29281542 0.18436491 0.16466238 -0.0058390773 0.32015637 0.048193607
0.24382313 0.1437974 0.170814 0.25185272 0.11796221 0.11545963 0.30597726 0.029593155
0.24372078 0.11943275 0.10598694 0.2833911 0.19489793 0.00047186806 0.32302547 0.07733646
0.31787458 0.10957329 0.33741793 0.21720304 0.1565139 0.23253512 0.15955637 0.07737522
0.079540476 0.09750287 -0.03930432 0.14912172 -0.0059316317 -0.110647134 -0.11349232 0.10178252
-0.08876801 0.09449546 -0.18887767 -0.011068544 -0.13930099 0.04554886 0.1264064 0.052405782
-0.07793853 -0.18299404 -0.10091481 -0.12142385 0.15164922 -0.11220429 0.05119336 0.12475236
0.0465732 -0.17228048 -0.03723906 -0.06962498 0.096741386 -0.03374032 -0.026481975 0.14009753
0.08098471 0.120864175 -0.017987467 0.15452588 0.0643357 0.0034088523 0.07298579 -0.1002303
0.045418635 0.11999065 -0.12661266 -0.054981723 0.14967294 0.0429275 0.03289713 0.056958385
-0.04042231 0.18509921 0.021390676 -0.02544756 0.13197197 -0.10822115 0.006311506 0.056735575
-0.015942743 0.13513 -0.112048596 -0.012045021 -0.035380326 0.20249587 0.109467514 -0.09295031
0.14507161 0.072810456 0.23838533 0.17411609 -0.026683167 0.23413628 0.044941865 0.036305606
0.12942044 0.25218877 0.12989798 -0.094005994 0.02012779 0.24117143 0.014253879 -0.008487039
-0.06434703 -0.021023776 -0.020092506 0.11877841 0.14718603 0.24527061 0.1925723 0.079171434
0.17189427 0.1776026 -0.07591496 0.16575997 -0.044367887 0.21306926 -0.00032852005 0.11323838
0.035108324 0.11900369 0.064485215 -0.09124362 0.10859991 0.14126919 -0.055069674 -0.077686906
-0.083384 -0.049022336 0.014702016 0.050207 0.035742465 -0.009766221 0.1466894 0.046331488
-0.06565653 -0.009794649 -0.06694386 -0.02537513 -0.12976514 0.06787756 -0.09998378 0.10536044
0.15808822 -0.09451977 -0.056301296 -0.10268844 0.08416583 0.07119473 -0.05425355 0.14377657
0.1813554 -0.051721975 0.0983867 0.031901978 0.07735111 0.20643257 0.08898833 -0.014771285
0.23235327 -0.05357941 0.047291525 0.17611691 0.26425344 0.2795718 0.06647402 0.16699226
-0.047248285 0.073605165 0.053014934 0.15818472 -0.007822032 0.14619459 0.19933149 0.24577297
0.07811171 0.26950675 -0.05901712 0.05790852 0.17502114 0.15333268 0.19125327 -0.009302128
0.10884714 -0.16590928 -0.12121193 -0.0120222615 -0.17173979 -0.16803135 -0.15693042 0.14212649
0.03877685 -0.056404367 -0.007265316 -0.15408185 -0.16695686 -0.123280376 -0.17102057 0.116303615
-0.061859645 -0.04771984 -0.15223047 0.02927794 -0.026522547 -0.120347396 0.11334225 0.14900678
-0.12600279 0.10015819 -0.028704448 -0.0016689519 0.07524475 -0.032229524 0.15019715 0.10876466
00000000: 11bf 033e 2cd4 c23d a1d6 87bc 8e08 273e
00000010: 816a a9bd cf25 0f3c 6184 3ebd fd0d 04be
00000020: b690 abbd 498f 2f3d bb34 81bc 30d5 efbd
00000030: 191b b8bc e21a fa3c 044d fdbd eca5 da3d
00000040: 84e6 19be 45ae dd3a f613 14be 293c 23be
00000050: 5ce4 b3bc e549 243e 1b20 2b3e ac1e 823d
00000060: d24e 0c3e 71e8 c5bd 41d3 cb3d 46e7 dc3d
00000070: 0b00 2dbe 85b8 0abe a168 9c3d 78d1 853c
00000080: 2ff2 393d 0459 d13c e7eb 953e 28ca 3c3e
00000090: 419d 283e bb55 bfbb 89eb a33e a966 453d
000000a0: c5ac 793e a03f 133e dde9 2e3e d7f2 803e
000000b0: 2c96 f13d 1976 ec3d 0da9 9c3e 586d f23c
000000c0: f191 793e 2899 f43d ae0f d93d a318 913e
000000d0: 5393 473e 0f65 f739 9863 a53e 9462 9e3d
000000e0: 75c0 a23e f667 e03d 0bc2 ac3e 796a 5e3e
000000f0: 2e45 203e b01d 6e3e bf62 233e e676 9e3d
00000100: 1ee6 a23d 96af c73d 91fd 20bd 5db3 183e
00000110: 225e c2bb f79a e2bd a96e e8bd 5b73 d03d
00000120: 01cc b5bd d686 c13d 2669 41be d758 35bc
00000130: eba4 0ebe 7191 3a3d ae70 013e 72a7 563d
00000140: 3c9e 9fbd ca62 3bbe 6dac cebd 11ad f8bd
00000150: ef49 1b3e 5dcb e5bd 21b0 513d 2a7e ff3d
00000160: 8ac3 3e3d 4b6a 30be fc87 18bd 8b97 8ebd
00000170: 5920 c63d 4a33 0abd baf0 d8bc ba75 0f3e
00000180: 50db a53d a387 f73d 745a 93bc 083c 1e3e
00000190: 6fc2 833d 0d67 5f3b 9379 953d 8b45 cdbd
000001a0: e408 3a3d a8bd f53d c0a6 01be 8434 61bd
000001b0: dd43 193e bfd4 2f3d 24bf 063d 324d 693d
000001c0: dd91 25bd a68a 3d3e 803b af3c 6777 d0bc
000001d0: a923 073e 0da3 ddbd c0d0 ce3b 9063 683d
000001e0: 5b9a 82bc 855f 0a3e bc79 e5bd 7b58 45bc
000001f0: f6ea 10bd 145b 4f3e 8130 e03d bb5c bebd
00000200: a78d 143e a61d 953d 491b 743e 7d4b 323e
00000210: a896 dabc 6cc1 6f3e f614 383d 30b5 143d
00000220: cb86 043e e31e 813e fa03 053e 3786 c0bd
00000230: 09e3 a43c a5f5 763e 1a89 693c 390d 0bbc
00000240: 60c8 83bd 0e3a acbc 0a99 a4bc 1842 f33d
00000250: efb7 163e 3828 7b3e ac31 453e a224 a23d
00000260: 0d05 303e 75dd 353e 4d79 9bbd fbbc 293e
00000270: 1abb 35bd d42e 5a3e 373d acb9 86e9 e73d
00000280: bfcd 0f3d 35b8 f33d d310 843d efdd babd
00000290: a169 de3d dfa8 103e bd90 61bd 501a 9fbd
000002a0: 3bc5 aabd a5cb 48bd b9e0 703c dba5 4d3d
000002b0: b166 123d 8002 20bc bf35 163e 16c6 3d3d
000002c0: ee76 86bd bc79 20bc dd19 89bd 81df cfbc
000002d0: 27e1 04be 6403 8b3d 4cc4 ccbd 37c7 d73d
000002e0: e1e1 213e 9593 c1bd 309c 66bd 514e d2bd
000002f0: 225f ac3d 8bce 913d f838 5ebd 2a3a 133e
00000300: 3bb5 393e 6cda 53bd f77e c93d a6ab 023d
00000310: 426a 9e3d 0f63 533e 833f b63d 4203 72bc
00000320: 04ee 6d3e 1576 5bbd c2b4 413d fe57 343e
00000330: 3a4c 873e 0924 8f3e 8823 883d 0500 2b3e
00000340: 6b87 41bd 4ebe 963d 3026 593d 2dfb 213e
00000350: fb27 00bc 09b4 153e 8e1d 4c3e e9ab 7b3e
00000360: 08f9 9f3d cafc 893e f0bb 71bd 7c31 6d3d
00000370: be38 333e 3e03 1d3e e6d7 433e f467 18bc
00000380: 40eb de3d 1fe4 29be f63d f8bd 05f9 44bc
00000390: 8edc 2fbe 6910 2cbe 5eb2 20be 9b89 113e
000003a0: 79d4 1e3d 4408 67bd e311 eebb a2c7 1dbe
000003b0: bdf6 2abe 6c7a fcbd 0420 2fbe 9730 ee3d
000003c0: 8a60 7dbd e175 43bd 4ee2 1bbe 4ad8 ef3c
000003d0: d045 d9bc b278 f6bd fb1f e83d 3c95 183e
000003e0: e006 01be bd1f cd3d 9725 ebbc bcc0 daba
000003f0: eb19 9a3d 1b03 04bd 48cd 193e 02c0 de3d

encoder.convs.1.lin_l.weight f4 [16, 16]
0.15940452 0.19733815 0.09613908 0.16848451 0.10006681 -0.19891806 0.42297715 0.09559977
-0.36366507 0.08771791 -0.32662675 -0.14888972 -0.016588138 0.13169375 0.105655245 0.28209823
0.24844599 0.34677678 -0.21780074 -0.059982594 0.1495736 0.2150356 0.10769532 0.052224815
0.12112385 -0.11670688 -0.13337985 0.23417392 -0.0071061365 0.17689696 -0.14981626 -0.014319912
0.17542166 0.15071957 0.09671 -0.06338663 0.40723062 -0.009140529 0.1877981 -0.1637491
-0.39748055 -0.15433843 -0.20678544 -0.039568633 0.111356534 0.18467462 0.13647684 0.33167222
-0.041872382 -0.030320985 0.23170456 -0.13892676 -0.18542805 0.24934493 -0.16922185 -0.06732848
0.062025104 -0.17076062 0.071527965 -0.11744011 0.12093219 -0.053068876 -0.14109492 -0.057787873
0.064952105 0.31158367 -0.21390869 -0.15106137 -0.05722852 0.13909397 0.43047768 -0.24020037
0.07093563 0.09668217 -0.12316935 0.068630196 0.2026601 0.24521735 0.2816864 0.06280922
-0.14224517 -0.107791945 0.0020504892 -0.018359065 0.16998465 -0.22592735 0.010278978 -0.07951218
0.020847887 0.24041039 0.007313609 -0.04335949 -0.08473411 -0.24948451 -0.23873076 0.09656644
-0.15266675 0.33323136 -0.05833859 0.22657792 0.3794633 0.1382708 0.36068138 0.2112689
-0.09643383 0.26966783 -0.1676838 0.24425493 -0.027881658 -0.009409457 0.3739332 0.20604226
0.21860346 -0.080249086 -0.12530999 0.21391298 -0.120809056 0.17608623 0.27108335 0.16923288
-0.089932665 0.023339322 -0.20314746 -0.14570905 -0.070780344 -0.16517442 0.17774637 0.15141079
-0.07154074 -0.18051262 0.22935857 0.0029937741 0.07385015 0.29453894 -0.28490275 -0.23877066
0.33220166 -0.13190298 0.30711356 -0.14616828 0.104915485 0.07391727 -0.18085177 0.08731557
-0.22666845 -0.15662919 -0.051288366 0.29265296 0.10768536 0.23192242 0.04823891 0.22485718
0.00901197 -0.09669772 0.04849316 0.08397253 0.02682003 0.09182027 0.0044382224 0.15155838
0.20368528 0.027925534 0.16589582 -0.08312152 -0.22037266 0.13786732 0.091108456 0.21001863
0.08078068 -0.00860305 -0.19797383 -0.24886954 0.034135796 0.203951 -0.03584672 -0.10033601
0.1250701 -0.1572118 0.07464242 -0.27980924 -0.26146734 -0.20992959 -0.069742024 0.08429974
0.041314684 -0.1896664 -0.12429917 0.06582115 -0.1294285 0.0037568808 0.12969057 -0.12100703
0.12889051 0.4400157 0.09542472 0.0833294 0.058375612 -0.06531074 0.1991251 0.07812911
0.24512114 0.029675948 0.30536717 -0.08083198 0.1591945 -0.12799269 0.21287236 0.35401168
0.087599814 0.22441581 -0.103442505 -0.10896228 0.018067738 -0.16079786 0.40858948 -0.10429394
-0.33984432 -0.21254538 -0.18723413 0.20151351 0.21037444 -0.04464087 0.26054275 0.31497002
0.19454172 -0.44460377 0.01816332 -0.2535095 -0.480742 0.16288401 -0.4138644 -0.12260425
0.116883405 0.2722734 -0.2448446 -0.14522997 -0.13843428 0.19366449 0.051415354 0.09165598
0.16019022 -0.07150529 0.19653024 -0.011448007 0.022479579 -0.08367676 0.050510813 0.1116406
-0.03498841 0.18863495 -0.053350594 0.048328243 0.21388039 0.140854 -0.109337285 -0.102072366
00000000: f03a 233e 0313 4a3e 91e4 c43d 3487 2c3e
00000010: d4ef cc3d 2db1 4bbe 7690 d83e d0c9 c33d
00000020: 4f32 babe 73a5 b33d 9f3b a7be 8c76 18be
00000030: d9e3 87bc bada 063e c761 d83d 2e6f 903e
00000040: a068 7e3e ba8c b13e 2807 5fbe 4fb0 75bd
00000050: d229 193e 4b32 5c3e 5d8f dc3d b0e9 553d
00000060: c80f f83d 0404 efbd ba94 08be 4acb 6f3e
00000070: 98da e8bb 7a24 353e 6f69 19be 109e 6abc
00000080: bca1 333e 3b56 1a3e e40f c63d d9d0 81bd
00000090: 8880 d03e 28c2 15bc 254e 403e d8ad 27be
000000a0: 9282 cbbe e50a 1ebe 90bf 53be b812 22bd
000000b0: e50e e43d 581b 3d3e 96c0 0b3e f1d0 a93e
000000c0: 6082 2bbd b763 f8bc f643 6d3e d142 0ebe
000000d0: dae0 3dbe 4754 7f3e 7e48 2dbe 84e3 89bd
000000e0: 090e 7e3d dfdb 2ebe 417d 923d 7184 f0bd
000000f0: 4cab f73d c05e 59bd 307b 10be fab2 6cbd
00000100: 9c05 853d e587 9f3e e10a 5bbe d5af 1abe
00000110: 7468 6abd a66e 0e3e 9267 dc3e 16f7 75be
00000120: b346 913d 4d01 c63d 3640 fcbd fd8d 8c3d
00000130: 2186 4f3e 421a 7b3e 3339 903e 1fa2 803d
00000140: b8a8 11be 06c2 dcbd 8061 063b c065 96bc
00000150: 7510 2e3e 8059 67be 2969 283c 48d7 a2bd
00000160: 30c9 aa3c 242e 763e 00a7 ef3b b899 31bd
00000170: 1489 adbd de78 7fbe d675 74be a0c4 c53d
00000180: ac54 1cbe 4d9d aa3e 72f4 6ebd 0b04 683e
00000190: 0349 c23e dc96 0d3e 3bab b83e e056 583e
000001a0: 1a7f c5bd e711 8a3e 4db5 2bbe f71d 7a3e
000001b0: 1368 e4bc 202a 1abc 2c74 bf3e befc 523e
000001c0: 96d9 5f3e a259 a4bd 4351 00be 010c 5b3e
000001d0: bd6a f7bd f34f 343e 70cb 8a3e 624b 2d3e
000001e0: 9e2e b8bd 1b32 bf3c e305 50be c134 15be
000001f0: 49f5 90bd 7c23 29be 2503 363e 6e0b 1b3e
00000200: f483 92bd 4dd8 38be f9dc 6a3e 3233 443b
00000210: bf3e 973d cfcd 963e c6de 91be 4c80 74be
00000220: 5616 aa3e 9311 07be fd3d 9d3e 23ad 15be
00000230: eedd d63d f061 973d 3531 39be 81d2 b23d
00000240: c61b 68be 6763 20be c013 52bd 9cd6 953e
00000250: 248a dc3d 127d 6d3e 2a96 453d f640 663e
00000260: f1a6 133c 7409 c6bd c4a0 463d caf9 ab3d
00000270: aeb5 db3c 440c bc3d 826e 913b 1f32 1b3e
00000280: e092 503e 17c4 e43c 98e0 293e 9e3b aabd
00000290: 5fa9 61be 172d 0d3e 1297 ba3d 200f 573e
000002a0: 5770 a53d cff3 0cbc a7b9 4abe a8d7 7ebe
000002b0: fad1 0b3d 88d8 503e 03d4 12bd f77c cdbd
000002c0: 6012 003e 21fc 20be 20de 983d 2843 8fbe
000002d0: 0cdf 85be c8f7 56be e8d4 8ebd 58a5 ac3d
000002e0: 9639 293d e937 42be 9090 febd 3dcd 863d
000002f0: e888 04be 0036 763b 9bcd 043e 89d2 f7bd
00000300: e0fb 033e bd49 e13e 096e c33d 9ba8 aa3d
00000310: 441b 6f3d a3c1 85bd 73e7 4b3e 2802 a03d
00000320: 0901 7b3e f91a f33c 1659 9c3e 3d8b a5bd
00000330: e203 233e 8410 03be 36fb 593e 0541 b53e
00000340: 8867 b33d 42cd 653e aad9 d3bd 9e27 dfbd
00000350: cb02 943c 32a8 24be a432 d13e 1098 d5bd
00000360: 1300 aebe 7fa5 59be 4eba 3fbe 8f59 4e3e
00000370: 666c 573e 58d9 36bd dc65 853e c043 a13e
00000380: f235 473e 1ba3 e3be 3ecb 943c ffcb 81be
00000390: d123 f6be 11cb 263e 09e6 d3be f017 fbbd
000003a0: 9160 ef3d 6b67 8b3e 8bb8 7abe 2ab7 14be
000003b0: b7c1 0dbe fc4f 463e e898 523d 21b6 bb3d
000003c0: e808 243e 5e71 92bd 393f 493e 6c90 3bbc
000003d0: 1827 b83c b95e abbd 6de4 4e3d d4a3 e43d
000003e0: 0250 0fbd 8529 413e 2786 5abd d6f3 453d
000003f0: 7603 5b3e 083c 103e 3aec dfbd 510b d1bd

encoder.convs.1.lin_l.bias f4 [16]
0.0728095 -0.023473227 0.07926018 0.29273355 0.04051481 -0.15271793 -0.22829586 0.2840181
0.08744177 -0.13239108 -0.2699117 0.30062371 0.15291694 -0.07227962 0.007975321 0.21940626
00000000: 261d 953d ed4a c0bc 2953 a23d 2ce1 953e
00000010: dbf2 253d 1762 1cbe 64c6 69be d26a 913e
00000020: ac14 b33d 8791 07be de31 8abe 5aeb 993e
00000030: 4296 1c3e 5607 94bd ecaa 023c 09ac 603e

encoder.convs.1.lin_r.weight f4 [16, 16]
0.10763544 0.03996729 -0.21568276 0.31024224 -0.122302055 0.25061196 -0.26454267 -0.22290239
-0.041406292 0.23646627 0.3814028 -0.19835971 0.3636829 -0.15195659 -0.24987528 0.23731448
0.14171556 0.09780592 0.03080574 0.36036566 -0.25175086 0.2136851 -0.12654899 0.012347072
0.33327815 -0.16145895 0.2300404 -0.035772692 0.29583344 -0.012561571 0.10191926 0.2755054
-0.089262515 -0.41136566 0.2358191 0.026038762 -0.18952565 0.2914692 -0.1587304 0.19538355
0.33630416 -0.025035815 0.22571437 0.033573624 0.39953843 0.17308229 -0.19243468 0.15915512
0.13483983 0.28969198 0.101391874 0.19704749 0.05688982 0.07826824 -0.026645727 0.20581025
0.115882024 -0.10714509 -0.18227208 0.18651246 -0.20902677 0.16033044 -0.116519935 -0.011833635
-0.10584864 0.1708644 -0.054048833 0.36374605 0.0074567865 0.36642793 0.1229065 0.1841186
0.40898338 -0.06790032 0.0891296 0.09808112 0.37947845 -0.092002004 -0.2150531 -0.09056963
-0.11550003 0.039891303 -0.028930128 -0.07917208 -0.116874486 0.052457467 -0.21215835 0.24595568
-0.05130122 0.034366902 0.069795005 -0.10832482 0.18471943 -0.0018528998 0.007976652 -0.25057065
0.030944824 -0.051635057 0.042458106 0.14879219 0.05302746 0.3527802 -0.07701923 -0.043390423
0.2352582 -0.13992912 -0.008880312 -0.029672772 0.18481494 -0.14561361 -0.32699078 0.17172314
0.091403216 -0.119945556 0.15325601 -0.14936319 0.20474288 0.1722633 0.08046513 0.23801431
-0.1035635 -0.08435686 0.23018974 -0.049658876 -0.06111876 0.03269139 -0.002473264 0.17722133
0.20410714 0.23889384 0.06579033 -0.02352943 0.15939249 -0.05241482 0.21294379 0.17047364
0.014820623 -0.030458383 -0.024326235 -0.00013135135 -0.014129992 0.20525026 0.03613802 0.13621457
-0.052010268 -0.27481803 -0.25468433 -0.0007669722 0.161733 -0.09959341 0.09750026 0.14408758
-0.18027106 0.1142939 -0.0019127515 -0.23893906 0.09350323 -0.24046686 0.2110168 0.10628979
0.09579107 0.06956227 0.17868426 0.067520894 -0.009595684 -0.37923676 0.11573419 0.069446236
-0.09854996 -0.10312055 0.22396347 0.055535495 -0.04497495 0.013501437 0.1614507 -0.28887665
0.059583306 0.11249881 0.012872688 0.24623027 0.13892281 0.018513458 0.20613171 -0.019736528
-0.05786261 -0.22515602 0.00084506115 -0.13345218 0.11688067 0.22333096 -0.22100683 -0.10748006
0.2406924 -0.036838513 0.2095047 0.39890212 -0.013173214 -0.07606516 0.1290057 0.1136432
0.46127465 0.03896985 0.31934497 -0.20057951 0.2162696 0.052874323 0.1438506 -0.058544524
-0.029876083 -0.38799468 -0.168253 0.28988057 -0.34613135 0.2605889 -0.114249974 -0.006141454
0.19808957 0.12187244 0.024929669 0.04131056 0.31316406 0.14499763 -0.24428932 0.36303356
-0.16661546 0.3368418 0.21657196 0.23725212 0.28076097 -0.0018889871 0.1613924 -0.09822297
-0.51413095 0.24389939 0.27224496 -0.018927936 0.45255378 -0.22988334 0.31899247 0.42800322
0.24298969 -0.070548154 -0.23850527 -0.055113826 0.20046422 0.049291767 0.23729055 -0.18254456
-0.16272303 0.14837085 0.06345583 -0.1480318 0.25519305 -0.102368206 -0.22091301 0.06721952
00000000: f86f dc3d beb4 233d f1db 5cbe 12d8 9e3e
00000010: 8079 fabd 3650 803e 2372 87be 8640 64be
00000020: a599 29bd 3724 723e 3a47 c33e cf1e 4bbe
00000030: a534 ba3e 829a 1bbe 4edf 7fbe 9102 733e
00000040: e21d 113e 784e c83d 525c fc3c d981 b83e
00000050: 7de5 80be 44d0 5a3e 0f96 01be 604b 4a3c
00000060: 6fa3 aa3e 7f55 25be b68f 6b3e 6386 12bd
00000070: 7b77 973e 0ccf 4dbc 0cbb d03d 0b0f 8d3e
00000080: 44cf b6bd 859e d2be 907a 713e 3e4f d53c
00000090: 0313 42be 733b 953e 398a 22be a012 483e
000000a0: 0f30 ac3e e917 cdbc ab21 673e 7f84 093d
000000b0: 4d90 cc3e 7c3c 313e 990d 45be 8ff9 223e
000000c0: 7413 0a3e 8252 943e 8ba6 cf3d d1c6 493e
000000d0: 4d05 693d 194b a03d 2448 dabc ecbf 523e
000000e0: 8e53 ed3d e36e dbbd 88a5 3abe 1ffd 3e3e
000000f0: 1d0b 56be aa2d 243e 01a2 eebd dde1 41bc
00000100: 2cc7 d8bd 14f7 2e3e 4f62 5dbd ec3c ba3e
00000110: 0f58 f43b 719c bb3e 67b6 fb3d 9689 3c3e
00000120: 4566 d13e 530f 8bbd 9489 b63d c1de c83d
00000130: 004b c23e 8c6b bcbd e136 5cbe 927c b9bd
00000140: 488b ecbd 1065 233d e0fe ecbc f924 a2bd
00000150: e45b efbd a4dd 563d 0a40 59be cedb 7b3e
00000160: 3a21 52bd 4fc4 0c3d aff0 8e3d 67d9 ddbd
00000170: 1727 3d3e 00dd f2ba 81b0 023c cc4a 80be
00000180: 0080 fd3c 487f 53bd 8de8 2d3d fb5c 183e
00000190: 5233 593d 9b9f b43e 42bc 9dbd 28ba 31bd
000001a0: 87e7 703e 9449 0fbe ba7e 11bc 5014 f3bc
000001b0: 2140 3d3e bc1b 15be 566b a7be 31d8 2f3e
000001c0: 9c31 bb3d 04a6 f5bd 25ef 1c3e aaf2 18be
000001d0: 1ea8 513e ca65 303e e7ca a43d 06ba 733e
000001e0: 1a19 d4bd 4ac3 acbd dcb6 6b3e 1b67 4bbd
000001f0: aa57 7abd 68e7 053d 7c16 22bb 8279 353e
00000200: 7601 513e 96a0 743e 15bd 863d cbc0 c0bc
00000210: c937 233e ecb0 56bd f00d 5a3e a490 2e3e
00000220: 33d2 723c dc83 f9bc d047 c7bc 5cbb 09b9
00000230: 7b81 67bc 202d 523e 7605 143d d57b 0b3e
00000240: b808 55bd f3b4 8cbe fc65 82be a20e 49ba
00000250: 569d 253e a1f7 cbbd 37ae c73d b28b 133e
00000260: fa98 38be ec12 ea3d 4ab5 faba 71ac 74be
00000270: 9f7e bf3d f23c 76be ca14 583e 76ae d93d
00000280: 1c2e c43d aa76 8e3d 02f9 363e 6548 8a3d
00000290: 3737 1dbc 522b c2be 0c06 ed3d d439 8e3d
000002a0: 90d4 c9bd de30 d3bd ae56 653e 3079 633d
000002b0: a737 38bd 2235 5d3c 5553 253e a4e7 93be
000002c0: a00d 743d c765 e63d f7e7 523c ca23 7c3e
000002d0: c841 0e3e 89a9 973c 3114 533e 80ae a1bc
000002e0: 5801 6dbd 4d8f 66be 1887 5d3a b0a7 08be
000002f0: 225f ef3d dfb0 643e 9d4f 62be 811e dcbd
00000300: 1278 763e fbe3 16bd 6688 563e e63c cc3e
00000310: 77d4 57bc 0dc8 9bbd 121a 043e c4bd e83d
00000320: 312c ec3e d99e 1f3d 2f81 a33e b764 4dbe
00000330: c775 5d3e bf92 583d 924d 133e 62cc 6fbd
00000340: b0be f4bc 3da7 c6be 844a 2cbe 3a6b 943e
00000350: 2138 b1be e96b 853e e4fb e9bd 403e c9bb
00000360: fed7 4a3e 4298 f93d 4e39 cc3c 4335 293d
00000370: 0a57 a03e 427a 143e fb26 7abe 89df b93e
00000380: 3e9d 2abe 8776 ac3e 0ac5 5d3e 38f2 723e
00000390: e7bf 8f3e e497 f7ba 0d44 253e 2029 c9bd
000003a0: 169e 03bf c3c0 793e b163 8b3e c20e 9bbc
000003b0: 21b5 e73e 8a66 6bbe fb52 a33e 3d23 db3e
000003c0: 4ad2 783e 8d7b 90bd ba3a 74be 09bf 61bd
000003d0: 7e46 4d3e 2ae6 493d 4bfc 723e f6ec 3abe
000003e0: dea0 26be 87ee 173e 21f5 813d a695 17be
000003f0: aaa8 823e 6ca6 d1bd 0537 62be 63aa 893d

encoder.convs.2.lin_l.weight f4 [8, 16]
-0.039846763 -0.03674769 -0.060210142 0.18887028 0.264426 0.17502718 -0.088514395 0.018194338
0.46058583 -0.3164404 -0.10466976 0.10414456 -0.10491107 -0.11111036 0.46170345 0.16627502
-0.030282492 0.033464167 0.073394105 0.29554087 0.13448077 0.11054222 0.09115278 0.18196684
0.10856581 0.08501402 -0.11474397 -0.07580785 0.18254746 -0.37267002 0.05994879 -0.21125522
-0.19618048 0.06761187 0.09370302 -0.08794043 0.077556156 -0.17465495 0.026594484 0.20340967
0.021855233 -0.17933819 0.17571856 -0.055138465 -0.0066345143 -0.28988928 0.44671696 0.14282772
-0.12752327 0.12232251 0.23836651 -0.02647527 -0.27181157 -0.06425874 0.18299265 0.11452102
-0.21210825 0.24398732 -0.17417419 -0.048536494 0.13118902 -0.02079881 -0.47589856 -0.004055729
0.12156611 0.1603327 -0.19480218 0.11578634 0.041368056 -0.03645967 -0.13692588 -0.007780291
0.2720243 -0.10039239 -0.06317845 0.38400233 0.043258805 -0.058960225 0.34406692 0.02323724
0.0003799254 0.0046883817 0.076583944 -0.020016328 -0.041795917 -0.23112422 -0.123253495 0.13746603
0.31598863 -0.28703386 -0.07773338 0.25332546 -0.07714084 0.085542455 0.246329 -0.17296068
0.02616123 -0.16826205 0.048385266 -0.3578148 0.16615777 -0.116658114 0.1743501 -0.22071227
-0.3809581 0.14483698 0.13807103 -0.1209288 -0.2675726 -0.035274047 -0.4446114 -0.00643198
-0.004657211 0.12836882 0.22539535 -0.24560645 0.1134571 0.1635197 0.033497877 -0.30922565
-0.32482538 0.1747354 0.17309588 0.02024929 -0.04709699 -0.16111413 -0.48463547 -0.21574028
00000000: 5c36 23bd bf84 16bd e99e 76bd 3667 413e
00000010: d862 873e 533a 333e 0947 b5bd 4b0c 953c
00000020: e8d1 eb3e 7a04 a2be 195d d6bd be49 d53d
00000030: 9ddb d6bd d48d e3bd 6564 ec3e 0044 2a3e
00000040: fd12 f8bc b911 093d a64f 963d 2251 973e
00000050: 54b5 093e f663 e23d 4fae ba3d 8455 3a3e
00000060: c057 de3d d51b ae3d e3fe eabd 2541 9bbd
00000070: b9ed 3a3e 9bce bebe dd8c 753d 4a53 58be
00000080: 89e3 48be 1878 8a3d 5ee7 bf3d 1d1a b4bd
00000090: c3d5 9e3d bfd8 32be addc d93c a04a 503e
000000a0: bf09 b33c 6ea4 37be 91ef 333e dfd8 61bd
000000b0: 5766 d9bb 5e6c 94be 16b8 e43e 6e41 123e
000000c0: 7695 02be 3984 fa3d 5a16 743e aae2 d8bc
000000d0: e32a 8bbe 169a 83bd 6d62 3b3e ff89 ea3d
000000e0: e832 59be d0d7 793e b85a 32be 34ce 46bd
000000f0: 6a56 063e 4462 aabc faa8 f3be ece5 84bb
00000100: a7f7 f83d 412e 243e 397a 47be 6321 ed3d
00000110: 8d71 293d bc56 15bd 4c36 0cbe d0f1 febb
00000120: c546 8b3e 869a cdbd b463 81bd f49b c43e
00000130: 2530 313d 4780 71bd 8a29 b03e 065c be3c
00000140: b930 c739 ffa0 993b 0bd8 9c3d 48f9 a3bc
00000150: 3232 2bbd d4ab 6cbe 546c fcbd e5c3 0c3e
00000160: 43c9 a13e 1af6 92be ae32 9fbd e0b3 813e
00000170: 04fc 9dbd e230 af3d ab3d 7c3e 9b1c 31be
00000180: 1350 d63c e34c 2cbe a12f 463d 8033 b7be
00000190: 4325 2a3e 73ea eebd d588 323e 6602 62be
000001a0: f10c c3be 2550 143e 7e62 0d3e 85a9 f7bd
000001b0: 47ff 88be 857b 10bd 1ba4 e3be 5cc3 d2bb
000001c0: 849b 98bb 1e73 033e 0ace 663e 4280 7bbe
000001d0: 325c e83d b571 273e 1235 093d d352 9ebe
000001e0: 834f a6be d6ed 323e 0c40 313e d7e1 a53c
000001f0: c6e8 40bd 1afb 24be 2422 f8be 05eb 5cbe

encoder.convs.2.lin_l.bias f4 [8]
0.03827446 -0.020223254 0.14378355 -0.13869648 0.19664209 0.21374495 -0.119507544 -0.12744622
00000000: aec5 1c3d 3dab a5bc ff3b 133e 7306 0ebe
00000010: 8b5c 493e f5df 5a3e 5fc0 f4bd 4381 02be

encoder.convs.2.lin_r.weight f4 [8, 16]
0.057956737 0.20763923 0.37998113 0.042717844 0.3335857 0.20064327 0.414607 -0.16099769
-0.1372808 -0.08804103 -0.099520914 -0.004990543 0.3958702 0.52589786 -0.12916864 -0.07088072
0.15358514 0.13741569 0.2945875 -0.025702234 0.1383863 0.08444634 0.34795317 0.08658489
-0.07415184 -0.3466673 0.08386103 -0.11777404 -0.10853439 0.24657446 0.069026545 -0.15238647
0.10040056 0.18500966 0.32284802 -0.14901678 -0.05189277 -0.10324627 0.0906464 0.019756582
-0.17575398 0.18021865 -0.025668984 -0.29854906 0.24942878 0.32057443 0.13589521 -0.02350806
-0.13368618 -0.34654522 -0.35602057 0.10785549 0.062997684 -0.15374596 -0.111598544 -0.17071573
-0.22471686 -0.0494161 -0.076325566 -0.100597605 -0.19824092 -0.33146948 0.22019927 0.1387941
0.16373111 0.10697286 0.13233624 -0.14582077 0.35058895 0.22433221 0.0017461262 -0.17609504
-0.12661463 -0.1420208 -0.087267615 -0.10708254 0.29657963 0.34586203 -0.04194733 -0.1464736
0.30935404 0.34467798 0.15229107 -0.18558533 0.29051217 0.14835268 0.10384692 0.2514919
-0.11868637 -0.07883936 0.1234029 -0.22042958 0.036046408 0.15909109 -0.13487029 0.23629577
0.01429947 -0.3460127 -0.30829257 0.10667913 -0.23398179 -0.13825081 -0.41395053 0.17807084
0.15303071 0.1501915 0.0416289 -0.12557271 -0.15478046 -0.20644976 0.047234837 0.2511684
-0.07443271 -0.1283182 -0.051990077 0.24680594 -0.32071686 0.07468685 -0.39645505 -0.08861135
-0.08789347 0.2661083 -0.14112373 0.21558453 -0.35637736 -0.17906642 0.1814759 -0.1312903
00000000: 0b64 6d3d 619f 543e e38c c23e e8f8 2e3d
00000010: bfcb aa3e 6e75 4d3e 5e47 d43e 94dc 24be
00000020: 5793 0cbe db4e b4bd 9fd1 cbbd b587 a3bb
00000030: 80af ca3e 3ea1 063f c944 04be e929 91bd
00000040: 6c45 1d3e b3b6 0c3e 2cd4 963e 7e8d d2bc
00000050: 23b5 0d3e 34f2 ac3d eb26 b23e 6b53 b13d
00000060: ebdc 97bd 607e b1be 55bf ab3d 8433 f1bd
00000070: 4747 debd 047e 7c3e ca5d 8d3d 330b 1cbe
00000080: cf9e cd3d 2c73 3d3e 564c a53e db97 18be
00000090: 838d 54bd c872 d3bd d2a4 b93d 8ed8 a13c
000000a0: daf8 33be 3d8b 383e c347 d2bc 6cdb 98be
000000b0: 426a 7f3e 5522 a43e 1d28 0b3e fa93 c0bc
000000c0: 08e5 08be 606e b1be 5448 b6be 57e3 dc3d
000000d0: ee04 813d 956f 1dbe c78d e4bd 1bd0 2ebe
000000e0: 2d1c 66be 8968 4abd 9450 9cbd 1e06 cebd
000000f0: abff 4abe 5eb6 a9be eb7b 613e 0a20 0e3e
00000100: 21a9 273e 9614 db3d 2783 073e 0a52 15be
00000110: 6580 b33e 58b7 653e 46de e43a 4252 34be
00000120: 44a7 01be e76d 11be 5db9 b2bd 174e dbbd
00000130: 49d9 973e d414 b13e f7d0 2bbd 2dfd 15be
00000140: a763 9e3e a279 b03e 31f2 1b3e 150a 3ebe
00000150: 03be 943e c4e9 173e b2ad d43d 8cc3 803e
00000160: d711 f3bd 8876 a1bd a9ba fc3d 4bb8 61be
00000170: 66a5 133d c6e8 223e 701b 0abe 85f7 713e
00000180: 5348 6a3c 9428 b1be 86d8 9dbe 967a da3d
00000190: ec98 6fbe 9f91 0dbe 53f1 d3be 3458 363e
000001a0: 15b4 1c3e cdcb 193e 1183 2a3d 2296 00be
000001b0: c57e 1ebe 9167 53be 5179 413d 2599 803e
000001c0: 2d70 98bd d965 03be 8cf3 54bd b2ba 7c3e
000001d0: 0035 a4be 6bf5 983d 28fc cabe de79 b5bd
000001e0: 7e01 b4bd 593f 883e bd82 10be 31c2 5c3e
000001f0: 1877 b6be 305d 37be d1d4 393e f770 06be
