ARES-4573/checkpoints/model_GAE_ISCX_update.pt (torch, 14370 bytes, 12 tensors)

encoder.convs.0.lin_l.weight f4 [16, 32]
00000000: ae0f abbe 4010 05bd 6d3a bbbd 175d 09bd
00000010: da44 8dbe b87c 86be 181f 81be 9231 3fbe
00000020: 4654 a2be f330 28be 385f 9bbe d41f 26be
00000030: f052 e7bc b027 24be aabd 7abd 87d3 a1be
00000040: 7a46 5cbe 9140 99be 0fd0 56be 755e 85be
00000050: 39c1 94be 94ca b8be c0ec 82be b87c 2abe
00000060: fe92 62be fca8 b5be e700 6bbd 5405 72bd
00000070: cdee 97be d253 30be 890f 95bd 1351 b7be
00000080: cd1a 20be 1492 c83d 6c79 6fbb 89f2 653d
00000090: 65de 96bd 27a8 023d 89ce ef3d f7c4 31bd
000000a0: b081 6abd 4d85 2cbe e9b6 e0bc 6f19 e53d
000000b0: 573b 2bbe d23b 62bc 95cb 033e b749 4fbd
000000c0: 3013 86bd c307 5bbd e5fe 92bd 4112 ac3c
000000d0: 3471 2ebe fe08 8a3d e47e 37bd 0fa1 b9bc
000000e0: 55ea 45bc 6aef c93d eb32 e1bd 73e1 24be
000000f0: cf18 03be 67f3 04be 1494 b0bd d9d0 0e3e
00000100: a8d1 16be 3260 eabd e958 1ebe 246f cbbd
00000110: 35c8 7dbc 6d51 f2bd ecdb 0dbc 6493 493d
00000120: c24f 26bd 56a5 863d 6911 f63c 1f16 243e
00000130: 9a2b a0bc da1e 123e 826c f93d 4383 973d
00000140: 9d54 b73d 2a02 04be 3104 04be ff0b 853d
00000150: 98cb 5b3d 2194 183e c364 09bd 7a39 30bd
00000160: aca1 e23d edde 9dbb 532a 1f3e c039 cebd
00000170: 4f58 8cbd 2651 3dbb 2f88 ab3d 3679 29be
00000180: 23d5 c7bd 4a6f a43d b3db 38bc 2776 9d3d
00000190: 8e20 ddbd 845b 23be 5dd4 2cbe 4b05 17be
000001a0: 9548 39be e8d8 213d 2a1f 17ba 1411 25be
000001b0: e059 e93d 3795 123b aff9 903c c809 fbbd
000001c0: 3629 983d 62ef 30be 6868 a53d 509d 13be
000001d0: 371e dd3c ef76 e5bd 9cb6 883d d30f 49be
000001e0: d614 a9bd 5636 c4bd 977d 1dbe 5b29 0abe
000001f0: 0015 c8bd d1ce f3bc 327c 9e3d fcfb 9dbd
00000200: 2606 4abe f6cc e8be 5353 ecbe 5b73 c2be
00000210: 5a1d cebe fffa a0be 2633 54be 5bbd 9ebe
00000220: 93bb 04bf 32a7 dcbe deb5 cfbe e912 08bf
00000230: a9be a1be 3f72 5dbe 02c7 90be 8485 bfbe
00000240: b89e c4be 691d e8be d1c8 c7be cdb2 5cbe
00000250: 4743 ecbe c23f afbe c011 00bf fa7a d6be
00000260: fa7c b8be 6c09 01bf 4d23 a5be eab9 05bf
00000270: 08b4 e2be ec7c 7dbe 35a7 51be 49ce c4be
00000280: 5bfd 76bd b7fd a1bd b730 b93c 6ced c5bc
00000290: 6b87 533e 29a2 75bd a998 303e 6c1a cc3d
000002a0: 483c 493c 2e31 573e bc5e 283e ba36 753d
000002b0: 9739 5cbd 23b2 653c 2500 fc3d 877b 603e
000002c0: b18a d13b c001 f3bb 0c76 dabd ade5 323e
000002d0: 7450 743e 3d43 403e e5ec 04bd 2050 453e
000002e0: 9415 4c3c 6c46 223e c17a 2d3e 2be6 9fbd
000002f0: bedc e03d dee6 0b3e cbc0 24bd f7fe 6a3e
00000300: 2861 503e 0d5a 5a3e c8db 823d 0052 eebc
00000310: 38e3 febc 1a0b 033e accb f83c 88f0 523e
00000320: a7aa 5a3e 1510 a23d 5045 a2bd 0bea 0a3e
00000330: 1b0e 653e 33c4 ac3c 2165 ddbc 98bc c53c
00000340: 80fe b93d af7e 86bd afbb 233e 3370 103e
00000350: ef6b 09bb b3f1 9336 72a3 96bc 7890 503e
00000360: 706c 2e3e ec06 ed3d 02c6 6b3d 2991 e03d
00000370: 9eb5 713e b4c0 f83d 7ebd b9bc 0216 093e
00000380: 29f1 67bc 38a5 4b3d 0b01 6dbd 062c 503d
00000390: d290 853d 70c7 51bd 7eb7 2d3e e186 603e
000003a0: c724 bcbd af95 db3d 3d6b 87bd 38e2 aa3c
000003b0: f40c 103e 66a5 583d 5d63 e03d 82c3 a7ba
000003c0: 2617 663e 372d ddbc ad70 b63d 4bd7 973d
000003d0: 49a5 343e 34a6 973d bd7a 263e 9ff5 cf3d
000003e0: b6c2 2c3e 1c82 6e3d 227c eb3d 8ae6 6b3e
000003f0: 0f64 d1ba 4e94 82bc 35be 3c3e 3e1f fd3d
-0.334104 -0.0324862 -0.09142003 -0.033536043 -0.27591592 -0.26267028 -0.25219035 -0.18671253
-0.3170492 -0.16424923 -0.30346084 -0.16223079 -0.02823779 -0.16030765 -0.061216034 -0.31606695
-0.2151126 -0.29932073 -0.20977806 -0.26048627 -0.29053667 -0.36092055 -0.2557125 -0.16649139
-0.22126386 -0.35480487 -0.057373907 -0.059087113 -0.29674378 -0.17219475 -0.07278354 -0.35804042
-0.15635224 0.09793487 -0.003654088 0.056139503 -0.07366637 0.031898644 0.11709315 -0.04340073
-0.057252586 -0.16847725 -0.027430968 0.11186492 -0.16721855 -0.013808208 0.12870629 -0.05060741
-0.065466285 -0.0534742 -0.071775235 0.021004798 -0.17035371 0.067399964 -0.044798747 -0.022659807
-0.012079795 0.09860118 -0.1099604 -0.16101627 -0.12802432 -0.12983476 -0.08621994 0.13946857
-0.14728415 -0.11444129 -0.15463604 -0.09933308 -0.015489628 -0.11831937 -0.0086583905 0.04921283
-0.040603407 0.06574504 0.030037599 0.16024064 -0.01955204 0.14269581 0.12178899 0.07398083
0.089516856 -0.1289145 -0.12892224 0.06496429 0.05366096 0.14900257 -0.03354336 -0.043023564
0.11065993 -0.0048178346 0.15543489 -0.10069609 -0.06852781 -0.002888748 0.08375584 -0.16550145
-0.097574495 0.08029039 -0.011282849 0.076885514 -0.10797225 -0.15952879 -0.16877885 -0.14748113
-0.18094094 0.0395135 -0.00057648367 -0.16119796 0.113940954 0.002236677 0.017697183 -0.12257725
0.07429735 -0.17278817 0.080765545 -0.14415479 0.026991947 -0.112043254 0.06675455 -0.19634943
-0.08255927 -0.09580676 -0.1537994 -0.13492338 -0.097696304 -0.029761704 0.07738532 -0.07714078
-0.19728908 -0.45468873 -0.4615732 -0.37978634 -0.40256768 -0.31441495 -0.20722637 -0.31003842
-0.51848716 -0.4309631 -0.4056844 -0.53153855 -0.31590775 -0.21625613 -0.2827683 -0.37406552
-0.38402343 -0.45334938 -0.39020398 -0.21552582 -0.4614508 -0.3422833 -0.50027084 -0.418907
-0.3603285 -0.50405 -0.32253495 -0.5223681 -0.44277978 -0.24754685 -0.2047394 -0.38438633
-0.060300212 -0.079097204 0.022606237 -0.024161063 0.20657127 -0.0599691 0.17245735 0.09965977
0.012282439 0.21014854 0.16442388 0.059866644 -0.05376586 0.014019522 0.12304715 0.21922122
0.006394707 -0.00741598 -0.10667047 0.17470427 0.23858815 0.1877565 -0.032452483 0.19268847
0.0124563165 0.15847176 0.16941358 -0.07807573 0.10979603 0.13662288 -0.040222924 0.22948824
0.20349562 0.21323414 0.06389576 -0.029091835 -0.031114206 0.12797204 0.030370556 0.20599568
0.21354161 0.07913224 -0.079233766 0.13565843 0.22368662 0.021089649 -0.027025761 0.02413778
0.09081745 -0.06567132 0.15989564 0.141053 -0.0020968874 4.409079e-06 -0.018388484 0.2036761
0.17033553 0.11573586 0.05756188 0.10965187 0.23604438 0.1214613 -0.022673365 0.13387302
-0.014156618 0.04971811 -0.057862323 0.050823234 0.06521763 -0.05121559 0.16964528 0.21926452
-0.09186702 0.10721909 -0.06612251 0.020859823 0.14067441 0.05289211 0.10956452 -0.0012799355
0.22469768 -0.0269991 0.0890821 0.07414111 0.17641176 0.074047476 0.16257758 0.101542704
0.16871151 0.05822955 0.11498286 0.23037162 -0.0015975254 -0.015939858 0.18431933 0.123594746

encoder.convs.0.lin_l.bias f4 [16]
00000000: f7df c23d 2c64 e9bb 70d4 b33b b895 013f
00000010: 1943 aa3d 3652 68bd ecc8 03be 5ce7 223e
00000020: 887e 103e 4537 ae3d 8ab3 fabd 5a88 163e
00000030: 64de fe3c b115 893e afed 2bbe 2093 61bd
0.09515374 -0.007122537 0.005487971 0.5061908 0.08313579 -0.056719027 -0.12869614 0.15908569
0.14110768 0.085066356 -0.122412756 0.14700451 0.031111903 0.26774362 -0.16789888 -0.05507195

encoder.convs.0.lin_r.weight f4 [16, 32]
00000000: dc2b 09be 2096 483e e6fb 483e 8df3 ebbd
00000010: 466b 303e 1816 93bd f1be 03be 9a34 f73d
00000020: 1e19 0b3e 8517 0b3e da81 883d e035 523e
00000030: ffe8 eebd fd02 f03d b404 a7bc 70b3 353d
00000040: f254 213e 8649 babd 9ba0 e73d 8609 a839
00000050: 6f92 193e f2d9 fd3c 6497 fc3d e22b 523e
00000060: 142f e1bc d5d3 0dbe 6d3c 4f3e f2b4 7cbd
00000070: fbb4 9b3d 5d11 153e 8efa 053c 26f5 313e
00000080: 4892 ec3d 9ee0 0dbd 84be 413d 7917 6b3c
00000090: 7910 323e c399 fc3d e22e efbd f754 933c
000000a0: 3d38 c53d 895d 0b3e 9d1f 7b3d 79c9 9b3d
000000b0: 08ca 01bd bcd6 9c3b 6e9e f8bd 6aff 153e
000000c0: 5b84 0f3e a067 c5bd fc00 1abe c421 0e3e
000000d0: f576 1fbe 5122 ea3d 6558 2fbe aa24 b7bd
000000e0: cb55 97bd 1a19 2b3e 0840 edbc bc1e 1d3e
000000f0: 3846 563d f257 303e 05bf f13d 9b4a 063e
00000100: de57 623e 10a2 703c 0e03 963c fbb1 fd3d
00000110: 3cfd 633e 90e1 f33a d2bd 93bd 622a 92bd
00000120: bdbe 71bc e0cf c23d dc4b 3e3d 62fb a13c
00000130: a0d5 80bc f435 e73d 912c a1bd f39c 763e
00000140: 4bf3 213d 6f98 cc3d 4727 003e 73a0 f4ba
00000150: 8061 533e 3a5c 863d 23be a63d 8c9a cfbd
00000160: 29db b53d 5aa2 023e 0d7e bb3d ef53 4a3d
00000170: 5535 4d3e f3a2 533e 8f25 413e 416a 143d
00000180: 1fd4 90bc b6c3 2fbe 66e4 38be c505 a2bd
00000190: 581f e9bc 11cf 1abe 1d78 48be 82e6 033d
000001a0: 6679 863c 35f9 28be 9a2a 8e3d c2ad 38be
000001b0: c11e af3d 9d2a 3b3d cc1a ddbd 0fef f53d
000001c0: d302 17be b90f 04be c6cf bd3d ca09 c0bd
000001d0: 5cf8 f4bd b5e9 aabc 5bec 9fbd 7755 813d
000001e0: c1d4 c43d dc2c f93c 9f99 23bc eb82 79bb
000001f0: bfa4 32bd 3fec e0bc ddbe 37bd ef1f 943d
00000200: 915f cc3d b7f1 89bc 3ea1 8a3d 4d7f 2f3c
00000210: 51da 813d 1093 153e 5168 f4bd 4c74 d53c
00000220: e8ce 12bd 8602 30be 77f1 2ebe fcf5 b5bc
00000230: 4484 023e face ecbd 27b0 6f3d 5d93 d23d
00000240: dbfb 02be b065 9d3d d37c 0c3d 3cd8 23be
00000250: 6c7a 21bb 24fc 28be 1739 1f3e 5d98 ab3d
00000260: 80a2 8c3d 47ee 0b3e 0c65 0b3e 25aa 343e
00000270: ed48 973d 04bc 01be 3f18 293e 97f7 4c3d
00000280: a0f7 e6bc c30e c7bc 99df 533e ce65 a53d
00000290: 4a0f 2e3e ee6a 623d 64b3 513e f2f0 b3bd
000002a0: 7a42 ab3d e85c ab3d 9998 213d 6384 4b3e
000002b0: e5ac 9d3d cd2b 513d d009 263e 5991 e13c
000002c0: be53 f63c 2c83 d5bd fe33 253d a508 28bd
000002d0: 354b 133e 54f6 473e 9ec8 fcbd cb72 79bd
000002e0: 78c4 583e ca1a 0bbd 5d79 4b3e 82b6 5c3e
000002f0: 9044 3abb f717 d0bd fbff 043e ed8b f93d
00000300: 94ac df3d a59f 9abc dfd3 533d 8daf 48be
00000310: d433 a4bc c694 37bb 35f7 873d 3a5f 0ebe
00000320: c835 86bd 3f5f 19be fd4c 27be 6e12 ef3c
00000330: e0f3 8ebc 03a3 d33c b060 46bd 5cad 47bd
00000340: 21b1 51bd d63a 513d 3aba 2abe 0b72 cebb
00000350: 8325 573d 8811 6e3d 0257 04be 5e69 bd3d
00000360: 701d 26be 13ac 433d 1e34 cd3d 30a8 1ebd
00000370: 95bf 1f3c a1f4 58be 1927 eabd da2f e9bd
00000380: 59c4 fcbe 6caa bbbe 0da0 52be 0f24 b1be
00000390: 811e 1ebe 52f9 f9be 1267 84be 0d78 34be
000003a0: 180e 21be fe9b cbbe c438 fabe f7c3 c9be
000003b0: a0ce 4abe a891 a0be e9fa 23be 6596 eabe
000003c0: c22c e1be a9be 74be 2777 89be 3e4d e3be
000003d0: dc97 28be cf67 cbbe cbb8 f3be 9058 8fbe
000003e0: b634 dbbe 2992 d3be b70f dbbe b1e1 8fbe
000003f0: 1c31 7cbe 3a40 57be 3bb7 dbbe faa6 bdbe
-0.13395637 0.19588518 0.19627342 -0.11521063 0.17228422 -0.071819484 -0.12865807 0.1207058
0.135838 0.1358319 0.06665392 0.20528364 -0.11665534 0.1171932 -0.020387985 0.044360578
0.1575506 -0.09096055 0.1130993 0.00032050553 0.14997266 0.030987713 0.12333563 0.20524552
-0.027488269 -0.13850339 0.20237894 -0.061696 0.07602879 0.14557405 0.008177413 0.17378673
0.115513384 -0.03463804 0.04730083 0.014348858 0.17389096 0.12334015 -0.11678864 0.01798485
0.09629867 0.136099 0.061309446 0.07606787 -0.031686813 0.0047863405 -0.12139593 0.14648214
0.14015333 -0.096389055 -0.15039438 0.13880068 -0.15572722 0.114323266 -0.17123564 -0.0894254
-0.073894106 0.16708794 -0.028961197 0.15343755 0.05231306 0.17221048 0.11804012 0.13114397
0.22103831 0.014687076 0.018312003 0.12387463 0.2226457 0.0018606652 -0.0721394 -0.0713699
-0.014754948 0.09512305 0.046459064 0.019773189 -0.015726864 0.112895876 -0.078698285 0.24083309
0.039538663 0.09990012 0.12514983 -0.001866354 0.20642662 0.065605596 0.081417345 -0.10136899
0.08879692 0.12757245 0.09154902 0.04939645 0.20039876 0.20667629 0.18861984 0.036234144
-0.017679272 -0.17164502 -0.18055877 -0.07911257 -0.028457329 -0.15118052 -0.1957707 0.03220225
0.01641531 -0.16501315 0.06941719 -0.18035033 0.08550788 0.045694936 -0.10796127 0.120084874
-0.14747171 -0.12896623 0.09268145 -0.09376867 -0.11961433 -0.020863393 -0.07808753 0.06315129
0.09610892 0.030416898 -0.009985357 -0.0038072418 -0.043614145 -0.0274564 -0.044859756 0.07232653
0.09979165 -0.016838891 0.06769036 0.010711503 0.06340469 0.14606881 -0.11933959 0.026056431
-0.035841852 -0.17188463 -0.17084299 -0.022212021 0.12745768 -0.11562915 0.0585176 0.102820136
-0.12791388 0.07685411 0.03429873 -0.16000456 -0.002463962 -0.16502434 0.15549122 0.0837867
0.06866932 0.13665114 0.13612765 0.1764303 0.07386956 -0.12669379 0.16513155 0.050040808
-0.028194249 -0.024299031 0.20690764 0.08076058 0.1699802 0.055277757 0.20478588 -0.08786191
0.08362289 0.0836733 0.03945217 0.1987472 0.07698993 0.051067162 0.1621468 0.027535127
0.030069228 -0.1042541 0.040332787 -0.04102387 0.14384158 0.1952756 -0.12342952 -0.06090049
0.21168697 -0.033961095 0.19870515 0.21553996 -0.0028422214 -0.10160821 0.12988274 0.12184892
0.109215885 -0.018874953 0.051715728 -0.19598217 -0.020044245 -0.002801226 0.06638948 -0.13903514
-0.06553227 -0.1497774 -0.16337962 0.029183593 -0.017450273 0.025834566 -0.048432052 -0.048749313
-0.051194314 0.0510815 -0.16672602 -0.006300216 0.05252601 0.058122188 -0.12923816 0.09248613
-0.16222167 0.047771525 0.10019706 -0.038734615 0.009750267 -0.21187069 -0.114332385 -0.1138608
-0.4936855 -0.3665346 -0.20568867 -0.34597823 -0.15441324 -0.4882303 -0.25859886 -0.1762392
-0.15728033 -0.3976745 -0.48871434 -0.39407322 -0.19805384 -0.31361127 -0.16013683 -0.45817867
-0.4397946 -0.23900856 -0.2684872 -0.4439487 -0.1646418 -0.39727637 -0.47601923 -0.27997255
-0.42813653 -0.4132245 -0.42785427 -0.28101876 -0.24628109 -0.21020594 -0.4291323 -0.37041456

encoder.convs.1.lin_l.weight f4 [16, 16]
00000000: 5542 093d e9a0 4a3e 3aa2 eb3d 3b82 ecbe
00000010: 33cf bdbd 1281 7a3e 5ec8 113e aece 013e
00000020: f5d2 bc3c b7a2 02be e35a b53d eb0b a83d
00000030: b1a6 a43e 877f 6f3d a4fc 85bd 317c 513e
00000040: 22f7 dabd 6ec0 4e3e 3ad5 353e f1a0 91bb
00000050: deda 35be 63d3 5a3d 0889 453e b383 853d
00000060: cb5b b43d 51b7 1abe 5d43 a1be 029b e4bd
00000070: fa4d 13bc d0a1 1b3e 50ce 553d 1e6b f4bd
00000080: 6fba 4bbc f43f b3bd 214a 3ebe ef9e 063d
00000090: 6a25 b03d 1418 603e c405 933e 182d 383e
000000a0: 7962 cbbd b1dd 903e d571 a73e 9e1a 24bc
000000b0: 870d cc3d db2b a63e 6c0b b4bd 965e 593e
000000c0: 2ee4 8abd 6c8f 653d 492b f0bc bbe6 e03e
000000d0: 19a5 1e3e 3b23 35be 9b01 fb3d 0c70 87bd
000000e0: 0a3d 2ebe 705f c1bc bb93 39bd a794 3fbe
000000f0: df55 77be 406b 03be b0da d23c 28e8 043e
00000100: be62 d9bd 0fde b7bb 4ac2 0f3e f0fa a5bc
00000110: 5c90 c5be 51ba b73d 35b1 5cbe 3630 883e
00000120: 6c71 c1bd e396 a5be 4550 923e 3c82 c73d
00000130: 61b6 773e b4d9 783e 8837 32bd 2768 853e
00000140: 9498 84bd 106a a7bd b895 cdbc ef50 7bbe
00000150: 1ece 72be c440 873e 4c78 08be 4a03 3a3e
00000160: 0279 ad3d 4410 79be 6b60 213d 28a3 6a3c
00000170: 6f23 763e deaf 153c 2438 673e d87b 1fbe
00000180: 2ddd 3e3e 11fb 473e f2d8 06bd 9e86 07be
00000190: 7a9b abbd 173e 063e 2244 053e 2294 04bd
000001a0: a310 703e 334a 0e3d 51fe e3bb 2a23 7c3e
000001b0: 69bd a03d 84e4 5c3e d4e4 163e 2d4b 0cbe
000001c0: 2cf8 9a3d 423d 983e 8782 95bd e737 26bd
000001d0: f0af 843e 300f 9c3d e373 eabc de44 863d
000001e0: b597 0ebe 9c8a 953e 639a 393e 902a f0bd
000001f0: 5345 d3bd a942 e7bd 80b6 7e3e 46ce d6bd
00000200: fd17 1bbe aa51 b7be 91a0 61bd 92d3 743c
00000210: 1609 e2bd 7063 0f3c 3359 903d 8a66 873e
00000220: 33fc 4c3c 79d6 a0be fc62 f5bd 4f99 493e
00000230: dee8 8fbc 2308 5e3e e0cc 4dbd ed4a 893d
00000240: 4cd5 03bf b6ba 98be 8811 67be 1ed2 a2be
00000250: 511f a1be 3918 533e d72e c03e 4832 cc3e
00000260: 1583 9abe 6dfa 8abe 3791 613d 27e6 8f3e
00000270: 8487 873e 72cd db3e 304d 1fbd 7407 f63e
00000280: ad45 573e d004 af3d 26d0 183d a4d8 c63e
00000290: 3434 98be a8ef 84be e0b1 f83d 7cfe edbd
000002a0: f633 2b3e c178 843e abfb a43e 4ba3 f6ba
000002b0: 5c5e 883e 7920 6a3d 30eb 4cbd 3eaa 5b3d
000002c0: 3828 e8bd 0022 8c3d 0061 b1ba a076 f9bd
000002d0: b8d4 223e e8ba e4bd 2062 2dbe 08bd b13d
000002e0: a085 7bbc daec 0cbe 18fb 50be 8c66 99bd
000002f0: bc02 44be c43c 0b3e 0019 ffbc ccda 033e
00000300: 6839 f93d 2003 803c d943 21bd f70c 04be
00000310: 8888 663d 95f2 71be 6a68 12be 514f 353e
00000320: 333b 58bd 6885 4e3e e0a4 fe3d 5f40 99bd
00000330: a0bd 63be ec28 383e 1087 ac3c 472e 5e3e
00000340: 53d5 45bf fdc7 c7bd 5b66 e9be 2e89 993e
00000350: 9a6d 21bf e0c8 64be 751a 183d 7813 933e
00000360: 670f 35be f099 19bf eafd 8f3e a32b 133d
00000370: 6aa1 bebd 467d 343e 20ab 363e 14dd 8d3e
00000380: c252 493e eef7 6d3e 50e4 bdbd 403d 133d
00000390: 90d4 babd e84d 08bd 8865 4a3e 0246 4abe
000003a0: 14e5 0b3e 92e9 13be 00b2 b33a c0d6 f3bc
000003b0: 789e e6bd b0a4 ae3c cead 01be e4de 673e
000003c0: 3feb 38be b432 093e 81b5 91bd 1501 2b3e
000003d0: 06f9 473e cba3 b93b bef4 5bbc fe4b d43d
000003e0: e655 183e fb54 2fbd 379b bb3c 14bf 7f3c
000003f0: 5acc 643e 42b1 483e d246 623e 62df eb3d
0.033510525 0.19787945 0.11505552 -0.46193108 -0.09268036 0.24463299 0.1423659 0.12676498
0.02304981 -0.12757383 0.08855226 0.08205398 0.32158425 0.05847123 -0.06542328 0.20457532
-0.10691668 0.20190594 0.1775712 -0.0044442345 -0.17759272 0.05342425 0.19290555 0.0651926
0.088065706 -0.15108992 -0.31496707 -0.11162378 -0.008990759 0.15198445 0.052198708 -0.119344935
-0.012434586 -0.087524325 -0.18582965 0.032866415 0.08600886 0.21884185 0.28715336 0.17985952
-0.099308915 0.28294137 0.32704034 -0.010016112 0.09963518 0.32455334 -0.08791241 0.21227488
-0.06781803 0.05604498 -0.029317515 0.43926033 0.15492667 -0.1768922 0.122561656 -0.06613168
-0.17015472 -0.023605078 -0.045306902 -0.1870905 -0.24153851 -0.12833881 0.025739044 0.12979186
-0.10614537 -0.0056111882 0.14038959 -0.020261258 -0.385867 0.08971084 -0.21551974 0.26599282
-0.09445462 -0.3234168 0.28576866 0.09741637 0.24190666 0.24301797 -0.04350999 0.26056024
-0.064744145 -0.08174527 -0.025095806 -0.24542592 -0.2371144 0.264166 -0.1332714 0.18165317
0.08470346 -0.24322611 0.039398592 0.014321126 0.24036954 0.009136168 0.2258001 -0.15574586
0.1863906 0.19529368 -0.03292174 -0.13234946 -0.08379264 0.13109623 0.13014272 -0.032367833
0.23443846 0.03473873 -0.006957807 0.24622789 0.07848627 0.21571547 0.14735729 -0.13700552
0.07566866 0.29734236 -0.07300287 -0.040580656 0.2591548 0.07620084 -0.028619712 0.06556104
-0.13925059 0.29207313 0.181253 -0.11726868 -0.10315957 -0.11292011 0.24874306 -0.10488562
-0.1514587 -0.35804492 -0.05508477 0.01494302 -0.11036889 0.008751735 0.070482634 0.2644542
0.012511301 -0.3141363 -0.119817704 0.19687389 -0.017567094 0.21682791 -0.050244212 0.06703744
-0.5149734 -0.2982995 -0.22565281 -0.31800932 -0.31469205 0.20614709 0.37535736 0.39882112
-0.30178133 -0.27144185 0.05507013 0.2810528 0.26470578 0.4293018 -0.03889197 0.4805256
0.21022673 0.0854584 0.03730788 0.3883716 -0.29727328 -0.25964093 0.12143302 -0.11620805
0.1671904 0.25873378 0.32223257 -0.0018816976 0.2663449 0.057159875 -0.05002898 0.053629152
-0.11335796 0.068424225 -0.0013532937 -0.12180829 0.15901458 -0.11168462 -0.16931963 0.08678633
-0.015351683 -0.13762227 -0.20408285 -0.074902624 -0.19141668 0.13597399 -0.03113985 0.12876433
0.121691525 0.01562649 -0.039371345 -0.1289557 0.05628255 -0.23627694 -0.14297643 0.17706038
-0.05279083 0.20168078 0.12433791 -0.07482981 -0.22240305 0.1798436 0.021060497 0.21697341
-0.7727863 -0.097549416 -0.45585904 0.29987472 -0.63057864 -0.22342253 0.037134606 0.2872579
-0.17681657 -0.60000515 0.2812341 0.035930287 -0.09308131 0.17625913 0.17838717 0.27707732
0.19660476 0.23239109 -0.09272063 0.035947084 -0.09122574 -0.033277422 0.19765294 -0.19753268
0.13661605 -0.14444569 0.0013709664 -0.029765487 -0.11260694 0.021318763 -0.12663957 0.2264362
-0.1805849 0.13398248 -0.07114697 0.16699632 0.19528589 0.0056652776 -0.01342505 0.10366057
0.14876518 -0.042805653 0.02290116 0.015609521 0.22343579 0.19598868 0.22097328 0.11517216

encoder.convs.1.lin_l.bias f4 [16]
00000000: b02a b1bc 3fb7 8dbd cb85 e13c 7037 48bd
00000010: 4498 c7bd 5fad a9bd 40dc e93d 42dd 9c39
00000020: 32e9 5c3e 3cdd 01be 4043 ab3e 984e 4ebd
00000030: 95f5 85be 7fca 843e 1024 11be d4ba 633c
-0.0216268 -0.06919717 0.027529618 -0.048880994 -0.09745839 -0.08285021 0.114189625 0.0002991949
0.21573332 -0.1268205 0.33449745 -0.05036792 -0.26163927 0.25935742 -0.14173913 0.013899524

encoder.convs.1.lin_r.weight f4 [16, 16]
00000000: 25e6 3e3e 4fdb e63d dab8 803e c360 76be
00000010: 26d2 6a3e 1eab 413e e773 4e3e 5525 8bbd
00000020: 8728 ed3d 1f75 403e 0bb8 4a3e 61d0 b3bd
00000030: 0445 80be 0b85 85be 089f 073d 5c44 6bbe
00000040: 71a5 c8bd 956e 23be 34ad 2a3d 21b2 35be
00000050: 1109 0d3e 0739 80be 9eb9 1cbe 2a0b 133d
00000060: 63c7 86be a032 c0bb e02e e4bd 6c81 11be
00000070: 303f 273e a0b5 b7bd 2012 723d 3b21 e5bd
00000080: 0d2b 393e c646 923e 8f7c 983e 05c8 093e
00000090: a2e5 40be b636 05be fdef b43d 3de5 11bc
000000a0: ba89 523e df57 303e 5018 bd3e bdfb 12be
000000b0: c457 4fbe 97b9 06bf 0cb3 463e ac33 e4bc
000000c0: 47e5 4b3e 5cb6 e23c f112 3f3e 6e2c c63e
000000d0: e4ec 7f3e 6c1a 723e 7ab1 84bd 4c10 94be
000000e0: cf7f 003e 4424 6b3e ddd0 aebd d0b9 63bd
000000f0: 3c42 9fbe af20 79be f8d7 f53d 63a2 92be
00000100: a6bf 713e 3daa bdba c837 02be 67a9 33bd
00000110: be47 ebbd e526 64be 8475 163d 0f9a 0ebf
00000120: ca0d d3bd 2922 85bc 62d5 fdbd 375a c53d
00000130: c523 cdbe caac 24bf 8099 5fbb cdd3 5dbe
00000140: c5fd 893e 31a8 b1bd 1634 833e dfe8 b73b
00000150: 3eec 353d dff5 5b3e b342 3ebe 5125 2fbe
00000160: 12af 20be 3063 d6bd 0ede 623d 2b94 523e
00000170: 1606 47be 5191 83be 208a 0fbe 9bde babd
00000180: 32a7 38be a10f 2ebe 7d0d 63bc ba3e da3d
00000190: d92b b33d a971 80bd f4f3 6a3e f2c8 783e
000001a0: 60f9 5e3e a6bf 2a3d e68f 683d 5c24 603e
000001b0: 9ced 3a3e 5890 893e 1260 383e 26ab 9f3b
000001c0: d681 0e3e 94e7 72bc 8cb5 3f3e 7ce4 ac3e
000001d0: bf70 ff3d ab68 c13d 4981 5d3e 2015 4cbd
000001e0: 3f79 2fbe a418 f7bd 96c8 26bd efc3 e83d
000001f0: f47c d63d 160a 3abd a064 e5bd 4480 0ebe
00000200: 8ef6 933d 38f4 893e 4afa 773e 4d32 6f3e
00000210: 7c2d 663e 06c3 243e e230 993c d30f 5ebf
00000220: 9e24 873e 65bd c8bd a5a3 97be 6d70 2d3e
00000230: 8690 b3be 0418 85bf 2c03 223e 8d28 d3be
00000240: 0b26 723e 404e 853e 1602 583e 2b1a 34be
00000250: 58fb 0abb 145c ab3e 4465 003e ade4 15bf
00000260: 2dfc d03e 1a0b 023e b90a 4ebe 54de 3d3e
00000270: fc23 8bbd e764 3ebf 0033 a53a 994f a1be
00000280: 97d9 5cbd f819 b73c 97cb 6a3d f784 4b3f
00000290: 1450 edbd 209c 473e 9390 323e 6d5c e7bb
000002a0: bae2 733d 264d 063e ce4b 05bf 2c4d 683e
000002b0: 51c3 683d 1193 713d 38bc f23d c842 db3c
000002c0: 84e7 ecbd 4209 3cbe 02f7 76be 7ac4 55be
000002d0: 7843 57bd 20bd 46be e0ca cebc ac3f 07be
000002e0: e60e 113e 441b 2f3e ce93 583e 66df 27be
000002f0: 8ea9 34be 809c b13d 98d7 69bd 4225 423e
00000300: bb88 71be 2688 693e 6dde 32be 3c97 59be
00000310: 4197 0fbd 0706 e9bd 5c61 21be ffdf 093e
00000320: 963f 3c3e a9f7 073e 00fb f93c c539 3bbd
00000330: 502d 0cbe fa5c 6d3e 806e 0bbe 7874 60be
00000340: 57d6 893e dc3e 713c 9def 433e d9a6 c63e
00000350: 55f2 7d3e 4c9c 21be 713d 153e 49a5 d2be
00000360: ed84 913c 642d 5c3e cce7 2bbe bbf9 5fbe
00000370: acc8 55bf 974b 96bf 20b9 003c 1d64 89be
00000380: b4c5 f3bd 888e 98bd f4f8 c6bd aa2c 7cbe
00000390: a84d febd fe33 6dbe 1205 56be d667 7fbe
000003a0: 1c79 13be 4076 65bd c89f 663e 7219 34be
000003b0: f4ab 42be 6666 50be 6e7f 6f3e 50f4 02bd
000003c0: 87b9 0a3d c790 6b3e e347 45bd 640d d13e
000003d0: 42b9 a83e 2101 673e e488 e5bd 5d6f eabe
000003e0: 69cc 0c3e 66f9 443e 2dbc 23be 7a07 8f3e
000003f0: 66d2 7abf 5070 9fbf f431 893d c184 63be
0.1864248 0.112722985 0.2514103 -0.24060349 0.22931728 0.18912932 0.201614 -0.0679423
0.115799956 0.18794678 0.1979677 -0.087799795 -0.25052655 -0.26078066 0.03311065 -0.22975296
-0.097971804 -0.15960152 0.041669086 -0.17743732 0.1377299 -0.25043508 -0.15305182 0.03589932
-0.26323995 -0.00586541 -0.11141753 -0.14209527 0.16332698 -0.08970189 0.059099317 -0.11187979
0.18082829 0.2856962 0.2978253 0.13455208 -0.18837598 -0.13009152 0.08834837 -0.008904752
0.20560351 0.1722102 0.3693261 -0.14353843 -0.20248324 -0.5262694 0.19404238 -0.02785667
0.19911681 0.027674846 0.1865957 0.38705772 0.2499271 0.23642892 -0.064791635 -0.28918684
0.12548755 0.22963053 -0.08535931 -0.055597126 -0.3110522 -0.24328874 0.120040834 -0.28639516
0.23608264 -0.0014470291 -0.12716591 -0.043862727 -0.11488293 -0.22280462 0.036733165 -0.55703825
-0.103053644 -0.01625164 -0.12394215 0.09636348 -0.40066352 -0.64326155 -0.0034118593 -0.21662827
0.26951423 -0.08674658 0.25625676 0.005612477 0.04441475 0.21480511 -0.18580131 -0.17104079
-0.15691784 -0.10468137 0.05538755 0.20564334 -0.19435915 -0.25696805 -0.14017534 -0.0912449
-0.1803253 -0.1699815 -0.013858196 0.106564954 0.08748598 -0.06271679 0.22944623 0.24295405
0.21774817 0.041686676 0.056777857 0.2188887 0.18254703 0.26867938 0.18005398 0.0048726974
0.13916716 -0.01482572 0.18721598 0.3376807 0.124726765 0.09443792 0.2163135 -0.049824834
-0.17136095 -0.12065247 -0.040718637 0.11365496 0.10473052 -0.045419775 -0.11200833 -0.13916117
0.07224761 0.26944137 0.24216571 0.23359032 0.22478288 0.1609002 0.018700067 -0.86742896
0.26395124 -0.09801749 -0.29617038 0.16937418 -0.350712 -1.0397954 0.15821522 -0.41241875
0.23647325 0.26036263 0.21094546 -0.17588107 -0.0021206941 0.33468688 0.1253863 -0.58552057
0.40817395 0.12699547 -0.20121278 0.18541843 -0.06793973 -0.74372715 0.00126037 -0.3150604
-0.053918447 0.02235125 0.057323065 0.79499763 -0.11587539 0.1949315 0.17437963 -0.0070605786
0.059542395 0.13115367 -0.52068794 0.22685689 0.056826893 0.058978144 0.11852306 0.026765242
-0.115675956 -0.18362907 -0.24117664 -0.20875731 -0.052554578 -0.19408083 -0.025243223 -0.13207883
0.1416584 0.17100245 0.21150133 -0.16393813 -0.17642805 0.08672428 -0.05709037 0.18959525
-0.23587315 0.22805843 -0.17467661 -0.21249098 -0.035056356 -0.11378103 -0.15759796 0.13464354
0.18383631 0.13278069 0.030515194 -0.04570939 -0.1368916 0.23179999 -0.13616371 -0.2191943
0.2692134 0.0147244595 0.19134374 0.3879917 0.24799474 -0.15782279 0.1457422 -0.41141728
0.01776358 0.2150169 -0.16787642 -0.21872608 -0.83509326 -1.1741818 0.007856637 -0.26834193
-0.11902943 -0.07449061 -0.09715453 -0.24626413 -0.124171555 -0.23164365 -0.20900372 -0.24941954
-0.14401668 -0.056020975 0.22521889 -0.17587832 -0.19010907 -0.20351562 0.23388454 -0.031971276
0.03386834 0.23004447 -0.04816426 0.4083053 0.3295384 0.22559024 -0.112077504 -0.45788088
0.13749851 0.19235763 -0.15989752 0.27935392 -0.9797729 -1.245615 0.06698981 -0.2221861

encoder.convs.2.lin_l.weight f4 [16, 16]
00000000: 6e42 b53c f830 7dbe d375 1dbf 3865 e23d
00000010: e151 0fbf 22dd b5be ae07 df3d 00c6 5abd
00000020: 9cb8 20bd 04b6 38be b074 21bd 7847 7bbe
00000030: 0016 4fba 90a3 70be e8f0 913d 72a8 efbe
00000040: 93da 05be 063d 8bbc 7a3f 463e 29fe 9fbc
00000050: 5421 a43c def2 c73c 14c5 ebbd 56fa b03c
00000060: d0ca 043d 32c2 ac3d fc57 193e 987a 983d
00000070: 86c3 0e3e a6dd 82bc d02d ddbd 01fd 7f3e
00000080: 57f5 913e e877 ec3d e190 8a3e fa93 653e
00000090: 009d 9f3e 8e03 9c3e 9bf5 44be 780b 45be
000000a0: 0389 a3bd 8917 913e 114d 923e 3099 853c
000000b0: c847 3dbe 667c 0abd 4465 f33d aedd a53e
000000c0: f75c f43d 1740 16be 7a9e b43e 6e32 8c3e
000000d0: 911e 50bc a2b2 8ebd 2081 b63e 6e3e b8bd
000000e0: d763 a63e b7b2 d53c d0ed 0d3e 8ec3 08be
000000f0: 7815 7dbe 96e5 233e 0c6b b6bd c755 61bd
00000100: 8794 a23e 2be1 fb3c 50df 663d 9a1c ebbd
00000110: 97b4 e6bc 6684 ad3c edad 493e f9e1 0dbe
00000120: 6d05 763e 7650 b23e ce97 303e fc2c 7ebe
00000130: 4898 053d aa24 973b 60f5 a13d 311c dc3d
00000140: fdcf 383e 640b 25bd 41a6 0e3e 4ac4 353e
00000150: 11da c0bd 143c 073e eb64 403e cc6d 5e3e
00000160: 1e86 c73d a1e5 5f3d a696 373e 4c1e 61be
00000170: 9035 9abd e998 933e 28c7 033d 4d5f bf3d
00000180: f730 ebbd 1bf7 26be 8c0b 583e f883 3ebf
00000190: 7a06 10bf 8618 42bf 9713 e43d 4243 8d3d
000001a0: 6ae9 a4be 105b dabe d0a7 cbbd 300b f8bd
000001b0: 4296 3c3e 1ee3 97be 7c81 69be 46cf 16bf
000001c0: 64f2 0abe 98eb cfbd eee1 5fbe c07d 7ebd
000001d0: c063 4b3e 4245 68be a21b 2dbe d815 60bd
000001e0: 309a 4abe d0ad 3f3d e87c 4bbd 74a8 413e
000001f0: 0a6c 7ebe 2020 093c 70c6 e13d 18ee 043d
00000200: 6e0f 11bd 6867 803e 6b41 07be 65ab 6f3e
00000210: b3a4 f83d 958d 0e3e c458 7d3e a534 843d
00000220: 369d 7c3d 684d 85bc f041 30be 50ae d73d
00000230: f476 3f3e 3dbf 073e 58c7 1fbd 0d8b 4dbe
00000240: e5e6 063d 4d4f a63d da61 07be d21a 743e
00000250: 8ceb 5e3d 87da de3d 5383 843e 690b 123e
00000260: fe12 b5bd e84f 0c3e 6f51 523e 2072 ff3d
00000270: 748d f0bd 1699 963d 00f1 37be a80a 963c
00000280: 4339 e4bd 631d 253e cef1 2e3e ffcf 41bf
00000290: 6ee3 3abf b2f6 32bf 6283 6ebd ee5d a53e
000002a0: 3741 8fbe 2e41 3abf c2d7 b0be 006e 59ba
000002b0: 1e7d 3dbe 02f4 c0be 6a90 7e3e 6fc8 d7be
000002c0: a223 263d e68d 353e bf85 4cbf a527 193f
000002d0: 0a46 42bf 28ae cbbd f82f 4ebe 22a4 d1ba
000002e0: abbf dabd 131c 06bf 20d2 6f3e 18da f7bd
000002f0: 703f 18be 7526 bdbe 9c81 babd 717b 0fbf
00000300: 9a2c 973e 602e 8d3d 3c01 03be 5acc 34be
00000310: 9ce5 a5bc cd28 433e ef36 523e d459 da3b
00000320: 1b82 553e fc12 ecbc 7b15 2d3d d0be 1ebd
00000330: 203d 79be 6bf3 803d 5882 873d 1bf7 873e
00000340: f0d7 79be 0980 9abd b8fc a73c 142c 21be
00000350: 882e 3d3d ae7b 8cbe b36c 083e 36dc 89be
00000360: 8e35 72bd f56a 2c3d eb15 3c3c 7cb3 f6bd
00000370: b28d 7cbe 0de3 703e 00f1 b7bb 46ac 5b3d
00000380: 0e19 263c 3431 33be 776d dbbe ab6a d6bd
00000390: 7769 edbe c3cb ccbe b451 5d3e b1e2 85bd
000003a0: b576 78be 0d19 d3be a438 28bf 1055 d03c
000003b0: b633 4bbe 7c44 0fbf 4844 bc3d 4ded d7be
000003c0: b689 4f3e 223b 21bb cc44 cbbb bc43 6aba
000003d0: 1149 afbc 90c5 363e bb13 703e a4d8 583d
000003e0: 196b b1bd c22e 803e 98de 923e b484 2e3e
000003f0: c044 94bb 81e4 073e 4056 503c 39b9 a7bc
0.022126403 -0.24725711 -0.6150791 0.11054462 -0.5598431 -0.35520273 0.10890137 -0.053411484
-0.039238557 -0.18038183 -0.039417922 -0.24538982 -0.00078997016 -0.23499894 0.07126027 -0.468082
-0.1307166 -0.016996872 0.19360152 -0.019530373 0.020035423 0.0244078 -0.11512199 0.021603744
0.03241998 0.08435477 0.1497497 0.07445258 0.13941774 -0.01597483 -0.10799754 0.24998857
0.28507492 0.11546308 0.2706366 0.2241973 0.3117447 0.30471462 -0.19234316 -0.19242656
-0.07985117 0.28338268 0.28574422 0.016308397 -0.18484414 -0.03381004 0.11884549 0.3239569
0.11931794 -0.14672886 0.35277158 0.27382225 -0.0127026 -0.06967665 0.3564539 -0.089962825
0.32498047 0.026086194 0.1386025 -0.13355848 -0.24715221 0.16005549 -0.08907136 -0.055013444
0.31753942 0.030747017 0.05636531 -0.11480065 -0.028162284 0.021181297 0.19695254 -0.13855733
0.24025507 0.34827012 0.17245409 -0.24821848 0.03261593 0.004612525 0.0790813 0.107475646
0.18048091 -0.040294066 0.13930608 0.1775066 -0.09416593 0.13206512 0.18788497 0.21721572
0.09742378 0.05466235 0.17928562 -0.21984214 -0.075297475 0.288276 0.032172352 0.09344349
-0.11483949 -0.16305201 0.21098155 -0.7442012 -0.5625988 -0.7581867 0.11136549 0.06897594
-0.3220933 -0.426476 -0.09944117 -0.12111509 0.18416694 -0.29665464 -0.228033 -0.58910024
-0.13569027 -0.10152358 -0.21863529 -0.062131643 0.1986227 -0.2268267 -0.16905072 -0.05470833
-0.1978538 0.04679662 -0.049679667 0.18911916 -0.24845901 0.008369476 0.11024177 0.032453626
-0.035415106 0.25078893 -0.13208549 0.23405226 0.12140789 0.13921197 0.24740893 0.06455354
0.061673366 -0.016272262 -0.17212653 0.10531294 0.18697721 0.13256545 -0.03900847 -0.20072575
0.032935042 0.08120594 -0.13220921 0.23838356 0.054423854 0.108815245 0.25881442 0.14262165
-0.08841513 0.13702357 0.20538877 0.124729395 -0.1174573 0.073534176 -0.17963028 0.018315628
-0.11143734 0.16124491 0.17084429 -0.75708 -0.7300328 -0.6990768 -0.058230765 0.32298225
-0.27979442 -0.72755706 -0.3453961 -0.00082942843 -0.1850476 -0.37686163 0.24859777 -0.42145106
0.040561326 0.17729911 -0.7989158 0.5982612 -0.7588812 -0.09945327 -0.20135486 -0.001599435
-0.10681089 -0.5238659 0.2342 -0.12102145 -0.1486795 -0.36943403 -0.09106752 -0.5604773
0.29526216 0.06893611 -0.1279344 -0.17656079 -0.020251088 0.19058533 0.20528768 0.0066635404
0.20850413 -0.028817646 0.042256813 -0.03875619 -0.24339724 0.06296428 0.06616658 0.26555714
-0.2439878 -0.07543952 0.020506248 -0.1573947 0.046186954 -0.2743811 0.13322715 -0.2692582
-0.059133105 0.04209419 0.011479835 -0.12045953 -0.24663427 0.23524113 -0.0056134462 0.05363109
0.010137809 -0.17499238 -0.42856953 -0.10469564 -0.46369526 -0.39999208 0.21613199 -0.065373786
-0.24264033 -0.4123005 -0.65711427 0.025431186 -0.19843945 -0.55963874 0.09192711 -0.42173234
0.20267376 -0.0024601896 -0.0062032696 -0.0008936485 -0.021397145 0.17848802 0.23445027 0.05294098
-0.086630054 0.25035673 0.2868545 0.1704281 -0.004524797 0.13270761 0.012715876 -0.020474063

encoder.convs.2.lin_l.bias f4 [16]
00000000: 617b 1fbe 17fb b73c 6d1b 703d 0094 f33e
00000010: bbaf 313e a87a 0e3e 8b7d 243e d0f6 45bd
00000020: f3c9 3b3e db7b 433a 416c ed3c 3c54 09be
00000030: 5a86 39be ea7d cebd 37db 8a3d 9ae2 8d3e
-0.15574409 0.022458596 0.058619905 0.47573853 0.17352192 0.13913977 0.16063516 -0.048331082
0.18338756 0.00074571156 0.028982284 -0.13411039 -0.18117657 -0.1008261 0.06780093 0.27711946

encoder.convs.2.lin_r.weight f4 [16, 16]
00000000: ff22 f73d a636 c73c 9b4f 203c 0357 51bd
00000010: 75c3 983c fe1f 293e 7a81 073e cafe 16bd
00000020: 2eaf 083e 7684 553d 33c2 973d 4e85 353e
00000030: fd58 d5bd d6ab a33e 0a06 0cbe 1f91 a33e
00000040: a669 433e 9caf db3d f00d a03e ea5a c2bf
00000050: 4e80 9fbe ff90 6dbf 5ccc 673e 22c8 913e
00000060: 5d4c 57be 2cc1 38bf 7942 833f 8066 19bc
00000070: fa49 5dbe a9a1 9cbf fcc3 b13d cfdf e7bf
00000080: 283e b5bd d0ad 0abe 0ce3 a43d a23a 26be
00000090: 4c96 fdbd bbab f23d 8a64 943e dfbd 663e
000000a0: 85f1 a83d 07a1 bebc fc50 1f3e 4a57 623e
000000b0: c4db e53d 30e2 0c3d 00ec 763d 720a 68bc
000000c0: 76c3 f53c 007c 9d3d e4b0 08bf af5e 0cc0
000000d0: 45b0 e4be 9780 d5be dc08 1e3e 4ad0 41bd
000000e0: e448 84bf 572f 4bbf 19c2 823f e043 90bc
000000f0: a0ac 2bbd 2030 85bf 684d 58bd 026a f1bf
00000100: c5c7 e0bd 78cb b1bd f253 f1be f428 e1bf
00000110: 0588 aabe 4ead eabe 5886 b93e 61c0 863d
00000120: e299 30bf 1ba8 3dbf bbc6 6e3f d012 00be
00000130: b07b 8cbd eab0 8ebf f069 0f3d 5769 bfbf
00000140: d55e 63be 88a0 1abd 5f3c 81be 745b 863e
00000150: 28c9 7c3d e5bd f6bd f3b0 603e a289 e1bd
00000160: 7dce 643e 402e 05be 8ced b33d dae4 313e
00000170: 5054 ee3d c655 1f3d 7029 ecbc d32b bcbc
00000180: 4238 693e 6f58 90bd bb60 28bd 0d2a bd3b
00000190: 433e 73bd f952 c9bd 28a2 083d aba3 223e
000001a0: c5b0 5c3d e887 0bbe 4ef0 2e3e 688f bcbd
000001b0: f70e 843d 281c 443c ead4 363e e811 44bd
000001c0: 5c09 d0bd 50fd 4bbd 00e8 143b d49e f1bd
000001d0: acf3 2f3e 6240 09be 10fe 213d c68c 44be
000001e0: 804c febc 10a4 5cbd acd4 ccbd 90d3 053e
000001f0: c895 64be e0ce d63c c095 bfbc 5423 05be
00000200: cd46 873e be12 0d3e 2fce 293e 9987 03bd
00000210: 4df2 563e 2034 e8bc d497 31be a87c 8d3e
00000220: 918c 8fbc 6ed4 013e 5747 793d a884 573e
00000230: 509c 7e3e 7c56 cfbd 80bd 2ebb 3a52 0bbe
00000240: f770 6c3e b715 663e 9bd9 52bc d39a c43d
00000250: 6e17 02bd 05a5 7b3c 015a 673e bd2e 34be
00000260: 9ec2 9b3c 8ae8 b63d 8192 2abe c887 d23d
00000270: b6ac 2a3e c4af 16be 241a c63d 811a 9e3d
00000280: ad8f b13e fced 48be 9d12 a43e 1cfd 54bc
00000290: c921 aa3e 9494 b7bc f5f7 1b3e 1d41 073e
000002a0: 7c7a 843e 848f 713e ed60 7c3e 908e 57bd
000002b0: 7482 4abe 90a4 df3d 2481 693e 9b8d a63e
000002c0: 23e8 04be 0235 253e 5cac 023e bf00 c2bc
000002d0: 0244 0a3e 2108 7f3b cf0c 813b ffa9 0bbe
000002e0: 07eb 61bc c753 853e 31f7 2f3e 40e4 4ebe
000002f0: 015f 68bc 8c6a 293e dc1a dbbd 7a28 01bc
00000300: a86a e93d c202 6c3e ae90 653e 9854 4bbe
00000310: b551 95be 7078 2a3e 963a bd3c 021c 853e
00000320: 74b4 383e 28dd dabd f07c 983d 7041 ac3d
00000330: b94e b7bd b782 3a3e c00c a83c ff69 cdbd
00000340: 5b3e 21be e8e1 4c3e ad7a 4bbe ef08 af3e
00000350: b476 e4bd 0e77 903b bed4 3b3d 8e0a a43e
00000360: 25b1 80bd 2ecb d2bd 02f3 793e d0ab f8bd
00000370: f06a bcbd a4b0 683e 403b d4bd eb1c 7b3e
00000380: 59e4 69bc 0713 303e abcb b73e 4d25 823d
00000390: 49b0 363d 4752 6a3e 7f30 ab3d baae bf3c
000003a0: 29bb 933e 23ea a03d f6fd 213e 187c 98bd
000003b0: d1c3 39bd 0d86 8d3d e0cc 893c 2c15 413e
000003c0: bae0 693e e3b7 2f3e 046e 2fbd b5c6 5f3e
000003d0: 028e 283e 8902 083e 151d ad3d 38d0 b2bd
000003e0: 1f27 c1bd 999e 2f3d 8395 dabd dc9c b33d
000003f0: dc6a 68be f5ef 3ebe 20f8 e5bd f651 3c3e
0.12067222 0.02431805 0.009784604 -0.05110837 0.018647889 0.1651611 0.13232985 -0.03686408
0.13348076 0.052128278 0.074100874 0.17726633 -0.10417364 0.31967038 -0.13674179 0.31946656
0.1908327 0.10726854 0.31260633 -1.5183995 -0.31152576 -0.9279937 0.2263655 0.28473002
-0.21025224 -0.72169757 1.0254661 -0.009362817 -0.21610251 -1.2236835 0.08679959 -1.8115176
-0.08849746 -0.13542867 0.08051118 -0.16233304 -0.123821825 0.11849161 0.28982955 0.22533368
0.08249191 -0.023270143 0.15558237 0.2210361 0.112235576 0.034395397 0.06028366 -0.014162647
0.03000043 0.07689667 -0.53394914 -2.193279 -0.44665733 -0.4169967 0.15433067 -0.04731778
-1.0334744 -0.7936911 1.0215484 -0.01761049 -0.041912675 -1.0405312 -0.052808195 -1.8860476
-0.10975603 -0.08681387 -0.47134358 -1.7590623 -0.333069 -0.45835346 0.3623531 0.06579662
-0.68984807 -0.74084634 0.9327199 -0.12507176 -0.06859529 -1.114774 0.03501314 -1.4954022
-0.22204144 -0.03775075 -0.25241372 0.26241648 0.061715275 -0.12047938 0.21942501 -0.110125795
0.22344394 -0.13005924 0.08785543 0.17372456 0.11637175 0.03890016 -0.028828353 -0.022970116
0.22775367 -0.07048117 -0.041107874 0.005772835 -0.05938555 -0.09830279 0.03335777 0.15882747
0.053879518 -0.13626063 0.17083856 -0.0920704 0.06448167 0.011969604 0.17854658 -0.04786864
-0.10158035 -0.049802125 0.002272129 -0.11797872 0.17182797 -0.13403466 0.039548934 -0.19194326
-0.031042337 -0.0538674 -0.100015014 0.13068986 -0.22322762 0.026221693 -0.023386836 -0.13001758
0.26421204 0.13776681 0.16582559 -0.032111738 0.20990868 -0.028345168 -0.17343074 0.27634168
-0.017523082 0.12678692 0.06085905 0.21046698 0.24864316 -0.101239175 -0.0026663244 -0.13605586
0.23089968 0.22469221 -0.012869264 0.09599843 -0.031760626 0.015359168 0.22592928 -0.17595954
0.0190137 0.08931072 -0.1665745 0.102798045 0.16667446 -0.14715487 0.09672955 0.07719899
0.34679928 -0.19622034 0.3204545 -0.012999799 0.332289 -0.022409715 0.15231307 0.13208432
0.25874698 0.23589903 0.24646349 -0.052626193 -0.19776326 0.1092006 0.2280317 0.3252991
-0.12979178 0.16133502 0.12761062 -0.023681996 0.13502505 0.0038914757 0.0039382945 -0.13639067
-0.013788945 0.2604048 0.1718414 -0.20204258 -0.014182807 0.1654455 -0.106984824 -0.0078831855
0.11397296 0.23047927 0.22418472 -0.19856489 -0.291639 0.16647506 0.023099225 0.2599793
0.18037587 -0.106867135 0.07445705 0.08410919 -0.08950562 0.18213926 0.020513892 -0.10029983
-0.15746443 0.20008051 -0.19871016 0.34186503 -0.11155453 0.0044087237 0.045857184 0.32039303
-0.06283788 -0.1029266 0.24409106 -0.12142146 -0.09200084 0.22723633 -0.103628635 0.2452275
-0.014275634 0.17194758 0.35897574 0.06354771 0.044601712 0.22882949 0.08358859 0.023398746
0.2885373 0.07857158 0.15819535 -0.07445544 -0.04535276 0.06910334 0.016821325 0.18855733
0.22839633 0.17159991 -0.04282953 0.21853144 0.16460422 0.13282217 0.084528126 -0.08731121
-0.0943129 0.04287586 -0.10673048 0.08770153 -0.22697014 -0.18646224 -0.11228967 0.1839064

encoder.convs.3.lin_l.weight f4 [4, 16]
00000000: 6f7f 1740 6afc 6ebe ff7d 23be cc59 a83d
00000010: f049 6bbd c585 30be e534 133f 7416 55be
00000020: 500f 963d 7e63 e93d 6a53 df3f ae89 1240
00000030: 56e5 823e 69f5 aa3e bf3b c83f d1c3 9a3e
00000040: 3ae6 54bd 6c78 06be dfe4 9ebd 3464 473e
00000050: a9a1 20be 528d 4a3e 8744 7c3e 22b5 703e
00000060: 654f 303e db5e 2e3e 27b0 43be 9f2c 44be
00000070: 850d 19be 61ba f53e 0e70 943d 59ef f43d
00000080: a1a3 903f 7ed9 9abc 1a8f ac3d 1fda 06be
00000090: 81bd 143e 5105 4ebe ce16 8b3e cce1 ad3d
000000a0: c46c 8e3e 2477 92bd 3f70 8e3f 4c23 863f
000000b0: 30fb f9bd b280 963e 38d0 723f aefc d9bd
000000c0: cfc1 653f 604f 1dbe 6c0f 02be 5757 a8bd
000000d0: 2729 63be a32d 873e 55ad ae3d f85a e6bd
000000e0: 25e6 90bb 5aee 6d3e 343b 183f fc5d 583f
000000f0: 4a2a 763c 713c d13e f2cb f03e 1a97 7d3e
2.367153 -0.23338476 -0.15966032 0.082202524 -0.05744356 -0.17238529 0.57502586 -0.20809346
0.073271394 0.1139593 1.7447331 2.2896533 0.25565594 0.33390358 1.5643233 0.3022752
-0.051977374 -0.13131875 -0.077584974 0.19471818 -0.15686668 0.19780472 0.24635516 0.23506597
0.17217787 0.17028372 -0.19110166 -0.19157647 -0.14946564 0.47993758 0.07247935 0.119597144
1.1299936 -0.018902536 0.08425732 -0.13169144 0.14525415 -0.20119216 0.27165836 0.08490333
0.27817357 -0.071516305 1.1128005 1.0479522 -0.12206113 0.29395062 0.94848967 -0.10643898
0.89748853 -0.1536231 -0.12701195 -0.08219784 -0.22183667 0.26402006 0.08529154 -0.1124782
-0.0044219666 0.23235455 0.59465337 0.8451841 0.015024731 0.40866426 0.47030598 0.24764672

encoder.convs.3.lin_l.bias f4 [4]
00000000: 18c5 b23d dd68 7c3e 370b 1a3e d039 843d
0.08728999 0.24649377 0.1504334 0.06456339

encoder.convs.3.lin_r.weight f4 [4, 16]
00000000: d42d 4cbe 5aa5 1640 7fb3 883b eaf5 0440
00000010: b3fc eb3f b1d5 7f3e 43aa 1ebe c604 56be
00000020: 2eaf d43d e1c2 6b3e 6262 c3bd 3d82 043e
00000030: 5c56 813e f913 21bd e3d0 74bd 81ca 653e
00000040: f192 813e 35ec 403e 9a01 033e 7fd5 b93e
00000050: d792 863d 46af 88bc 63a1 6dbe 8c9e f53d
00000060: d0cb 19be 568c 4abe 01c8 b2bd 68ef 8dbd
00000070: 38ce 1cbe cc76 993c afdd bcbc cff2 f93d
00000080: 8bf1 0e3d 579d 9e3f 29c7 103e 2779 913f
00000090: 406f a93f 53d0 123e 9841 073e 5c56 64be
000000a0: 2ce2 fc3d 61ff a63d 5506 9cbe 1f09 873e
000000b0: 78a3 3fbb a40a 6ebe c5e1 2d3e 8943 473e
000000c0: 615a 783e 5250 bc3e 5000 b83e 7814 213f
000000d0: 4ca2 0b3f 9e91 11be 3586 1ebe bc87 783e
000000e0: 5065 0a3e 28cb 813e 4f74 9dbd ac48 c1bd
000000f0: 1fa7 bc3d 43fc 98be e7f7 4bbe 8e3d 1e3e
-0.19939357 2.3538423 0.004171788 2.0775094 1.8436493 0.2498386 -0.15494637 -0.20900258
0.103849754 0.23023559 -0.095402494 0.12940307 0.252612 -0.039325688 -0.059769522 0.2244053
0.2530742 0.18840106 0.1279358 0.36295697 0.06570976 -0.01668514 -0.23206095 0.11993131
-0.15019155 -0.19780096 -0.08729554 -0.06930429 -0.15313041 0.018733405 -0.023054926 0.12204515
0.034898322 1.2391766 0.14138474 1.1365098 1.3237076 0.14337282 0.13208616 -0.22298568
0.12347826 0.081541784 -0.3047358 0.26374146 -0.0029241722 -0.23246247 0.16980655 0.19459356
0.24253227 0.3678003 0.35937738 0.6292186 0.5454452 -0.14215705 -0.15480883 0.24270529
0.1351521 0.25350308 -0.076882 -0.09437689 0.09211563 -0.2987996 -0.19918786 0.15453169
