ARES-4573/checkpoints/model_GAE_CTU-13-Scenario-10.pt (torch, 21302 bytes, 18 tensors)

encoder.convs.0.lin_l.weight f4 [16, 32]
0	0xbc806a05	-0.015675554
1	0x3a6703b1	0.0008812501
2	0xbc6aa024	-0.014320407
3	0x3e2b771a	0.16744652
4	0xbd452c7c	-0.048138127
5	0x3e14a457	0.14515816
6	0x3dcf1745	0.1011186
7	0x3e474d26	0.19463024
8	0x3e1d4feb	0.15362518
9	0x3e300157	0.17188011
10	0xbdef638a	-0.116889074
11	0xbd845dcd	-0.064632036
12	0xbdc6adae	-0.097010955
13	0x3dedf4cb	0.11618956
14	0x3d83d757	0.06437557
15	0x3dc42ff5	0.095794596
16	0x3dc21315	0.09476296
17	0x3d130749	0.03589562
18	0x3dc45989	0.0958739
19	0xbd8a2065	-0.0674446
20	0x3e12b3d4	0.14326411
21	0xbdfd7f05	-0.12377743
22	0xbe093c53	-0.13401918
23	0x3db524d6	0.088449165
24	0x3e470a32	0.19437483
25	0xbd1483a6	-0.036258362
26	0x3e479c80	0.19493294
27	0xbd0ca517	-0.03433713
28	0xbdd8ed28	-0.10592109
29	0x3a7366b1	0.00092850166
30	0x3e013505	0.12617882
31	0xbd8240fe	-0.063600525
32	0x3e134c27	0.14384519
33	0xbdced2d1	-0.10098804
34	0xbdcd2b7b	-0.10018059
35	0xbdc3b333	-0.09555664
36	0xbe2054e9	-0.1565739
37	0x3e12667e	0.1429691
38	0xbdf97653	-0.12180772
39	0xbdcfce07	-0.101467185
40	0xbd9a9dcd	-0.07549629
41	0x3e01ec08	0.12687695
42	0x3d77f423	0.06053556
43	0x3d30c24c	0.043154046
44	0xbd8c1f1d	-0.06841872
45	0x3d8a0bed	0.06740556
46	0x3c260c4f	0.010134771
47	0x3df38882	0.11891271
48	0x3c8dcd87	0.017309917
49	0x3ddccdde	0.107814535
50	0x3dcceeba	0.10006471
51	0x3c12c79f	0.008958726
52	0xbe43ecbb	-0.19133274
53	0x3c65f55a	0.014035547
54	0xbe1f09fe	-0.15531155
55	0x3c0a432b	0.008438866
56	0xbd2aecd5	-0.041729767
57	0x3df3248c	0.11872205
58	0xbe1864dd	-0.14882226
59	0xbe2dcb28	-0.16972029
60	0x3d68e357	0.056857433
61	0x3dc21f30	0.09478605
62	0xbd776ddb	-0.0604075
63	0x3cd44824	0.025913306
64	0x3e114741	0.14187337
65	0x3c900d63	0.017584508
66	0xbd4a611e	-0.049409024
67	0x3dd15520	0.102213144
68	0x3e23253c	0.15932173
69	0xbcf5d037	-0.030006511
70	0x3df5a515	0.119943775
71	0x3c71a690	0.014749184
72	0xbd179cc8	-0.037014753
73	0xbc7cc642	-0.015428128
74	0xbe2fbab5	-0.17161067
75	0x3dadadd9	0.084804244
76	0xbdc50e55	-0.09621874
77	0xbe1a2ac4	-0.15055376
78	0xbcc8c67c	-0.024508707
79	0xbd9381b3	-0.072024725
80	0xbde66f66	-0.11251716
81	0xbd18702f	-0.03721636
82	0xbc98d684	-0.018656977
83	0x3d5c11f5	0.053728063
84	0x3cc67b8b	0.024228832
85	0xbcc17ce0	-0.023619115
86	0x3d1f6426	0.03891387
87	0xbdea4074	-0.11438075
88	0x3e192ba2	0.14958051
89	0x3db14732	0.086561576
90	0x3de508fc	0.11183354
91	0xbe217579	-0.15767469
92	0x3df71eb6	0.120664045
93	0x3cfffae6	0.031247567
94	0xbe2eee55	-0.17083104
95	0x3e2be229	0.16785492
96	0x3ddeab22	0.10872485
97	0x3e15d6a9	0.14632668
98	0x3e8470af	0.2586722
99	0x3e67dbb6	0.22642407
100	0x3e8a15e5	0.2696983
101	0xbd5756ae	-0.0525729
102	0x3e930adc	0.28719223
103	0x3e1f371c	0.15548366
104	0x3deaf248	0.11471993
105	0xbcd8dd2c	-0.02647265
106	0x3c8e39c3	0.017361527
107	0x3e916e17	0.28404304
108	0x3e79b69d	0.24386068
109	0x3e801d62	0.25022417
110	0x3dc7d1cc	0.097568125
111	0x3c64a27b	0.013954754
112	0x3e1d6397	0.15370022
113	0x3ce6ed47	0.028189315
114	0xbb2d8138	-0.0026474725
115	0x3e2d95ce	0.16951677
116	0x3e808da3	0.2510806
117	0xbcbdf6ca	-0.023188967
118	0xbd3389c2	-0.043832548
119	0x3e0b945f	0.13630818
120	0x3d4d5f03	0.05013944
121	0x3c9298b0	0.017895073
122	0x3d9c248d	0.07624159
123	0x3dd14edf	0.102201216
124	0x3d81d686	0.06339745
125	0x3e792cbf	0.24333476
126	0x3e576e92	0.21038273
127	0x3e2c0eb4	0.16802484
128	0xbda22deb	-0.079189144
129	0xbd1cb56b	-0.03825895
130	0x3dbca219	0.09210605
131	0xbc008736	-0.007844737
132	0xbe45ad1e	-0.1930432
133	0xbbbaf32f	-0.0057052593
134	0x3d8f7dbe	0.07006405
135	0xbd8af2c3	-0.067845844
136	0xbd635723	-0.055503022
137	0xbd3e6654	-0.046484306
138	0x3db06713	0.0861341
139	0x3dfcdccc	0.12346801
140	0xbe251964	-0.16122967
141	0x3dc07259	0.0939681
142	0x3d4c5675	0.04988714
143	0x3d214df0	0.039380968
144	0xbdfbbdc5	-0.12292055
145	0xbdfcc5b2	-0.12342395
146	0x3e1cb46c	0.153032
147	0x3cba406b	0.022735795
148	0xbd7d5075	-0.061844308
149	0xbd6ed30c	-0.05830674
150	0x3dc44e33	0.09585228
151	0xbd884539	-0.06653828
152	0x3dc684bd	0.096932866
153	0xbd94bb1e	-0.07262252
154	0x3c9df835	0.019283393
155	0x3cc5288e	0.02406719
156	0xbde7882d	-0.1130527
157	0xbc948a51	-0.01813236
158	0x3c51d2ad	0.012806577
159	0xbe481442	-0.19538978
160	0x3d7e0d61	0.062024478
161	0x3de8cb8e	0.1136695
162	0x3e7841c3	0.24243836
163	0x3e0b3fa0	0.1359849
164	0xbd5ac8b3	-0.053414058
165	0x3d386dde	0.045026653
166	0x3e8b3156	0.27186078
167	0x3d9736c2	0.07383491
168	0x3e6bb9f9	0.23020162
169	0x3defdd3d	0.1171212
170	0x3e59f175	0.21283515
171	0x3caafb60	0.020871818
172	0x3e8a7f68	0.27050328
173	0x3e095de5	0.13414724
174	0x3d78696f	0.060647424
175	0x3e6e5999	0.23276366
176	0x3e3c6e2d	0.18401404
177	0xbcb41a25	-0.021985123
178	0x3dac4b7d	0.08412836
179	0x3e64e793	0.22353964
180	0x3e10431d	0.14088102
181	0x3d27a7fd	0.04093169
182	0xbc958dba	-0.018256057
183	0xbcdcc77b	-0.026950588
184	0x3e47c9ca	0.1951057
185	0x3e3512f9	0.17683019
186	0xbd74f960	-0.059808135
187	0x3d77fadb	0.06054197
188	0x3e10fa48	0.14157975
189	0xbd73fc81	-0.05956698
190	0x3e7f2a50	0.24918485
191	0x3d9fb71d	0.07798598
192	0x3ca92ce6	0.020651292
193	0x3de5ace5	0.11214618
194	0x3e201428	0.15632689
195	0x3e06e828	0.13174498
196	0x3e852c9d	0.260106
197	0x3e449605	0.19197853
198	0x3d9a4c44	0.07534078
199	0x3dfafe39	0.122555204
200	0x3e0a8bc0	0.13529873
201	0x3cb7153b	0.02234899
202	0xbd71b963	-0.05901469
203	0x3d96da2a	0.0736583
204	0x3ccdd967	0.02512808
205	0xbd98a131	-0.0745262
206	0x3e1f3d13	0.15550642
207	0x3c95d67a	0.018290747
208	0x3e85fef3	0.26171073
209	0x3e1f6bf9	0.15568532
210	0x3e2bc576	0.16774544
211	0x3e13713a	0.14398661
212	0x3e254786	0.16140565
213	0x3e5295ec	0.20565003
214	0x3e63a9c5	0.2223273
215	0x3da99481	0.08280278
216	0x3d2d75dd	0.04234873
217	0x3e0fb9de	0.14035746
218	0x3c501393	0.012699979
219	0x3daaf7a8	0.08348018
220	0x3e13892a	0.14407793
221	0x3e2f9121	0.17145206
222	0xbda0d399	-0.07852859
223	0x3e24c684	0.16091353
224	0xbe8b8aea	-0.2725442
225	0xbea84015	-0.3286139
226	0xbe8f0b70	-0.27938414
227	0xbe54e761	-0.20791389
228	0xbdefb3e9	-0.11704237
229	0xbeb91c05	-0.3615419
230	0xbe1fd40e	-0.15608236
231	0xbd379c2e	-0.04482668
232	0xbe9ba26a	-0.3039735
233	0xbe25be12	-0.16185787
234	0xbe8ce2b6	-0.27516717
235	0xbe247e85	-0.16063888
236	0xbe029d23	-0.12755255
237	0xbea04104	-0.31299603
238	0xbe25ae7c	-0.16179842
239	0xbcf0a324	-0.029374667
240	0xbe444c23	-0.19169669
241	0xbea8bece	-0.32958072
242	0xbe4ebbee	-0.20188877
243	0xbe291421	-0.16511585
244	0xbe19426b	-0.14966743
245	0xbe5e0c48	-0.21684372
246	0xbe77cafb	-0.24198525
247	0xbe958063	-0.29199514
248	0xbdb80c1f	-0.08986687
249	0xbe9ba0bd	-0.3039607
250	0xbe874e72	-0.26427037
251	0xbdb1c8a0	-0.08680844
252	0xbe93087f	-0.2871742
253	0xbe68a015	-0.22717316
254	0xbe8c95d2	-0.27458054
255	0xbeb8b98c	-0.3607906

encoder.convs.0.lin_l.bias f4 [16]
0	0x3dda2804	0.106521636
1	0xbc0d00a0	-0.008606106
2	0xbe0d2d2c	-0.13786763
3	0x3e6b76f0	0.2299459
4	0x35320b7a	6.632687e-07
5	0x3eabaca7	0.3353016
6	0x3e9d8851	0.30768064
7	0x3e0b497f	0.13602255
8	0xbc5b6f7e	-0.013393281
9	0xbc36ce21	-0.011157543
10	0x3ef80f0c	0.4844898
11	0x3e185037	0.1487435
12	0xbde73f71	-0.11291397
13	0x3e4aa2b3	0.19788627
14	0xbe25e9c7	-0.1620246
15	0xbd8d98ca	-0.06913908

encoder.convs.0.lin_r.weight f4 [16, 32]
0	0xbee21f0e	-0.44164318
1	0xbe898143	-0.2685643
2	0xbf01f902	-0.5077058
3	0xbf164b6c	-0.58708835
4	0xbea1ebd7	-0.31625244
5	0xbe857e0a	-0.26072723
6	0xbf0d1011	-0.5510264
7	0xbed46f21	-0.41491035
8	0xbeb6c12a	-0.35694247
9	0xbe992e16	-0.29917973
10	0xbee3c72d	-0.44487897
11	0xbeaa4e86	-0.33263034
12	0xbe8dfcfa	-0.27732068
13	0xbe9e908c	-0.30969656
14	0xbea76e81	-0.32701495
15	0xbe9c7cbf	-0.30563924
16	0xbf125174	-0.5715554
17	0xbec04924	-0.37555802
18	0xbe8dbb59	-0.27681997
19	0xbf0d9f0d	-0.5532082
20	0xbf116f22	-0.568102
21	0xbf0f22ef	-0.5591268
22	0xbeb7bd8f	-0.3588681
23	0xbe7f1002	-0.2490845
24	0xbedbbd56	-0.4291789
25	0xbef78294	-0.4834181
26	0xbece2c7c	-0.40268314
27	0xbf0f1446	-0.5589031
28	0xbec3dcb7	-0.3825433
29	0xbf078490	-0.5293665
30	0xbf083996	-0.5321287
31	0xbf0ac6e4	-0.54209733
32	0xbd65d799	-0.056113813
33	0x3ddf84ba	0.109139875
34	0x3cf470a6	0.029838871
35	0x3def87db	0.11695834
36	0xbe34da44	-0.17661387
37	0xbe19a1e5	-0.15003164
38	0x3dd16706	0.10224728
39	0x3e08611a	0.13318291
40	0x3e1383f5	0.14405806
41	0xbe2e5440	-0.17024326
42	0x3d95bdd4	0.073115975
43	0xbe38b5c6	-0.18038091
44	0xbd6efd67	-0.058347132
45	0xbb22e1ce	-0.0024853828
46	0x3d9ce01b	0.07659932
47	0xbd760a78	-0.060068578
48	0xbe22bbb2	-0.15891913
49	0xbe361d9b	-0.17784731
50	0xbd9d9c0b	-0.076957785
51	0x3e03bda0	0.12865305
52	0x3d90a8af	0.07063424
53	0x3da6a703	0.08137324
54	0xbe189cf6	-0.14903626
55	0xbe28dd31	-0.16490628
56	0x3e21470c	0.15749758
57	0x3de00e9a	0.10940285
58	0xbda87860	-0.08226085
59	0x3c1024a2	0.008797796
60	0x3df8658e	0.12128745
61	0x3e1cbc76	0.15306267
62	0xbe17ddce	-0.14830706
63	0xbdbfdc39	-0.09368176
64	0x3d8cb040	0.068695545
65	0x3e0a4e74	0.1350649
66	0x3cfbf16b	0.030754765
67	0xbc32bebc	-0.010909732
68	0x3be060c2	0.006847472
69	0x3e24ba64	0.16086727
70	0xbe0e1fa3	-0.13879256
71	0x3da4ef47	0.08053451
72	0xbe01995b	-0.12656157
73	0x3c89b085	0.016807804
74	0xbe2afffa	-0.1669921
75	0x3dea7c21	0.11449457
76	0xbdc9b744	-0.09849408
77	0x3c4065b3	0.011742997
78	0xbde30e08	-0.110866606
79	0x3c849efb	0.016189089
80	0xbdb04c89	-0.08608348
81	0xbdb9270f	-0.09040653
82	0xbd9ce4f2	-0.07660855
83	0x3de0a1f2	0.109683886
84	0x3cca6102	0.02470446
85	0xbd3a8034	-0.04553242
86	0x3e1a2d22	0.1505628
87	0x3d0de599	0.03464279
88	0xbd6a524c	-0.05720739
89	0xbc02f71d	-0.007993487
90	0xbd8d8de5	-0.0691183
91	0xbd8f9f7c	-0.07012841
92	0xbd621c9f	-0.055203076
93	0x3d2c8ea9	0.04212824
94	0xbe212f67	-0.15740739
95	0xbe0cf906	-0.1376687
96	0xbea4f4d0	-0.32218027
97	0xbef7641d	-0.48318568
98	0xbee50e34	-0.447374
99	0xbec21a5d	-0.3791074
100	0xbf051965	-0.51991874
101	0xbea24edb	-0.31700787
102	0xbef6339a	-0.48086244
103	0xbedc32d0	-0.43007517
104	0xbf103e47	-0.5634503
105	0xbebce8ac	-0.36896265
106	0xbf1105c4	-0.5664942
107	0xbeaaab1d	-0.33333674
108	0xbeee871a	-0.4658745
109	0xbf0162a2	-0.50541127
110	0xbf00018c	-0.5000236
111	0xbebf2e9d	-0.3734025
112	0xbe891114	-0.26770842
113	0xbec91faf	-0.39281985
114	0xbeaa3c7b	-0.33249268
115	0xbf1700e8	-0.5898576
116	0xbef712dd	-0.4825658
117	0xbf0a7c58	-0.54095984
118	0xbf115667	-0.56772465
119	0xbed22c42	-0.4104939
120	0xbefe025d	-0.49611178
121	0xbecd39a3	-0.40083036
122	0xbf02d9e9	-0.51113755
123	0xbf1a1f3c	-0.6020391
124	0xbf08259e	-0.531824
125	0xbf1c5b30	-0.6107664
126	0xbece1c90	-0.40256166
127	0xbf12d4cd	-0.5735596
128	0x3de11d7d	0.109919526
129	0x3d4f03cd	0.050540734
130	0xbe0028be	-0.12515542
131	0xbd9ca5ea	-0.07648833
132	0xbe3cc6bb	-0.18435185
133	0x3dcfa375	0.10138599
134	0xbdd714eb	-0.10502037
135	0xbd813d44	-0.063105136
136	0xbc5383af	-0.012909814
137	0x3d752275	0.059847314
138	0xbda11dc7	-0.07867008
139	0x3d78a101	0.06070042
140	0x3d850442	0.06494953
141	0xbd43d57f	-0.047811028
142	0x3dbadd4a	0.09124239
143	0xbe3954b3	-0.18098716
144	0xbdfa51db	-0.12222644
145	0xbd23310a	-0.03984169
146	0xbd34179c	-0.04396783
147	0x3d168335	0.036746223
148	0x3dd04d25	0.10170964
149	0xbe1d4d80	-0.15361595
150	0x3d88cb86	0.06679444
151	0x3c86bb3d	0.016446704
152	0x3df77d56	0.12084453
153	0x3d8c0c8d	0.06838331
154	0xbd83e071	-0.06439293
155	0xbd510ae7	-0.051035788
156	0xbe130dd4	-0.14360744
157	0x3c559686	0.013036376
158	0x3de620b8	0.11236709
159	0x3d0eca61	0.034860972
160	0x3e4df044	0.20111185
161	0x3e03e042	0.12878516
162	0x3dbcd065	0.092194356
163	0x3ca3175b	0.019908598
164	0xbdc19fae	-0.094542846
165	0x3ccd22c0	0.025040984
166	0x3e553cd4	0.20823985
167	0x3e58f8bc	0.21188635
168	0xbad55dc9	-0.001627856
169	0x3e502774	0.2032755
170	0x3e50cb92	0.20390156
171	0xbdbdc48c	-0.09266004
172	0xbdedf837	-0.11619609
173	0xbcf4a8be	-0.029865619
174	0x3d2508c5	0.040291566
175	0x3e01b27c	0.12665743
176	0x3e075e67	0.13219605
177	0x3e2e40ed	0.17016955
178	0xbce89a06	-0.028393757
179	0x3e34a6f1	0.17641808
180	0x3dc9b138	0.09848255
181	0xbd89de0b	-0.067318045
182	0xbd946913	-0.07246604
183	0x3df7dbf3	0.12102499
184	0x3e641ee6	0.22277412
185	0xbd726e4c	-0.05918722
186	0x3da20cec	0.07912621
187	0xbddf95ab	-0.10917219
188	0x3e317bf4	0.1733244
189	0x3de1e416	0.11029832
190	0x3c5784e5	0.013154243
191	0x3e1b372f	0.1515777
192	0x3e2b0794	0.1670211
193	0x3e59f80b	0.21286027
194	0x3de41e29	0.11138565
195	0x3dc37c26	0.09545164
196	0x3e36d1bc	0.17853445
197	0x3e1d010b	0.15332429
198	0xbd65e24c	-0.056124017
199	0x3cd3c54b	0.025850913
200	0x3e4fdffd	0.20300288
201	0x3b700b3f	0.0036627797
202	0x3e6bfb35	0.23045047
203	0x3d74e0a8	0.05978456
204	0x3e86abc4	0.26302922
205	0xbc274028	-0.010208167
206	0x3e5ffae7	0.21873055
207	0x3c801bae	0.015638199
208	0x3e5ff75f	0.21871708
209	0x3e43e875	0.19131644
210	0x3e28d93f	0.16489123
211	0x3e14ed0b	0.1454355
212	0x3e4c190b	0.19931428
213	0x3cbe65a4	0.023241825
214	0x3d165ba7	0.0367085
215	0x3e112290	0.14173341
216	0xbd01c0cf	-0.031678017
217	0x3dd56d04	0.10421184
218	0x3e2b80ee	0.16748402
219	0xbd89017f	-0.066897385
220	0x3dac679c	0.084181994
221	0x3dd46c52	0.10372223
222	0xbd2da021	-0.04238904
223	0x3e6e10c9	0.2324859
224	0x3d6877c6	0.05675485
225	0xbdf0d363	-0.11759069
226	0xbc4dd2d4	-0.012562472
227	0x3da575b2	0.08079089
228	0x3e350f4e	0.1768162
229	0xbc088f5a	-0.008334959
230	0x3e504415	0.20338471
231	0xbcd524aa	-0.02601846
232	0xbdbffd28	-0.093744576
233	0x39efa23b	0.00045706503
234	0xbd8865c0	-0.06660032
235	0x3ddc2cf9	0.10750765
236	0x3e2976af	0.1654918
237	0xbdcdbc48	-0.100456774
238	0xbda52e5f	-0.08065485
239	0x3e1688d4	0.14700633
240	0x3c3184a3	0.010834846
241	0x3e56fc9c	0.209948
242	0x3e564378	0.20924175
243	0xbd8c66bf	-0.06855535
244	0x3e1c8cb7	0.15288053
245	0xbdf94acc	-0.121724695
246	0x3df597da	0.11991854
247	0xbd556997	-0.05210265
248	0x3d439716	0.04775151
249	0x3e61b676	0.2204226
250	0x3d94f2ee	0.07272898
251	0xbd3d78cf	-0.04625779
252	0x3e051e99	0.12999953
253	0x3ca691ce	0.020333197
254	0x3e54627e	0.20740697
255	0xbdaae5cb	-0.08344611

encoder.convs.1.lin_l.weight f4 [16, 16]
0	0xbda7ac91	-0.08187211
1	0xbe36845c	-0.17823929
2	0xbe006244	-0.12537485
3	0xbe54a9d9	-0.20767917
4	0xbc18644b	-0.009301255
5	0xbd69db8e	-0.05709415
6	0x3e46ecc9	0.19426264
7	0x3e5b579c	0.21420139
8	0x3dd521a1	0.10406805
9	0x3dc45bba	0.09587808
10	0x3d43052c	0.047612354
11	0x3e45f056	0.19329962
12	0xbe30b36a	-0.17255941
13	0xbe71b3d1	-0.23603751
14	0xbe0a5494	-0.13508826
15	0x3e3fc22a	0.18726411
16	0x3e8f85bf	0.28031728
17	0xbdd1cc14	-0.10244003
18	0xbe25af24	-0.16180092
19	0xbe323193	-0.17401724
20	0x3dc780d8	0.09741372
21	0xbcb58811	-0.022159608
22	0x3e800528	0.25003934
23	0xbd85a5e0	-0.06525779
24	0x3e88649c	0.2663926
25	0x3e14ca48	0.14530289
26	0xbd426ae4	-0.04746522
27	0x3e388693	0.18020086
28	0xbe4db660	-0.20089102
29	0xbca56bd9	-0.020193027
30	0xbe18bab6	-0.14914975
31	0xbd9d5678	-0.07682508
32	0x3e1e8fd8	0.1548456
33	0xbe021662	-0.12703851
34	0x3e21700e	0.15765402
35	0x3c5357a0	0.012899309
36	0xbdf2c548	-0.11854035
37	0xbdf8a3c0	-0.12140608
38	0xbe78dbe0	-0.24302626
39	0x3daf9fd4	0.08575407
40	0x3c1d4b20	0.009600431
41	0x3e63ed18	0.22258413
42	0x3db88a40	0.09010744
43	0x3d9f0294	0.077641636
44	0xbc599600	-0.013280392
45	0x3def47bc	0.11683604
46	0xbd17ed98	-0.03709182
47	0x3dcd46b0	0.10023248
48	0xbdaa30d8	-0.083100975
49	0x3e24c58c	0.16090983
50	0x3d8c65b4	0.06855336
51	0x3e3cf8e1	0.18454315
52	0xbc8f12e2	-0.017465059
53	0x3ea4fadd	0.32222643
54	0x3ed46717	0.414849
55	0x3e17dfdf	0.14831494
56	0x3e5cc90c	0.21561068
57	0xbe865f57	-0.26244614
58	0xbdab8f66	-0.083769605
59	0xbc8feb39	-0.017568218
60	0x3c926f00	0.017875195
61	0x3c83c434	0.016084768
62	0x3d9093d0	0.07059443
63	0xbdd9f024	-0.10641506
64	0x3ded6739	0.11591954
65	0xbddfbc5c	-0.109245986
66	0xbd823fec	-0.063598484
67	0x3e2960b7	0.165408
68	0xbe3ee651	-0.18642546
69	0xbc7ed1ab	-0.015552918
70	0xbe8c47d3	-0.27398548
71	0x3dadbf01	0.08483697
72	0xbe7c8242	-0.24659064
73	0xbe534b20	-0.20634127
74	0x3e9c8037	0.3056657
75	0x3dfd2789	0.12361056
76	0x3e015808	0.12631238
77	0x3e45086e	0.19241497
78	0xbd6e8f68	-0.05824223
79	0x3e62230a	0.22083679
80	0xbe106194	-0.14099723
81	0xbc8f5c60	-0.017500103
82	0xbe6b1482	-0.22957042
83	0xbc96a286	-0.018388044
84	0x3d6ac488	0.057316333
85	0xbe888b3e	-0.26668733
86	0x3e39399b	0.18088381
87	0x3d40a7c0	0.04703498
88	0x3e556907	0.20840846
89	0xbddc68cc	-0.10762176
90	0x3c3f0180	0.0116580725
91	0xbdd57191	-0.10422052
92	0x3e5872fe	0.21137616
93	0xbe0f1baa	-0.13975397
94	0x3e1356ec	0.14388627
95	0xbe33c4e4	-0.17555577
96	0x3e3dbc62	0.18528894
97	0xbe5f4e9f	-0.21807335
98	0xbdfe8858	-0.12428349
99	0xbdc015f6	-0.09379189
100	0xbcb2e30d	-0.021836782
101	0xbdc76c4e	-0.09737454
102	0xbc95c154	-0.018280663
103	0x3e1c684a	0.15274158
104	0x3e13bb2f	0.14426874
105	0xbdbfcff9	-0.093658395
106	0x3e1c91e8	0.15290034
107	0xbe0d47d3	-0.1379693
108	0xbe0ec0c2	-0.13940719
109	0x3d33cc75	0.043896157
110	0xbd327288	-0.043566257
111	0x3e745056	0.2385877
112	0xbe1d5bca	-0.15367046
113	0x3e1ef632	0.15523604
114	0x3d83d4f0	0.06437099
115	0xbeb7af9a	-0.3587616
116	0x3d89b570	0.067240596
117	0xbf01c5eb	-0.50692624
118	0xbec27452	-0.3797937
119	0xbe2f416d	-0.17114802
120	0xbede4d63	-0.43418416
121	0x3e051ac6	0.12998495
122	0x3e43b7a7	0.19113027
123	0xbf14e2df	-0.5815868
124	0x3e0b5918	0.13608205
125	0xbe69cfee	-0.22833225
126	0xbe7a898e	-0.24466535
127	0x3db091fc	0.08621594
128	0xbcdfd249	-0.027321951
129	0xbe0b0c97	-0.13579021
130	0x3e6536de	0.22384211
131	0x3ce525b4	0.02797208
132	0xbe13b135	-0.14423068
133	0xbe3e6261	-0.18592216
134	0xbe6a57ff	-0.2288513
135	0xbe7212aa	-0.23639932
136	0xbe4a9558	-0.19783533
137	0xbbdbf5da	-0.0067126574
138	0x3e261c0c	0.16221637
139	0xbee8bad1	-0.4545503
140	0x3debd2f4	0.115148455
141	0xbed76149	-0.4206641
142	0xbdc1b950	-0.09459174
143	0xbda1129c	-0.078648776
144	0xbea4bb81	-0.32174304
145	0x3da79f8b	0.08184727
146	0xbe486e28	-0.19573271
147	0x3dbdb4ac	0.09262976
148	0x3dbebc01	0.09313203
149	0xbede3ec0	-0.4340725
150	0xbf0ed662	-0.5579587
151	0xbe9020b7	-0.2814996
152	0xbd537eaa	-0.05163447
153	0x3e8bbfe6	0.27294844
154	0xbe1db0c4	-0.15399462
155	0xbf1e7adf	-0.61906236
156	0xbde31ce0	-0.11089492
157	0xbea54aee	-0.3228373
158	0xbd06cea0	-0.032911897
159	0xbe36787e	-0.17819402
160	0x3e9bfb84	0.3046533
161	0x3e35b48c	0.17744654
162	0xbe22e412	-0.15907314
163	0x3eb438a7	0.35199472
164	0xbdd6a6d0	-0.10481036
165	0x3d27a776	0.040931188
166	0x3e8b1bc4	0.2716962
167	0x3f395090	0.72388554
168	0xbc900be2	-0.017583791
169	0xbe38c862	-0.1804519
170	0x3f5d0980	0.8634262
171	0x3de68d66	0.11257438
172	0x3d692e48	0.056928903
173	0x3f378713	0.7169048
174	0xbe7a3ade	-0.24436519
175	0xbe75091e	-0.23929259
176	0xbde62a8b	-0.11238583
177	0x3e512d07	0.20427333
178	0x3dbdab70	0.09261215
179	0x3e0f4f5e	0.1399512
180	0xbdcc3b26	-0.09972219
181	0x3dda070e	0.10645877
182	0xbe3e27e4	-0.18569905
183	0x3e41a6dd	0.1891131
184	0xbda94746	-0.082655475
185	0xbb8f9032	-0.004381203
186	0x3e43dc6a	0.1912705
187	0xbe358265	-0.17725523
188	0xbdbc81ec	-0.09204468
189	0x3d448c4d	0.047985364
190	0xbe07f30e	-0.13276312
191	0x3dd5fff0	0.10449207
192	0xbe05db95	-0.13072045
193	0x3d228df2	0.03968615
194	0xbe6e67fa	-0.23281851
195	0x3b7d2d85	0.0038631868
196	0xbdfe2370	-0.12409103
197	0xbf1fff0d	-0.6249855
198	0xbecea75f	-0.4036207
199	0xbed8a347	-0.4231207
200	0xbe93fe4a	-0.28904945
201	0x3e43a834	0.19107133
202	0x3e4cd40a	0.20002761
203	0xbf39fe41	-0.72653586
204	0x3d5e12f8	0.05421731
205	0xbeb9129f	-0.3614702
206	0x3e6f8dc8	0.23393929
207	0x3e1c4992	0.1526244
208	0x3e20d20a	0.15705124
209	0xbe410828	-0.18850768
210	0xbdfbd644	-0.12296727
211	0x3ba19e45	0.0049321973
212	0xbe733706	-0.23751459
213	0xbe89ebba	-0.26937658
214	0x3c0d079a	0.008607769
215	0xbed4fb48	-0.41597962
216	0x3dfc4fc1	0.12319899
217	0x3aa8d5f7	0.0012881149
218	0xbd89bf80	-0.06725979
219	0xbe560115	-0.2089885
220	0xbe0994fa	-0.13435736
221	0xbeb1379f	-0.34612748
222	0xbe2e347a	-0.17012206
223	0x3e4156a0	0.18880701
224	0xbc97cd80	-0.018530607
225	0x3e7947a4	0.24343735
226	0x3c57f080	0.013179898
227	0xbcf16610	-0.029467613
228	0x3e1985aa	0.14992395
229	0xbe710412	-0.23536709
230	0xbe1eac76	-0.15495476
231	0x3e12da44	0.14341074
232	0xbd8587ac	-0.06520018
233	0x3e4a8980	0.19779015
234	0xbcbb02d0	-0.02282849
235	0x3e36912a	0.17828813
236	0x3c46ede0	0.012141675
237	0x3cd4af60	0.025962532
238	0xbe5839ec	-0.21115845
239	0xbdb0f0d0	-0.08639681
240	0x3e2e3268	0.17011416
241	0x3e07a011	0.13244654
242	0x3d46b010	0.04850775
243	0x3d70c100	0.05877781
244	0x3d428c38	0.047497004
245	0x3e834ec9	0.25646046
246	0x3e57f5dc	0.21089882
247	0x3e1eb5fc	0.15499109
248	0xbd4c01c2	-0.049806364
249	0xbd1d6b3f	-0.038432356
250	0x3e9383ed	0.2881159
251	0x3e92628c	0.2859081
252	0xbdf20c60	-0.118187666
253	0x3e5191b3	0.20465736
254	0xbd6fc750	-0.05853969
255	0x3e226592	0.15859058

encoder.convs.1.lin_l.bias f4 [16]
0	0xbcdb9c13	-0.02680782
1	0xbde268ac	-0.11055121
2	0xbe7d66a4	-0.24746186
3	0xbcbc013b	-0.022949805
4	0x3dff2f65	0.12460212
5	0xbe32dc0f	-0.17466758
6	0x3e7f79de	0.24948832
7	0x3e643917	0.22287403
8	0x3e9b394b	0.3031715
9	0x3e62f60c	0.22164172
10	0xbd929e52	-0.071591035
11	0xbd8ee9c3	-0.0697818
12	0x3ea49772	0.32146794
13	0x3e7d0001	0.24707033
14	0xbe68ed22	-0.22746709
15	0xbd9d7826	-0.07688932

encoder.convs.1.lin_r.weight f4 [16, 16]
0	0x3e516e35	0.20452197
1	0xbe40ad7d	-0.1881618
2	0x3e42059a	0.1894745
3	0xbd0d152d	-0.034444023
4	0x3d3e648c	0.046482608
5	0x3e075b06	0.13218316
6	0x3da7597a	0.08171363
7	0xbde8a9ac	-0.11360487
8	0x3dbb66f0	0.09150493
9	0xbe394ae3	-0.18094973
10	0x3e4f03a3	0.20216231
11	0xbd042214	-0.032259062
12	0xbd4cd598	-0.050008386
13	0x3e8be8e1	0.2732611
14	0xbe0bbf1a	-0.13647118
15	0x3e56d05e	0.20977923
16	0x3c967014	0.01836399
17	0x3d95f909	0.0732289
18	0x3e3650c4	0.17804247
19	0xbe9c2bc8	-0.30502152
20	0xbe427157	-0.18988548
21	0x3dbb48fb	0.09144779
22	0x3e573169	0.21014942
23	0x3e62ac87	0.22136126
24	0xbcea7140	-0.028618455
25	0x3e694dc4	0.22783571
26	0x3f9c6548	1.2218409
27	0x3e480ceb	0.19536178
28	0xbdf82904	-0.12117198
29	0x3e28601a	0.1644291
30	0xbdbfa704	-0.093580276
31	0xbe4ecdfe	-0.20195767
32	0xbe26896a	-0.16263357
33	0xbe1a8f10	-0.15093637
34	0xbd1a66b8	-0.037695616
35	0xbdd670bc	-0.10470721
36	0x3e6b306a	0.22967687
37	0x3dd3afe8	0.10336286
38	0xbe54d56c	-0.20784539
39	0x3c2c61e0	0.010521382
40	0x3e5cc1e0	0.21558332
41	0xbc2521c0	-0.010078847
42	0x3d263088	0.040573627
43	0x3d8bc788	0.06825167
44	0xbda8f030	-0.08248937
45	0xbe25be8c	-0.16185969
46	0xbdbfe29c	-0.09369394
47	0xbd8595c4	-0.06522706
48	0xbdc843ae	-0.09778534
49	0xbe620192	-0.22070912
50	0x3d09ab58	0.03361067
51	0xbed99a46	-0.42500514
52	0xbd2f990a	-0.04287056
53	0x3cf38f1f	0.029731331
54	0xbd129e7a	-0.035795666
55	0x3e09c8a0	0.13455439
56	0xbe1efcd9	-0.15526141
57	0xbe23cccb	-0.15996091
58	0x3f7427d3	0.95373267
59	0x3e9d49c5	0.30720344
60	0xbdd41068	-0.10354692
61	0x3e136d6c	0.1439721
62	0xbdbd95fc	-0.09257123
63	0x3e2f7bb2	0.1713703
64	0x3e0b2eaa	0.1359202
65	0xbe57c748	-0.21072114
66	0x3d6e48d0	0.05817491
67	0x3eb8fd82	0.3613091
68	0x3b150be7	0.002274269
69	0xbd4ba108	-0.04971412
70	0x3b20e0a0	0.002454795
71	0x3e0130d1	0.12616278
72	0x3e9ecb46	0.3101446
73	0xbd7a4a68	-0.061106116
74	0xbf194187	-0.5986561
75	0x3ded1680	0.11576557
76	0x3e64b7ce	0.22335741
77	0x3e21ec58	0.15812814
78	0xbe536fea	-0.2064816
79	0xbe537ee8	-0.2065388
80	0xbe632bcf	-0.2218468
81	0x3e20dc54	0.15709049
82	0xbe01ffe0	-0.12695265
83	0x3df3b62e	0.118999824
84	0xbd18b247	-0.037279394
85	0xbdfbae75	-0.122891344
86	0x3e2d2913	0.169102
87	0xbd63842a	-0.055545963
88	0xbe13de36	-0.14440235
89	0xbd1cefc8	-0.03831461
90	0xbe22c56a	-0.1589562
91	0xbe821c7e	-0.25412363
92	0xbd336988	-0.043801814
93	0xbcad457c	-0.021151297
94	0xbe11e9ca	-0.1424934
95	0x3e62e4ea	0.22157636
96	0xbdd6e8fb	-0.10493656
97	0xbd862e66	-0.065518185
98	0x3e4ae096	0.19812235
99	0xbbc6464d	-0.006050861
100	0xbc926e81	-0.017874958
101	0x3e055780	0.1302166
102	0xbe172c6a	-0.14763036
103	0x3ebe8292	0.37208992
104	0x3c0df941	0.008665384
105	0x3debabed	0.115074016
106	0xbed9ecd2	-0.42563492
107	0x3e8e824d	0.27833787
108	0xbe52670a	-0.20547119
109	0x3dae687f	0.08516025
110	0xbe2425b8	-0.16030014
111	0xbe0149c8	-0.12625802
112	0x3d47260a	0.04862026
113	0xbe66d827	-0.22543393
114	0xbe7a9e3a	-0.24474421
115	0x3d5af2b3	0.053454112
116	0x3e00a897	0.12564312
117	0x3e04e026	0.12976131
118	0x3d32dc41	0.04366708
119	0x3da13c22	0.078727975
120	0xbccb07ee	-0.024784055
121	0xbd314b65	-0.043284792
122	0x3f093289	0.53592736
123	0x3ea6de8c	0.32591665
124	0x3d4f40d0	0.05059892
125	0x3b892459	0.004185241
126	0xbd502068	-0.050812155
127	0xbe393dc8	-0.18089974
128	0xbe6be22e	-0.230355
129	0x3e3fe182	0.18738368
130	0x3d9c4d14	0.07631889
131	0xbb97dffa	-0.0046348544
132	0x3c6c5de6	0.014426684
133	0x3d4871b5	0.048936564
134	0x3e15bca5	0.14622743
135	0xbd52e1ae	-0.051484756
136	0xbeb2339b	-0.34804997
137	0x3e5adbee	0.21372959
138	0x3f37e790	0.7183771
139	0x3e87024a	0.26368934
140	0x3e409ec6	0.18810567
141	0x3e86cbc1	0.26327327
142	0xbdaeff50	-0.08544791
143	0xbd3bc770	-0.045844495
144	0xbd7967f9	-0.06089017
145	0x3cfb9975	0.030712822
146	0x3c1f5180	0.009724021
147	0xbe8537f4	-0.2601925
148	0xbdee6679	-0.11640639
149	0x3e94045c	0.28909576
150	0x3de30906	0.110857055
151	0x3cc969df	0.024586616
152	0x3dc2a71a	0.09504528
153	0xbd854e35	-0.065090574
154	0xbf35b2c3	-0.70975894
155	0x3e8dfb19	0.27730635
156	0xbe49f8ba	-0.19723788
157	0x3d007fa9	0.031371746
158	0x3e41bdcc	0.18920058
159	0xbcc840e0	-0.024444997
160	0xbf12efd7	-0.57397217
161	0x3e546c4a	0.20744434
162	0x3d1bd228	0.038042217
163	0xbf361384	-0.7112353
164	0x3e138fda	0.14410344
165	0xbd4b71e6	-0.04966917
166	0xbbbc13d6	-0.0057396693
167	0xbe56ee2c	-0.20989293
168	0xbf327d93	-0.6972286
169	0x3dad147c	0.08451173
170	0x3eb68e71	0.3565555
171	0xbe74f20a	-0.23920456
172	0x3d851d44	0.064997226
173	0x3ca7b082	0.020469908
174	0xbe7738da	-0.24142781
175	0xbe6e3154	-0.23261005
176	0x3e856318	0.26052165
177	0x3e853b48	0.2602179
178	0xbddfc570	-0.1092633
179	0x3ea538af	0.3226981
180	0x3e0b37f9	0.1359557
181	0x3e083a0e	0.13303396
182	0xbe39c014	-0.18139678
183	0xbe3e2f71	-0.18572785
184	0x3e50c06f	0.20385908
185	0x3d9bcc36	0.076073095
186	0xbd8134cc	-0.06308898
187	0x3bcb8457	0.0062108445
188	0x3e79a4d2	0.2437928
189	0xbe8d65cf	-0.27616736
190	0xbe6daef4	-0.2321127
191	0xbe73db7a	-0.23814192
192	0xbe8e0c11	-0.2774358
193	0xbdc351d7	-0.09537094
194	0xbe10ac46	-0.14128217
195	0xbec1691e	-0.3777551
196	0x3e4f2f51	0.20232894
197	0x3ec1a915	0.37824312
198	0x3eb0180b	0.34393343
199	0x3e9b3963	0.3031722
200	0x3b0481c2	0.0020218943
201	0xbd960910	-0.07325947
202	0x3f42f6d6	0.7615789
203	0xbca16789	-0.01970269
204	0x3de7d2d0	0.11319506
205	0x3e575933	0.2103012
206	0x3d02ba08	0.031915694
207	0xbe1b5e8c	-0.15172786
208	0xbea7a51a	-0.3274315
209	0xbdacb6ed	-0.08433328
210	0xbd01fbf8	-0.031734437
211	0xbeb0edd6	-0.34556454
212	0x3d0cecec	0.034405634
213	0x3ce7cc6c	0.028295718
214	0x3da2b2c3	0.07944252
215	0xbd1d8383	-0.038455497
216	0xbd3a9492	-0.045551844
217	0xbe446cd2	-0.19182137
218	0xbecc2c8e	-0.39877743
219	0xbe100b8c	-0.14066905
220	0xbe11fe18	-0.14257085
221	0x3eb2f483	0.34952173
222	0xbd3f9cb0	-0.04678029
223	0xbd3c1d48	-0.045926362
224	0x3e041100	0.1289711
225	0xbe5cd8ec	-0.21567124
226	0xbd6be450	-0.057590783
227	0xbc03d580	-0.008046508
228	0x3ce68030	0.028137296
229	0xbd2995d0	-0.041402638
230	0xbe3494ce	-0.1763489
231	0xbe6aa124	-0.22913033
232	0x3b309880	0.0026946366
233	0x3e55c716	0.20876727
234	0xbde5d688	-0.11222559
235	0x3d017680	0.03160715
236	0x3e22b9c0	0.1589117
237	0xbe7a206c	-0.2442643
238	0x3e628ab6	0.22123227
239	0x3e5837be	0.21115014
240	0xbcaa4b79	-0.020787941
241	0x3e6e88fd	0.23294444
242	0x3e2edfb6	0.17077526
243	0x3e9f8a36	0.31160134
244	0x3e730f27	0.23736249
245	0x3d8aa95e	0.067705855
246	0x3e0e49ea	0.13895383
247	0xbe24e7ee	-0.16104099
248	0x3dfbffc5	0.123046435
249	0x3e86a71b	0.26299366
250	0x3ebb9185	0.3663446
251	0x3d015882	0.03157855
252	0xbe02ccce	-0.1277344
253	0x3d251cd3	0.040310692
254	0x3da6b49c	0.08139917
255	0x3e414662	0.18874505

encoder.convs.2.lin_l.weight f4 [16, 16]
0	0x3bfe0397	0.007751893
1	0x3d35cd30	0.044385135
2	0x3e1b33d8	0.15156496
3	0xbd1bacf4	-0.038006738
4	0xbe39e82e	-0.18154976
5	0x3e35e464	0.17762905
6	0xbe1334ab	-0.1437556
7	0x3e3e77ce	0.1860039
8	0xbe413fee	-0.18872043
9	0x3d9f88d1	0.077897675
10	0xbda366cb	-0.079785906
11	0xbde96b3b	-0.11397406
12	0x3e109e6a	0.1412293
13	0xbccb658d	-0.024828697
14	0xbdd50b14	-0.104025036
15	0xbccf0229	-0.025269585
16	0x3e179033	0.14801101
17	0x3e0c57a8	0.13705313
18	0x3d8b7a94	0.06810489
19	0x3dd0cb92	0.10195078
20	0x3daa56d7	0.08317345
21	0x3dd4b337	0.10385745
22	0x3e533a85	0.20627792
23	0x3e5ceb54	0.21574146
24	0xbdc7b79f	-0.0975182
25	0xbb7a081e	-0.003815181
26	0x3dcf807f	0.101319306
27	0x3dd0bc50	0.10192168
28	0xbe308f72	-0.1724222
29	0xbd8e83a7	-0.069587044
30	0xbdfdea60	-0.12398219
31	0x3dc3e54f	0.095652215
32	0x3e66f058	0.22552621
33	0xbc8cf2e2	-0.01720566
34	0xbd9e3970	-0.07725799
35	0x3e0f37d3	0.13986139
36	0xb8bdef5d	-9.056807e-05
37	0xbd90e355	-0.0707461
38	0xbe0b4387	-0.13599978
39	0x3d8bba13	0.068226
40	0x3e0f9aff	0.1402397
41	0x3e3b2c22	0.18278554
42	0x3e106a61	0.1410308
43	0xbe9ae51e	-0.30252928
44	0x3ecf00a9	0.4043019
45	0x3d17cd03	0.03706075
46	0xbd7abaf8	-0.061213464
47	0x3dafc782	0.08582975
48	0xbd03fa61	-0.0322212
49	0xbe58495c	-0.21121734
50	0x3e137a82	0.14402202
51	0xbdc92b25	-0.09822682
52	0x3e3456ff	0.17611311
53	0xbd948ee0	-0.07253814
54	0xbe785b49	-0.24253573
55	0xbe63d5f6	-0.22249588
56	0xbc266f65	-0.010158394
57	0xbd7fffbb	-0.062499743
58	0xbe41ca9f	-0.1892495
59	0xbdb0a563	-0.08625295
60	0xbe460ad0	-0.19340062
61	0xbb38d2e4	-0.0028201872
62	0xbe3d59da	-0.18491307
63	0xbca2c9fa	-0.0198717
64	0x3d1b80bf	0.03796458
65	0xbe6ce40d	-0.2313387
66	0xbe2f1d80	-0.17101097
67	0xbde040d4	-0.10949865
68	0xbde4be7f	-0.11169147
69	0xbd396477	-0.045261826
70	0x3db9ccb0	0.09072244
71	0xbe0d4f8e	-0.13799879
72	0x3e26e5f3	0.16298656
73	0xbe037c97	-0.12840496
74	0x3e4d4d41	0.20049001
75	0xbe484c2e	-0.1956031
76	0xbe097b59	-0.1342596
77	0x3e75f36e	0.24018642
78	0x3e503a38	0.20334709
79	0xbe09792b	-0.13425128
80	0x3e478f78	0.19488323
81	0x3d617a64	0.05504836
82	0x3db9f26c	0.090794414
83	0xbc6374da	-0.01388284
84	0xbdc918c8	-0.0981918
85	0xbdb7e9bd	-0.08980129
86	0xbe6c3bbd	-0.23069663
87	0x3eb083d6	0.34475583
88	0x3e4fa46d	0.20277567
89	0x3e91a15e	0.28443426
90	0xbe8e31b3	-0.27772292
91	0x3e55a607	0.20864116
92	0x3e8432f2	0.25820118
93	0x3e200ac4	0.15629107
94	0xbddbc1cc	-0.10730323
95	0x3e125191	0.14288928
96	0x3e0145a5	0.12624224
97	0x3dfd4cd4	0.123681694
98	0xbe535d6a	-0.20641103
99	0xbd5d424d	-0.054018307
100	0x3d8e8291	0.06958497
101	0xbe7babdd	-0.2457728
102	0x3e500ce8	0.20317423
103	0x3dcd6e2c	0.10030779
104	0xbe793991	-0.24338366
105	0xbe873564	-0.2640792
106	0xbdaad7f8	-0.08341974
107	0x3e6a1b5c	0.22862
108	0x3c9290c9	0.017891305
109	0xbcaf42d0	-0.021394163
110	0xbc84a9d0	-0.016194254
111	0xbe804000	-0.25048828
112	0x3df148a1	0.11781431
113	0x3dc638dd	0.096788146
114	0xbe3400c0	-0.17578411
115	0xbdf213c8	-0.11820179
116	0x3e5bc0e4	0.214603
117	0xbdc433f2	-0.0958022
118	0xbe5bdd8a	-0.21471229
119	0x3ddaa98f	0.10676872
120	0x3d8c45a6	0.06849222
121	0x3e2bce16	0.16777834
122	0xbe39d49a	-0.18147507
123	0xbce90db4	-0.028448917
124	0x3b2bca79	0.0026213212
125	0x3e19e720	0.15029573
126	0x3e0f7574	0.14009649
127	0xbdb7235a	-0.0894229
128	0x3d9fc178	0.07800573
129	0x3dacee75	0.084439196
130	0xbe0a2732	-0.13491514
131	0x3e75502d	0.23956366
132	0x3e95e172	0.29273564
133	0xbe022234	-0.1270836
134	0xbd870623	-0.06592967
135	0x3e91addb	0.28452954
136	0x3e107739	0.1410798
137	0xbd15d8b0	-0.036583602
138	0x3ea0209d	0.31274882
139	0xbe89e3b1	-0.26931527
140	0xbcb2c4dd	-0.021822387
141	0x3ccba613	0.024859464
142	0xbc026e60	-0.007960886
143	0x3e2cb770	0.16866851
144	0x3e14ad85	0.14519317
145	0xbd7bbbaa	-0.061458267
146	0xbcc68e10	-0.024237663
147	0xbe1916e8	-0.14950144
148	0xbe1bf5a4	-0.15230423
149	0x3d5eebc3	0.05442406
150	0x3e3c8ca0	0.18413019
151	0x3e604ce0	0.21904325
152	0xbe3cc635	-0.18434985
153	0x3e05dfe3	0.13073687
154	0xbdd2180c	-0.10258493
155	0xbc5bd282	-0.013416888
156	0xbbc7d80c	-0.006098753
157	0x3e4e111f	0.20123719
158	0x3e5682e6	0.20948371
159	0xbe4a409a	-0.19751206
160	0x3c8ee507	0.017443193
161	0x3ddfd539	0.10929341
162	0x3d895de8	0.06707364
163	0xbd262858	-0.04056582
164	0xbe1aef51	-0.15130354
165	0xbe349fac	-0.17639035
166	0xbe902093	-0.28149852
167	0xbb9ec300	-0.004845023
168	0xbde86d7e	-0.11349009
169	0x3d71ab10	0.05900103
170	0xbe06cb11	-0.13163401
171	0x3e542df1	0.2072065
172	0xbe349f5c	-0.17638916
173	0x3e6328da	0.22183552
174	0xbdcb012c	-0.09912333
175	0x3a095061	0.00052381126
176	0xbd87fdb9	-0.06640191
177	0x3d7220d3	0.059113335
178	0x3e4a074e	0.19729349
179	0x3e3523d6	0.17689452
180	0xbdf88d04	-0.121362716
181	0x3e2fb603	0.17159276
182	0x3e0519fa	0.1299819
183	0xbec16f98	-0.37780452
184	0xbc9eccb5	-0.019384721
185	0xbd84aea2	-0.06478621
186	0x3e08c55e	0.1335654
187	0x3e99fe00	0.300766
188	0xbdf6832e	-0.12036739
189	0xbe72593b	-0.23666851
190	0xbde6c3ac	-0.1126779
191	0x3e011d68	0.12608874
192	0xbd1642a0	-0.036684632
193	0xbe375978	-0.17905223
194	0x3be47ec0	0.0069731176
195	0x3e1295b4	0.1431492
196	0x3c07cb00	0.008288145
197	0x3e20f08e	0.15716764
198	0xbdc16c28	-0.09444457
199	0x3e48c500	0.196064
200	0x3d73f698	0.059561342
201	0xbdac1154	-0.084017426
202	0x3df6dd58	0.12053937
203	0x3dfbc97c	0.122942895
204	0xbddb86d8	-0.10719079
205	0xbd3a42d0	-0.045473874
206	0x3e041fdc	0.12902778
207	0xbe619b96	-0.22032008
208	0x3d223a1b	0.039606195
209	0x3db72d7a	0.08944221
210	0xbe2e80c8	-0.17041314
211	0x3b84112d	0.004030368
212	0xbaacef71	-0.0013193918
213	0x3e321784	0.17391783
214	0x3e1a4bc7	0.1506797
215	0x3d0c8a6e	0.034311704
216	0xbd6f7887	-0.058464553
217	0x3e49e569	0.1971642
218	0x3e910b29	0.28328827
219	0x3d831f63	0.06402471
220	0x3e52a277	0.20569788
221	0x3ea21121	0.31653693
222	0xbdeb0e48	-0.11477333
223	0xbe4cdf30	-0.20007014
224	0xbdef5820	-0.116867304
225	0xbd9e934c	-0.077429384
226	0xbe2d20c8	-0.16907036
227	0xbe2f6dc9	-0.17131723
228	0x3e199d73	0.15001468
229	0x3d851168	0.064974606
230	0x3e41e517	0.18935047
231	0x3ea578e5	0.32318798
232	0xbddfbbd1	-0.10924495
233	0x3d2f1d03	0.042752277
234	0x3e43eb96	0.19132838
235	0xbe53a2a5	-0.20667513
236	0x3e93c673	0.28862342
237	0x3e3610e7	0.17779885
238	0xbe4fd44c	-0.20295829
239	0x3dc1ef2d	0.09469447
240	0x3deff4b3	0.117165945
241	0x3e2d1a8f	0.16904663
242	0xbd92e650	-0.07172835
243	0x3e751892	0.23935154
244	0x3e93b440	0.28848457
245	0x3e32dc0f	0.17466758
246	0x3db1c3cd	0.08679924
247	0xbdc19a73	-0.09453287
248	0x3eb9afe0	0.36266994
249	0x3e42bc58	0.1901716
250	0x3e826b9a	0.25472718
251	0x3be349da	0.006936294
252	0x3de786b4	0.113049895
253	0x3e8639b7	0.26215908
254	0x3e0f4518	0.13991201
255	0xbd5b332c	-0.0535156

encoder.convs.2.lin_l.bias f4 [16]
0	0x3e3035b3	0.17207985
1	0x3cc21752	0.02369276
2	0x3e30345f	0.17207478
3	0x3e332b1b	0.17496912
4	0x3d31a06f	0.043365892
5	0x3ea1058e	0.3144955
6	0x3eca8b26	0.39559287
7	0x3e9de17e	0.308361
8	0x3e1a51e0	0.15070295
9	0x3d825d47	0.063654475
10	0xbe2760df	-0.16345547
11	0x3e78dfbb	0.24304096
12	0xbe37f01a	-0.17962685
13	0xbe6828c0	-0.22671795
14	0x3e1ba1d8	0.15198457
15	0xbd9f9ec4	-0.07793954

encoder.convs.2.lin_r.weight f4 [16, 16]
0	0x3e2357be	0.1595144
1	0xbdd1db78	-0.102469385
2	0xbb4df380	-0.0031425655
3	0xbd0e1190	-0.034684718
4	0x3e973583	0.29533014
5	0xbe3e4768	-0.18581927
6	0x3e30a56f	0.17250608
7	0x3e0c6a68	0.13712466
8	0xbdace2b7	-0.0844168
9	0x3eb09183	0.34486017
10	0xbdab906d	-0.083771564
11	0xbe3b84de	-0.18312404
12	0xbdc5889e	-0.09645198
13	0x3e8ff78d	0.28118554
14	0x3e522616	0.20522341
15	0xbd8778d6	-0.066148445
16	0xbbfeb96a	-0.007773568
17	0xbdb8e853	-0.09028687
18	0x3e2cdf9a	0.16882172
19	0x3d24eaf4	0.04026313
20	0xbd196563	-0.037450206
21	0x3dbdbea6	0.09264879
22	0x3e948413	0.29007015
23	0x3ea0a56d	0.3137621
24	0x3e66ebc3	0.22550873
25	0x3ebdcedf	0.37071893
26	0x3e854563	0.260295
27	0x3dc993a0	0.0984261
28	0x3e1c9848	0.15292466
29	0xb8cbc781	-9.716955e-05
30	0x3d3c1d68	0.04592648
31	0xbdc0ebcf	-0.09419977
32	0x3e246dce	0.16057512
33	0xbf5d9ca1	-0.8656712
34	0xbe5140ae	-0.2043483
35	0xbf48b60a	-0.7840277
36	0x3e887e61	0.2665892
37	0xbe5363ba	-0.20643511
38	0xbe00022d	-0.1250083
39	0xbd855eb6	-0.06512205
40	0xbe6a8c66	-0.2290512
41	0x3c0f7b50	0.008757427
42	0xbeacfebd	-0.337881
43	0x3eaf9c11	0.34298757
44	0xbe33d5ee	-0.17562076
45	0xbe6ce981	-0.2313595
46	0xbe535dec	-0.20641297
47	0x3d88ffe9	0.06689436
48	0xbdcca138	-0.099916875
49	0xbe3bd38c	-0.18342417
50	0x3d7d3cc0	0.061825514
51	0xbdc54a9e	-0.09633373
52	0x3db24453	0.08704438
53	0xbe1359d9	-0.14389743
54	0x3ba26e88	0.004957024
55	0x3d18eab8	0.03733322
56	0x3e4dad9b	0.20085756
57	0xbe3c26c2	-0.1837416
58	0xbe9ef13a	-0.31043416
59	0x3d4fc778	0.050727338
60	0xba879df4	-0.0010346756
61	0x3dbab246	0.09116034
62	0x3e2d04ae	0.16896316
63	0x3daaa00f	0.0833131
64	0x3daecc3e	0.0853505
65	0x3e027d05	0.12743004
66	0xbe09bb50	-0.1345036
67	0xbd8c3294	-0.068455845
68	0x3e3f7c17	0.1869968
69	0x3cea8830	0.028629392
70	0x3e6a9dd7	0.22911774
71	0x3dd3c2bd	0.10339878
72	0x3eb02010	0.34399462
73	0x3e81b449	0.2533286
74	0xbe3a2434	-0.18177873
75	0xbdaeb0f7	-0.08529847
76	0x3e3fa717	0.18716083
77	0xbda373ca	-0.079810694
78	0xbdea7a4c	-0.114491075
79	0x3dc1a118	0.09454554
80	0x3d83a540	0.06428003
81	0x3d7feacd	0.062479783
82	0xbdd6292c	-0.10457072
83	0x3e38aac0	0.18033886
84	0xbd56a902	-0.052407272
85	0xbe1094ab	-0.14119212
86	0x3e7cf5ed	0.24703188
87	0x3c848b30	0.016179651
88	0x3dd1945d	0.10233376
89	0x3c17afbe	0.009258209
90	0xbeb7b196	-0.35877675
91	0x3dfbb961	0.122912176
92	0x3e22fafd	0.15916057
93	0x3e9e3395	0.3089873
94	0x3e43486a	0.19070593
95	0x3c30be9b	0.010787631
96	0x3e713b3d	0.23557754
97	0x3e295941	0.16537954
98	0x3c179460	0.009251684
99	0x3dd9dd9f	0.10637974
100	0x3cf36e4f	0.029715685
101	0x3d9d9d0c	0.0769597
102	0x3d9c19a2	0.076220766
103	0x3eabcbb0	0.3355384
104	0x3ddac294	0.10681644
105	0x3b9f97fb	0.0048704124
106	0x3ea8daad	0.32979336
107	0xbe374634	-0.17897874
108	0x3ea19b0e	0.3156361
109	0x3eb1a7b4	0.3469826
110	0x3d2462e0	0.040133357
111	0xbd91d082	-0.07119848
112	0x3c854cd2	0.016271982
113	0x3e2b41a4	0.16724259
114	0xbe439012	-0.19097927
115	0x3bd3d794	0.006464908
116	0xbde13ea9	-0.109982796
117	0xbe6546d9	-0.22390307
118	0xbdd5fe44	-0.10448888
119	0x3d780e61	0.060560588
120	0x3eb7a52a	0.35868198
121	0x3ea4adde	0.321639
122	0x3e4989ca	0.19681469
123	0xbe56aa6f	-0.20963453
124	0x3ed25d3a	0.4108675
125	0x3e877424	0.26455796
126	0x3debc694	0.11512485
127	0x3bdc179f	0.006716683
128	0xbd062288	-0.032747775
129	0xbde59deb	-0.11211761
130	0x3e09bbd2	0.13450554
131	0xbe52895e	-0.20560214
132	0xbdd2ef98	-0.10299605
133	0x3d9a9d40	0.07549524
134	0xbd2e0072	-0.042480893
135	0x3cc2dbaf	0.023786394
136	0x3c89d10a	0.01682331
137	0xbde42633	-0.111400984
138	0xbdc75bf9	-0.09734339
139	0xbca31cf4	-0.019911267
140	0xbeaadbc6	-0.333708
141	0xbdfa2a69	-0.1221512
142	0x3e5962f8	0.2122916
143	0x3dc2f617	0.09519594
144	0x3e4b8f2e	0.19878837
145	0xbdc5899b	-0.09645387
146	0x3ccb3330	0.024804682
147	0xbdf00c1c	-0.1172106
148	0x3dd241de	0.102664694
149	0x3d5d7fee	0.05407708
150	0x3c1e5a02	0.009665014
151	0x3ebb44a4	0.36575806
152	0x3e50a538	0.20375526
153	0x3e83c3c4	0.25735295
154	0x3dd0fc08	0.10204321
155	0x3e3c7fc9	0.18408121
156	0x3defa90d	0.11702166
157	0x3e85e637	0.26152202
158	0x3e7c45b2	0.24635962
159	0xbe75ae1f	-0.23992203
160	0xbdacc960	-0.08436847
161	0x3dabe127	0.08392554
162	0xbd783118	-0.060593694
163	0xbe73ee43	-0.23821358
164	0xbe33f6e6	-0.17574653
165	0xbe050e88	-0.12993824
166	0x3d8d46ad	0.06898246
167	0x3e22fc0e	0.15916464
168	0xbd07367e	-0.033010952
169	0xbe5178d2	-0.20456246
170	0x3c32dfff	0.010917663
171	0x3d8f248c	0.06989393
172	0xbdc1213c	-0.09430167
173	0x3db08bcc	0.08620414
174	0xbdd12618	-0.10212344
175	0x3d3d7031	0.046249572
176	0x3e77bffe	0.24194333
177	0x3e75e2ac	0.2401225
178	0xbcc18b30	-0.02362594
179	0x3eb7ed7b	0.3592337
180	0x3d1b5fb2	0.03793306
181	0xbe53297d	-0.20621295
182	0x3e876c10	0.26449633
183	0x3eae15ee	0.34001106
184	0x3e637fc3	0.22216706
185	0x3ea74736	0.32671517
186	0x3ec5ce82	0.38634115
187	0x3b300455	0.002685805
188	0x3e82c480	0.25540543
189	0xbe037a3b	-0.12839596
190	0xbb437e80	-0.0029830039
191	0xbe02e310	-0.1278193
192	0x3d8cd840	0.06877184
193	0xbe6263b4	-0.22108346
194	0x3c7225e0	0.014779538
195	0x3dc84eb4	0.097806364
196	0xbdbe409c	-0.09289667
197	0xbdce8144	-0.10083249
198	0xbe2607b4	-0.16213876
199	0x3d8cf7a0	0.06883168
200	0xbe56e2fa	-0.20985022
201	0xbd522f18	-0.051314443
202	0x3c63d3a0	0.013905436
203	0x3d921454	0.071327835
204	0xbe5bc66c	-0.2146241
205	0x3d4ea208	0.050447494
206	0xbdc8de54	-0.09808031
207	0xbcee6f50	-0.029105812
208	0xbe8096cc	-0.2511505
209	0xbf509e8a	-0.8149191
210	0x3d0bb088	0.0341039
211	0xbf0d0c61	-0.55097014
212	0x3e8eac27	0.27865717
213	0x3e63a0aa	0.22229257
214	0x3dda4420	0.10657525
215	0x3d4eb5f3	0.05046649
216	0x3dbc8701	0.092054375
217	0x3cab84af	0.020937292
218	0xbfbf65f1	-1.4952985
219	0x3edb31ec	0.42811525
220	0xbd5260c2	-0.051361807
221	0xbe1a9115	-0.15094407
222	0xbd984450	-0.074349046
223	0x3e84faa8	0.25972486
224	0x3e7520d5	0.23938306
225	0xbd437b21	-0.047724847
226	0xbdbf64e4	-0.09345415
227	0xbe4a8038	-0.19775474
228	0x3e520dbc	0.20513052
229	0xbe14f912	-0.14548138
230	0xbdf7b1b1	-0.12094439
231	0xbe3e5874	-0.1858843
232	0x3cbf58b5	0.023357728
233	0x3e274c97	0.1633781
234	0x3e3986bc	0.18117803
235	0x3e2650a9	0.16241707
236	0xbe89b402	-0.26895148
237	0xbe5e02e9	-0.21680798
238	0xbe15efc0	-0.14642239
239	0xbd844fa1	-0.064605005
240	0xbc31798f	-0.0108322045
241	0xbead18be	-0.3380794
242	0xbda7862c	-0.08179888
243	0xbf04264b	-0.5162093
244	0x3e3b8977	0.18314157
245	0xbbacb749	-0.0052708727
246	0x3df3cc97	0.11904257
247	0xbe35bd48	-0.17747986
248	0xbeb1a8a8	-0.34698987
249	0xbe5a2f35	-0.2130707
250	0xbe5eb63e	-0.21749207
251	0xbdfc54c9	-0.12320859
252	0xbddf022f	-0.10889088
253	0xbece2662	-0.4026366
254	0x3e2d0d7a	0.16899672
255	0x3eba01ec	0.3632959

encoder.convs.3.lin_l.weight f4 [16, 16]
0	0x3de3f3a2	0.11130454
1	0xbddc82db	-0.10767146
2	0x3e6ec1e8	0.23316157
3	0xbe85b88d	-0.26117364
4	0xbbbff605	-0.0058581852
5	0x3e4cee63	0.20012812
6	0x3e8f3e3f	0.27977178
7	0x3d0c965e	0.03432309
8	0x3ddacae0	0.106832266
9	0xbdbf34ee	-0.093362674
10	0xbe5f7ed0	-0.21825719
11	0x3d18f273	0.037340593
12	0xbe4b322a	-0.19843355
13	0x3da15218	0.07876986
14	0x3bf6a85a	0.0075273933
15	0x3e6eac16	0.23307833
16	0xbdb65524	-0.08902958
17	0x3e1771f0	0.14789557
18	0xbd26b5c5	-0.040700693
19	0xbd2a7ce3	-0.041623008
20	0xbe801782	-0.25017935
21	0x3e5e517e	0.21710774
22	0x3ccaa4b0	0.024736732
23	0xbe75d8c1	-0.24008466
24	0x3e25ffb9	0.16210832
25	0x3d6aa7e5	0.057289023
26	0xbcfd0da8	-0.0308903
27	0x3e35ee7f	0.1776676
28	0x3dfa6970	0.12227142
29	0xbd07e00f	-0.033172663
30	0x3ea14d2f	0.315042
31	0x3e732c11	0.23747279
32	0xbcfb3550	-0.03066507
33	0xbcb0e820	-0.02159506
34	0x3d9d2214	0.076725155
35	0xbdb2695c	-0.08711502
36	0x3e1d9830	0.15390086
37	0xbe764c14	-0.24052459
38	0xbe092690	-0.13393617
39	0x3deab150	0.11459601
40	0xbe75b394	-0.23994285
41	0xbda9a418	-0.082832515
42	0xbe081ee2	-0.13293031
43	0x3e0aaebc	0.13543218
44	0x3c4df1a0	0.012569815
45	0xbe35d2b4	-0.17756158
46	0x3e4e4b36	0.20145878
47	0xbde97c84	-0.114007026
48	0xbd4f322c	-0.050584957
49	0x3d756cfe	0.059918396
50	0xbe429d62	-0.1900535
51	0xbd3f48fd	-0.046700466
52	0xbdde035d	-0.10840485
53	0xbdab63b2	-0.08368625
54	0xbdeb9767	-0.11503487
55	0x3e0ab084	0.13543898
56	0xbdfb9984	-0.1228514
57	0xbe455d8b	-0.19273965
58	0x3ddd2b58	0.10799283
59	0x3d672fb8	0.056441993
60	0x3b2b1480	0.0026104748
61	0x3b96b4ec	0.0045992043
62	0x3e638cfc	0.2222175
63	0xbdd7a28c	-0.1052905
64	0xbe64756e	-0.22310421
65	0xbe7c260c	-0.24623889
66	0x3d84bc98	0.06481284
67	0x3dc78de4	0.0974386
68	0x3b678700	0.003532827
69	0xbe54c074	-0.2077654
70	0xbe47f8c8	-0.19528496
71	0xbe2e6f0c	-0.17034549
72	0x3e24cedc	0.16094536
73	0x3d48ac10	0.048992217
74	0xbe0e955c	-0.13924164
75	0xbe7219ee	-0.23642704
76	0x3e1312b6	0.14362606
77	0x3b300e00	0.0026863813
78	0x3e7e779c	0.24850315
79	0xbe51bfbc	-0.20483297
80	0xbe599669	-0.21248783
81	0xbe342ae6	-0.1759449
82	0x3e44efc4	0.19232088
83	0x3dfac3dd	0.12244389
84	0x3d3ffaf3	0.046870183
85	0x3d127df3	0.035764646
86	0xbda02fcf	-0.07821619
87	0xbea97f39	-0.33104876
88	0x3edccf60	0.43126965
89	0xbea156b1	-0.31511453
90	0x3e2fe6ca	0.17177883
91	0xbe24cf56	-0.16094717
92	0xbe17bd5a	-0.14818326
93	0x3c8af188	0.016960874
94	0x3d4a0bd5	0.04932769
95	0x3e79c07e	0.24389836
96	0x3e77d1eb	0.24201171
97	0x3d887ff2	0.06665029
98	0xbdf77a74	-0.12083903
99	0x3d678870	0.0565266
100	0x3e6e573e	0.23275468
101	0xbdd0e919	-0.1020071
102	0x3e635e07	0.22203837
103	0x3da99533	0.082804106
104	0x3e4c2316	0.19935259
105	0x3e1ed078	0.15509212
106	0x3e2add5a	0.16686001
107	0xbe3f85ef	-0.18703435
108	0x3dd37530	0.10325086
109	0xbe3c4f26	-0.18389568
110	0x3d868ea8	0.06570178
111	0x3e254fd9	0.1614374
112	0xbe4038b3	-0.18771629
113	0xbe3c8adb	-0.18412344
114	0xbe4d147e	-0.20027348
115	0x3a1fab32	0.0006090879
116	0xbb845b81	-0.0040392284
117	0xbe48fa04	-0.19626623
118	0x3d32d2d2	0.043658085
119	0xbd423cc6	-0.04742124
120	0x3b8de7e4	0.004330622
121	0x3d82925f	0.06375574
122	0x3d930b9f	0.07179951
123	0x3d8cbe7d	0.0687227
124	0xbe29b42c	-0.16572636
125	0x3d772fdb	0.060348373
126	0xbe10dc9a	-0.14146653
127	0xbe82a7a1	-0.25518516
128	0x3e8d7d5a	0.27634698
129	0xbbc5fb7c	-0.006041942
130	0x3e384530	0.17995143
131	0x3ddd1a31	0.10796011
132	0xbd83f806	-0.06443791
133	0x3e47fe68	0.19530642
134	0xbc62ab87	-0.013834841
135	0x3e2bb055	0.16766484
136	0x3dd25927	0.10270911
137	0x3cf399d4	0.029736437
138	0x3e1911f0	0.14948249
139	0xbe7926ad	-0.2433116
140	0x3e5fb750	0.21847272
141	0x3d45f8b6	0.048332892
142	0x3e3b0bb9	0.1826619
143	0xbdc12215	-0.09430329
144	0xbd0c05ee	-0.034185342
145	0x3e207b64	0.1567207
146	0xbe5598a6	-0.20859012
147	0x3c830452	0.015993271
148	0x3e687f5a	0.22704831
149	0xbe6c4819	-0.23074378
150	0x3befd614	0.0073192213
151	0x3d52cb99	0.051463697
152	0x3e70f5b2	0.23531225
153	0xbd576a1b	-0.052591424
154	0xbe637b1a	-0.22214928
155	0xbe190402	-0.14942935
156	0x3d99aa44	0.07503179
157	0xbe5a2850	-0.2130444
158	0xbe8c3a94	-0.27388442
159	0xbd286d91	-0.041120116
160	0x3d8656e0	0.06559539
161	0xbe20874a	-0.15676609
162	0xbdc6dd38	-0.09710163
163	0x3e0c086e	0.1367509
164	0xbe2d16cc	-0.16903228
165	0xbe5292c2	-0.20563796
166	0xbd9abe48	-0.075558245
167	0x3e4db110	0.20087075
168	0xbd961c64	-0.07329634
169	0xbe2d8842	-0.1694651
170	0xbe359c5a	-0.17735425
171	0xbd70a928	-0.05875507
172	0x3e35d3c0	0.17756557
173	0x3dc0710c	0.09396562
174	0xbdaaf34c	-0.083471864
175	0xbe5e1610	-0.21688104
176	0x3e3bf6c2	0.1835585
177	0x3e543c7c	0.20726198
178	0x3d2e24cc	0.04251556
179	0x3e351bc2	0.1768637
180	0x3e913582	0.28361136
181	0x3e8b99e6	0.27265853
182	0x3e60b98e	0.21945783
183	0x3e77060a	0.24123397
184	0x3e3fd1d0	0.18732381
185	0x3eaa682c	0.33282602
186	0x3d92f648	0.07175881
187	0x3e7e5f2f	0.24840997
188	0x3d9c3430	0.076271415
189	0xbe71fcea	-0.23631635
190	0xbe01dbd3	-0.12681513
191	0xbf233b98	-0.6376281
192	0x3dfc8d11	0.12331594
193	0xbe7dbdc3	-0.2477942
194	0xbe5a6c2b	-0.21330325
195	0xbe1d695e	-0.15372226
196	0xbd75b93f	-0.059991118
197	0xbd8f57e6	-0.06999187
198	0xbe925a38	-0.28584456
199	0x3db8dde3	0.090266965
200	0x3d7beb88	0.061503917
201	0x3e52e7c5	0.20596226
202	0xbe36b184	-0.17841154
203	0xbe64ea48	-0.22354996
204	0x3d760f70	0.060073316
205	0x3e183311	0.1486323
206	0x3dfba622	0.12287547
207	0x3d652496	0.055943094
208	0x3e504501	0.20338823
209	0x3e75e932	0.24014738
210	0xbd0543a7	-0.03253522
211	0xbe149fe9	-0.14514126
212	0xbdb23658	-0.087017715
213	0xbd76256d	-0.060094286
214	0x3e2c0009	0.16796888
215	0x3eae13a1	0.3399935
216	0x3e70fdf7	0.2353438
217	0xbd44f475	-0.048084695
218	0x3d82b174	0.06381503
219	0x3ea8e221	0.32985023
220	0x3bc96ac0	0.006146759
221	0x3c9f1857	0.019420786
222	0xbcc0d349	-0.023538249
223	0x3e6c09fa	0.23050681
224	0x3e37ba1b	0.17942087
225	0xbda54b49	-0.08071
226	0xbd4aa8ca	-0.049477376
227	0x3e020991	0.12698962
228	0xbd97ce25	-0.07412366
229	0xbde5fcc5	-0.112298526
230	0x3d17a70f	0.037024554
231	0x3e3f0f03	0.1865807
232	0x3d5b3fef	0.05352777
233	0x3d56bdc6	0.052427076
234	0xbe5d6ff2	-0.21624735
235	0x3e296b2b	0.16544788
236	0x3c3aeb60	0.011408657
237	0xbdfa3ce5	-0.12218646
238	0xbe85ecbc	-0.26157176
239	0xbe49b43d	-0.19697662
240	0xbe56e48a	-0.20985618
241	0x3c9842f2	0.01858661
242	0x3e33b11c	0.1754803
243	0xbd9d1b37	-0.076712064
244	0x3df78c4c	0.120873064
245	0xbd56e4e3	-0.052464377
246	0xbe145a26	-0.14487514
247	0xbe80ab88	-0.25130868
248	0xbd6a4036	-0.057190143
249	0x3e4dd7e5	0.20101888
250	0x3e1c899c	0.15286869
251	0x3e520040	0.20507908
252	0xbccea1e0	-0.025223672
253	0x3dd1141c	0.10208914
254	0xbd80c5a4	-0.06287697
255	0x3e53cf9a	0.20684662

encoder.convs.3.lin_l.bias f4 [16]
0	0xbe2bc6cb	-0.16775052
1	0xbe80fc22	-0.25192362
2	0xbe757554	-0.23970538
3	0x39bf353f	0.0003647003
4	0xbe474d96	-0.1946319
5	0xbd4c9a72	-0.049951978
6	0x3db7a345	0.08966688
7	0x3e986d9c	0.29771125
8	0x3e82d331	0.2555175
9	0x3e8483e7	0.25881884
10	0xbd7d7228	-0.061876446
11	0x3e08f985	0.13376434
12	0xbe874723	-0.2642146
13	0x3e53700b	0.2064821
14	0x3dc8f9e6	0.09813289
15	0x3e37a0ca	0.1793243
