ARES-4573/checkpoints/model_GAE_UNSW-NB15.pt (torch, 19486 bytes, 15 tensors)

encoder.convs.0.lin_l.weight f4 [16, 32]
00000000: c306 aa3d a854 8f3c 23da 143d dee5 313e
00000010: 9818 cfbc e471 5a3e 88df 45bd 6240 593e
00000020: 8918 eb3d ad74 f43d 992a 023c cd17 5939
00000030: 52bb a5bd 9a19 f8bd d148 303e 4a23 613e
00000040: 9fe7 ca3d 0a1a aabc 9699 b23d 420e 2b3d
00000050: 00dd d5bd b6dc bebd 34c9 e03d 58d6 53bb
00000060: cca1 cf3b bb63 6ebd 2e60 013e 7137 27bd
00000070: 4e44 04bc e764 123e f78f 5f3e d1eb 523e
00000080: 7a84 8e3d fbc4 cd3b f80c 083e 180c 203e
00000090: d388 a23d 79d9 543d a299 2e3d 5e5c 933c
000000a0: a1f5 ee3d 3dd3 4c3d fc9f 18be 24dc d5bd
000000b0: 7063 24be 0e9d 59bd 1008 143c 557e 99bd
000000c0: a17a 26be c674 ebbd 9a14 9a3d 8f05 4cbc
000000d0: bec8 f2bc 4175 ea3c e9f2 18bd 254d c5bd
000000e0: af22 a6bd 2591 93bd 6270 29be d3f0 26be
000000f0: 992b 89bd e0db 873d 8207 313e 71c8 9cbb
00000100: c73b 7d3d 1fa8 e8b9 3f7b 4cbe 00df 16be
00000110: 92f4 dbbd f881 51be 32d4 0bbd b07d 8abc
00000120: 9d6b 49be 15d1 c4bd d0fa 5bbe c5e7 ef3d
00000130: ca07 3b3d 0e98 00be c29e be3d 6f9c 2dbe
00000140: e4f5 b73d 1ef9 01be 656a edbb 10f6 823d
00000150: 2ebf bf3c fc8a 83bc e05d a2bd 50e8 6bbd
00000160: 9582 bc3d 2eef eebd 3315 eebd 27b5 14bd
00000170: 0c24 14be 90bf 00be 53a8 38bd 62a9 973d
00000180: c5d2 283d 18ab 00be 53fa b83d 59f6 a6bd
00000190: f8f1 ee3c 60f7 c4bb d5ee e03d 2dfd 64bd
000001a0: f3bb b4bd cb80 53bd 15b8 72bc 477b ccbd
000001b0: 1034 d73d a8bb e3bd 4224 3d3c 0bcc 1bbe
000001c0: 3e2b 1dbd 0347 5fbd a277 b2bd 07a1 9b3d
000001d0: 0873 32be 2ef8 0a3b 09ff 06bd 6aea ddbd
000001e0: 2dea f73d 31a5 c13d 6a8c 173d f0b2 54bc
000001f0: 6308 a73d 76a8 c0bd e31d 24be 10e4 1c3e
00000200: e8d2 93bd b44b f13c 0f29 22bb e13e 123e
00000210: 73e8 2d3e ffdf ffbd 8b45 01bc 7ce7 18be
00000220: d688 dd3d 85af 263e 6aaf 96bd c746 d53c
00000230: e705 38bd b402 48bd 1496 093e 8856 2ebe
00000240: 6e7e f7bc b284 dcbb 54cd 25be e391 883d
00000250: 0b22 e53d 63f1 15be 3e90 7f3d b6e2 8ebc
00000260: 4072 233e 5dbc 30be d488 133e adcb 92bd
00000270: 6f72 123e 99f9 c4bd 6d17 c43c cf50 103d
00000280: dd8b cf3d 24a2 983d 3546 b93d 4d89 3abd
00000290: eabe 17be 7da7 cdbb 7495 1c3e c00d 143e
000002a0: 0214 e6bd 4afe e73d 8fc5 913d 2923 25bd
000002b0: 5d8f b43d d59f 80bc b035 583c 3049 febd
000002c0: 1791 f6bc 8aac 283e a939 cf3d bfd2 1abe
000002d0: 1e40 96bc 688e d53d e5fc abbd 0d9e f9bc
000002e0: 0f87 a33d f49b 0f3e d9b4 1b3e 2f4d 0bbe
000002f0: 1019 33be 4acc ee3d 7a65 b4bc 80e7 1a3e
00000300: 3167 583e eef5 893c 35c6 0b3e e5d0 143e
00000310: c8fd b83c d28d 7a3e 2889 cd3d ca00 e63c
00000320: 99db 9abd bec9 683e 512b b7bd 4ab2 613e
00000330: ff1f c43c a819 5b3d 20bc e03d d9ed 843e
00000340: 4ffe f9bc a595 22bd cbb8 443e 288f 8ab6
00000350: 8963 aa3c a58f 403e 1a11 4e3c 55bc 433e
00000360: 9d83 8a3c a027 633e 341f 863e abe7 e13d
00000370: 9735 dd3c e6bd 3d3e c882 0a3e 6466 b13d
00000380: 92d1 1bbd 05ec 52be 91d2 08be f35c 7ebe
00000390: 214b 69be 593e 50be 9245 3cbe 8293 f2bd
000003a0: b999 7fbd fbf5 b2bd 6a4b 8abe 68ca 18bd
000003b0: 425c 9cbd 2032 07be 47b2 34be e872 97be
000003c0: eb3e 9abe 478b 47be 748c a7be ebf2 08be
000003d0: 7a62 b6be 2bef b4be 07e1 8cbe 1397 c0bd
000003e0: cbda 6abd 224d b0be a862 9dbe 1f4b 20be
000003f0: b971 69be 1466 aebe 2b2a 16be 4190 afbe
0.08302071 0.017496422 0.036340844 0.17372844 -0.025280282 0.21332508 -0.04830888 0.21215966
0.11479289 0.11936317 0.007944726 0.00020703599 -0.08092369 -0.12114258 0.17215277 0.21986118
0.099074595 -0.02076437 0.087207004 0.041761644 -0.10442543 -0.09319441 0.109758765 -0.0032323804
0.0063364264 -0.05820058 0.12634346 -0.040824357 -0.008072926 0.14296304 0.21832262 0.2059777
0.06958862 0.0062795854 0.13286197 0.15629613 0.079362534 0.05196521 0.042626984 0.01798838
0.11667944 0.05000614 -0.14904779 -0.10442379 -0.16053557 -0.053128295 0.009035125 -0.07494799
-0.16257717 -0.11496882 0.07523461 -0.012452497 -0.029636737 0.028620364 -0.037341032 -0.09633855
-0.08112084 -0.072054185 -0.16546777 -0.16302805 -0.06697769 0.06633735 0.1728802 -0.0047846367
0.061824586 -0.00044375748 -0.1996889 -0.14733505 -0.107400075 -0.20459735 -0.034137912 -0.016905636
-0.19669957 -0.09610192 -0.21482396 0.117141284 0.045661725 -0.12558004 0.093076244 -0.16954206
0.08982447 -0.12692687 -0.007245349 0.06394589 0.023406591 -0.016057484 -0.079280615 -0.057594597
0.09204594 -0.11666714 -0.11625137 -0.036305573 -0.14466876 -0.12573075 -0.0450824 0.07405354
0.04121663 -0.12565267 0.090321206 -0.08152456 0.029168114 -0.0060109347 0.109830536 -0.05590551
-0.08824911 -0.0516365 -0.014814396 -0.09984451 0.10507977 -0.11119777 0.011544289 -0.15214555
-0.038371317 -0.05451108 -0.087142244 0.07599073 -0.17426693 0.0021205056 -0.032958064 -0.108357266
0.12105212 0.09455336 0.036999144 -0.012982115 0.081558965 -0.094071314 -0.16027026 0.15321374
-0.072179615 0.029455043 -0.002474371 0.14281799 0.16983204 -0.12493896 -0.0078901155 -0.14932054
0.10817115 0.16277893 -0.07357676 0.026034726 -0.044927504 -0.048830703 0.13436157 -0.17025197
-0.030211654 -0.0067296857 -0.16191608 0.06668451 0.11188134 -0.14642863 0.06239342 -0.017442089
0.15961552 -0.17259355 0.14407665 -0.07167754 0.14301465 -0.096179195 0.023936952 0.035233315
0.10134099 0.07452801 0.09046594 -0.045541096 -0.14818922 -0.0062760697 0.15291387 0.1445837
-0.11234285 0.11327799 0.071177594 -0.040316734 0.08816407 -0.015701214 0.013196394 -0.12416303
-0.030098481 0.16472068 0.1011842 -0.15119456 -0.01834112 0.104275525 -0.08397845 -0.030470872
0.07984745 0.14024335 0.15205707 -0.13603662 -0.1749003 0.11660059 -0.022021044 0.15127373
0.21133114 0.016840901 0.13649829 0.14532812 0.02258195 0.24468163 0.10035926 0.028076548
-0.07561416 0.22733209 -0.08943809 0.22040668 0.023941038 0.053491265 0.10973382 0.25962713
-0.030516772 -0.039693493 0.19211118 -4.129386e-06 0.020799415 0.18804796 0.0125773195 0.19114812
0.016908461 0.22183084 0.2619568 0.11030515 0.027003093 0.18529472 0.13526452 0.086621076
-0.03804166 -0.20597847 -0.13361575 -0.24840145 -0.22782566 -0.20336284 -0.18385914 -0.11844541
-0.06240246 -0.08738323 -0.2701066 -0.037302405 -0.07634784 -0.13202715 -0.17646132 -0.29579854
-0.30126128 -0.19486724 -0.32724345 -0.13373916 -0.35622007 -0.3533872 -0.27515432 -0.09403815
-0.057337563 -0.34433848 -0.3073933 -0.15653656 -0.22797288 -0.34062254 -0.14664523 -0.34289744

encoder.convs.0.lin_l.bias f4 [16]
00000000: a658 563d fa83 ccbd ef9b d4bd 95a3 463e
00000010: 5a6f b6bd e055 0dbe 9a1f 993d 364a debd
00000020: 9160 563e 7300 b2bd b591 babd bccf 86bd
00000030: b80b ff3d 6110 143d afa9 6b3d 5441 1e3b
0.052330635 -0.0998611 -0.103813045 0.19398339 -0.089079574 -0.1380229 0.07476731 -0.10853998
0.20935275 -0.08691492 -0.09109823 -0.06582591 0.12453407 0.036148433 0.05753487 0.0024147825

encoder.convs.0.lin_r.weight f4 [16, 32]
00000000: 122a 26be cfa3 1c3b 3b45 d7bb e0f7 0d3e
00000010: 124d 41bd 2b00 35be d96a 5b3d 4670 4abd
00000020: 5503 513d 483a 2e3d 9176 563d 3971 b23d
00000030: 7cd0 09be 3b5b 1ebe 8892 1e3e b28b 1a3e
00000040: 34bc a4bd f169 223e 889b c63c 0be7 69bd
00000050: f9e4 d9bd 0d7c d6bd a456 063e f959 f4bd
00000060: ea51 aabd 544b 293e e8ad c6bd 1c33 273e
00000070: 82dd 8b3d b1c9 9d3d a281 f23c 7242 2dbd
00000080: e269 a13d 4bab 573d be84 c5bd a11f 15be
00000090: ef1e 13be 8443 afbc 2316 4f3d c078 e5bd
000000a0: d966 053d e98d d03d c4ef d43d 2449 87bd
000000b0: f8fb 253d cc7f 20be 463b 023e 98ab 10be
000000c0: bbc0 203c 0f77 63bd 1917 16be 46e8 1cbe
000000d0: 9494 e8bd ff69 03be 1a24 0a3e ab72 debc
000000e0: 61b5 f1bd dc25 273a 796f a3bd 08b4 d1bc
000000f0: 28ad 1b3e 1fc2 1fbe 4041 1dbe 2f74 313d
00000100: 89ac 323e 6bf5 eebd ffbe da3d 15d9 673e
00000110: 395b bb3c df3e 59bd be4e 0d3e 89bf 1a3e
00000120: 7ed6 063d 9445 bebd c316 6e3d ca73 81bd
00000130: dd11 ccbd 5d7c 253e 75d3 303e cc5a fa3d
00000140: 1068 bebd 8604 4e3e 991d 393e df13 503e
00000150: 40e1 213d ced0 973c 1bb1 dbbd 2715 3a3e
00000160: 3e0a 2c3d 697f 00be e97e 653e 78c6 e83c
00000170: 2160 213e 7e42 ce3c c331 c03c d2bc 533e
00000180: 0960 143e aed0 acbd 20fd 6e3b 1812 f23d
00000190: c0e7 d83b af2b 0abd 38ce 1f3e 3a45 1f3e
000001a0: 66c7 49bd 5622 073e 51cd 9ebc 7746 5d3b
000001b0: 9249 0f3e 5f74 7fbc 086d 9fbc 8c06 25bd
000001c0: a90e 19be e73d 0a3e 37f0 0fbe 01dd 0cbe
000001d0: 8aa1 b43c 20e1 a7bc df92 a53b a720 453c
000001e0: 607d 313e 8dad 31be 1784 ddbd acc3 fb3c
000001f0: 4512 23be 83ee 10be bec8 083e 5e57 883d
00000200: 5b30 79bd 507d 263d 7e1a cc3c 26da bfbc
00000210: 4b2c 103e 9543 c6bb 5a8d f43d 110d 13be
00000220: e164 9fbd e2c1 c33c ae18 b53d b699 9fbd
00000230: 90e3 f83d e352 1cbe 2b65 96bd d3f0 013e
00000240: 4a67 0dbe 2eeb 2fbe ec59 4fbd f8f5 1cbe
00000250: e3cd 3e3d 24e5 17bd 26ba 6dbd 5eeb bb3d
00000260: 424c 8c3b d458 29be 17af 31be a314 d73d
00000270: b3d5 8f3d c4a7 ba3d 41e3 1fbe 3a83 24bd
00000280: 276f 2e3e 9afd 253e ead6 0e3e 8fd2 3b3e
00000290: cdcb 13bd 94b8 f0bd ea12 f33d 8831 073e
000002a0: bb8f 0bbd 3a23 383b 08f0 303c 60cd 0cbe
000002b0: 64ce 5cbd 4756 16bd f6b4 ae3d d029 04bd
000002c0: a7f2 ca3d 1bc6 363e ec7d 96bc f2c6 c2bc
000002d0: 15d8 bbbd f0bf be3b 66e1 11be bd21 0e3e
000002e0: 44ed 2f3e 3c1c 883d 49fa 3e3e b1e9 dd3d
000002f0: d7c4 0b3e 70f8 3a3e 9c5c d1bd 675f b23b
00000300: e45d 1fbc 09d7 fcbd f35f 4ebe 45ce 06be
00000310: aeb3 27be e174 0dbe 08de 57be 2292 04be
00000320: 4f09 ce3c dd6a 1dbe 9bd7 5bba 39d5 62be
00000330: a808 40be c3d1 6cbd cd56 b33d 2524 75be
00000340: dc9d 533a ac3a 39bd fee0 61be 3b66 51be
00000350: d2c4 533c b06a 28be 568f 433d 2626 4bbe
00000360: eb20 6b3d e050 2abe 176c 94bb b470 bebc
00000370: 7c02 5cbe 9ae6 2cbe b2a1 f3bd f5c8 9abd
00000380: 1667 533e 565e 3e3d cfa2 143e 2977 be3c
00000390: acd4 0f3d 9e21 703e 5bd9 903d 8c73 12bd
000003a0: 3c9b 013e 1065 c03d cf76 2d3e 6649 ed3c
000003b0: a5cc 013e 21cb 023d 559e 493c de61 233e
000003c0: 05f4 313e c77d 1b3e 2d9b 903e 89c8 0a3e
000003d0: 5d65 093e 84ac c43d 3807 54bd 67cd 403e
000003e0: f58e 833e bef0 0b3e 0a64 99bc dc44 8e3e
000003f0: 368e 223e 64ef 7c3e 619f 483e 3d8e 163e
-0.16226986 0.0023901348 -0.006569532 0.13864088 -0.04719264 -0.17675845 0.053568695 -0.04942348
0.05102857 0.04253605 0.052359167 0.08713002 -0.13458437 -0.15464489 0.15485585 0.15092352
-0.080437094 0.15860726 0.024244085 -0.057105105 -0.10639376 -0.104728796 0.13118988 -0.119312234
-0.08316405 0.16532642 -0.09701139 0.1632809 0.06829359 0.07704485 0.02960283 -0.042299695
0.07881524 0.052653592 -0.09644459 -0.14562847 -0.14367269 -0.021394499 0.05055822 -0.11204672
0.032568786 0.10183317 0.10397294 -0.06605747 0.0405235 -0.1567375 0.12717924 -0.14127958
0.0098115755 -0.055533465 -0.14657249 -0.1532298 -0.11356464 -0.12833403 0.13490334 -0.027154287
-0.118021734 0.0006376186 -0.07980246 -0.02559854 0.15202773 -0.15601395 -0.15356922 0.043323692
0.1744863 -0.116679035 0.10680961 0.22641404 0.022870647 -0.053038474 0.13799569 0.15112127
0.0329194 -0.09290615 0.058127176 -0.06320913 -0.09964345 0.16160722 0.17268164 0.122243494
-0.09297192 0.20118913 0.18077697 0.2032008 0.039521456 0.018532183 -0.107271396 0.18172131
0.042001955 -0.12548603 0.22411694 0.02841495 0.15759327 0.02517819 0.023461228 0.20677498
0.1448976 -0.0843824 0.0036466792 0.11819857 0.0066194236 -0.033733066 0.1560601 0.15553752
-0.049262427 0.13196692 -0.019385012 0.0033763924 0.13992909 -0.01559171 -0.01946117 -0.040289447
-0.14946999 0.13500176 -0.14056478 -0.13756181 0.022049684 -0.02049309 0.005052909 0.012031711
0.17332983 -0.1735136 -0.1081621 0.030732952 -0.15924938 -0.14153485 0.13357827 0.06657289
-0.06083713 0.04064685 0.024914976 -0.023419451 0.14079396 -0.006050537 0.11941023 -0.14360453
-0.07782913 0.023896161 0.08842598 -0.0779299 0.12152779 -0.15265994 -0.07343515 0.12689523
-0.13808933 -0.17179558 -0.050622866 -0.15328205 0.046583068 -0.03708376 -0.058038853 0.09175752
0.0042815516 -0.16537791 -0.17351948 0.10501983 0.07023182 0.0911403 -0.15614034 -0.04016421
0.17034589 0.16210023 0.1394917 0.1834204 -0.03608303 -0.117539555 0.11868842 0.13202488
-0.03407262 0.0028097169 0.010799415 -0.1375022 -0.053907767 -0.036703374 0.08530609 -0.032266438
0.099095635 0.17849009 -0.018370591 -0.023776505 -0.09172074 0.0058212206 -0.14246139 0.13880058
0.17180353 0.0664601 0.18650164 0.10835589 0.13649307 0.18258834 -0.10222742 0.0054435018
-0.009726975 -0.12345702 -0.20153789 -0.13164623 -0.16377136 -0.13814117 -0.21080792 -0.1294637
0.025150923 -0.15372796 -0.0008386315 -0.2215165 -0.18753302 -0.057817232 0.0875679 -0.2393957
0.0008072534 -0.04522197 -0.22058484 -0.20449154 0.012925344 -0.16446948 0.047744118 -0.19838771
0.05740444 -0.16632414 -0.004529487 -0.0232471 -0.21485323 -0.16884843 -0.11896075 -0.07557861
0.20644793 0.046476685 0.14515232 0.02325018 0.03511493 0.23450324 0.07072707 -0.035754725
0.12656873 0.09394276 0.16939853 0.028965663 0.12675722 0.031932 0.012305816 0.15955302
0.17378242 0.15184699 0.2824339 0.1355306 0.13417573 0.09603217 -0.051764697 0.18828355
0.25695005 0.13666055 -0.01872446 0.2778691 0.15874562 0.24700695 0.19592048 0.14702697

encoder.convs.1.lin_l.weight f4 [16, 16]
00000000: 4903 383c d899 783e 4ff9 6a3d 0f77 bdbd
00000010: f420 df3d 6fc6 a0bd 8743 b03e d7a4 71bd
00000020: 30e3 f1bc 238d 5cbe 9178 08be 1e28 a9bd
00000030: 8930 5bbd 4bc7 1bbe 67e0 51bd 1c39 12be
00000040: 8ae7 29be c04c 5d3c f604 4cbe af54 093e
00000050: a993 223e 4c8f 5d3e daaf 863d 901e 21bd
00000060: fa05 6dbd af32 ffbd 6f75 1d3e dd3e 033e
00000070: 2618 2f3e f3c6 80bd 80fa 3ebe 54c5 aa3d
00000080: 73ee 403e d86c 22bd 9796 223e 204f f43d
00000090: e23c c03d d2e8 71bd ca7a eabd 05d4 dc3b
000000a0: 6780 11bd bd8b 39bd 577a 85be 99fe 30be
000000b0: aa7d 2ebe 3b07 2c3e 6531 ad3d d826 69be
000000c0: 895a 4ebe 7e34 16be 6f0f 553e cfb5 063d
000000d0: a40e 4d3e 8071 6cbe 3625 6f3e caa5 323e
000000e0: 0011 8e3c ec6f efbd 48b2 c83d 928e 09be
000000f0: 6c40 d4bd a90a 853d 8ce3 61be 2831 793d
00000100: 2152 0ebd 0092 183b 071c b1bd 7741 d9bc
00000110: b81c 1fbe 666e 913d 13ca 23be 8e8e ceb9
00000120: 967c 4bbe dced 6f3e 2fef 4b3d 53d3 7e3d
00000130: 970d f23d e4ca 453b 96b4 07be 6018 79be
00000140: 9b7a 493e c609 1b3e 1caf fcbc 7c44 f53b
00000150: 3c55 25bc ad3d 2abd 49fe ed3e 6631 82be
00000160: c69d 1bbe 8ea1 11bd 4847 19be ef75 1abe
00000170: 4a84 323e 7f25 1f3d dea9 5d3e 520f 103e
00000180: b8ce 4a3e 5e96 3f3e fa6c 88bd 9397 ccbd
00000190: 96fe 63bc 479a 48be 7cb4 113e 8c9c 68be
000001a0: b6c9 57bd cf9c 503e d720 c23d b0b9 133e
000001b0: 7785 873e ae6a 3fbe a9fd 393d 9074 00bd
000001c0: 9161 193e 6e81 163e eb96 1dbe ded5 853e
000001d0: e03a 2b3c f749 0fbd d81e 223f 1cef c93e
000001e0: c4aa 8f3d fc3b 133e f826 64bd 806f fabb
000001f0: 1c1d a13e c3b9 b4bd 2b13 833d 582c 6cbd
00000200: 7041 cdbc 4022 763d 9c6b cbbd 2647 073e
00000210: 7eff 7a3e cefa 4b3e 1258 613e b80c 8ebd
00000220: 40e8 033c a4bd abbd f06f f9bd f059 65bd
00000230: 72cf 1b3e cc65 6fbe 62ac 07be e078 033e
00000240: 3132 083e 78ed 82bd 4ee1 d2bc 82e4 a8bd
00000250: 3107 343e f1a4 853e 5c33 8abe e719 913d
00000260: de95 6bbe 51b8 2fbe 8b0b 1f3c 8ebf a8bd
00000270: 843d 89be 9e89 6a3e d269 1a3e 30c8 9d3c
00000280: c9cf b9bd 8057 733b b310 343e 161a 8cbd
00000290: 0008 9c3c fe90 723d 0e4e 0e3e 54fa db3d
000002a0: 92cb 04be 083e c93d 656c d83c 5d8f c03c
000002b0: da4a 67be 4705 523e 18b1 b33d 3027 f03c
000002c0: 54bb c43d 6051 7ebd 86cc 37be 10e0 85bd
000002d0: 4024 65be e666 5d3e 9424 db3d f05b 863d
000002e0: e426 2dbe 0ec0 26be f201 123e 2669 4fbe
000002f0: 989d 463d 9c87 3f3e a635 5fbe 30b8 343e
00000300: 962e 93be 48e1 46bd 15db e83d c2e3 083e
00000310: 087f 683e 1b86 113e 1dee 85be 1809 2fbc
00000320: e75d 80be d6ba 113e b894 973d ac43 453e
00000330: 9780 1c3d df2f dc3d 506d 9ebd d89a 4dbe
00000340: 4a60 28be 008f 66bb 56ea 65be ce66 593e
00000350: d4b2 19be 823e 42be 844f 793e b223 24be
00000360: 3c8c e4bd 4022 8a3b 6045 a33d 348d b7bd
00000370: e007 093e 72e2 23be b0cf 463d 6cde 7bbe
00000380: aa1a 6abe fc42 b53d 0bcb 153e b457 0abe
00000390: 20df bf3d 28ff 05bd 7284 1e3e 7a02 9a3e
000003a0: 99ec 80bd bf45 523d 6141 53be 2ebc 0c3e
000003b0: c5e2 263e e91f 633e 3512 0cbe 1827 cebd
000003c0: 9528 06be 08b0 1b3d 5485 92be 0edf 86be
000003d0: 3157 d3bd 1fab 5a3e 1488 e43d 35ff cebe
000003e0: 6f12 fcbd 1658 51be 9e6c 29bd 7111 4bbb
000003f0: b49d 16be 6ed1 6ebe 0cf9 a6bd e0f8 6e3c
0.011231252 0.24277437 0.057366665 -0.09251224 0.10894957 -0.07850348 0.3442652 -0.058995094
-0.029527277 -0.21538214 -0.13327242 -0.08259605 -0.053513084 -0.15212743 -0.051239397 -0.14279598
-0.16592231 0.013507068 -0.19923767 0.1341121 0.1587664 0.21636695 0.0657651 -0.039335787
-0.057867028 -0.12460839 0.15376829 0.12816949 0.17099056 -0.062879466 -0.18650246 0.083384186
0.18840961 -0.039654583 0.15877758 0.119291544 0.093866125 -0.059059925 -0.114492014 0.006739142
-0.035522845 -0.04529928 -0.260699 -0.17284621 -0.17040125 0.16799633 0.08456687 -0.22768724
-0.20151724 -0.14668462 0.20806669 0.03288823 0.20025116 -0.23090172 0.23354039 0.17446056
0.01734209 -0.11691269 0.097996294 -0.13433293 -0.1036385 0.06496174 -0.22059458 0.060837895
-0.034746293 0.0023280382 -0.08647924 -0.026520474 -0.15538299 0.07101135 -0.15995054 -0.00039397593
-0.19871745 0.2343058 0.04978865 0.062213253 0.11818998 0.0030180747 -0.13252482 -0.24325705
0.19675677 0.15140447 -0.030845217 0.0074849706 -0.010091122 -0.041562725 0.46483067 -0.25428313
-0.15196905 -0.03555446 -0.14968598 -0.1508405 0.17433277 0.03885412 0.2164683 0.14068344
0.1980542 0.18709704 -0.06661411 -0.09989848 -0.0139156785 -0.19590102 0.14229006 -0.22715968
-0.0526826 0.20372318 0.0947892 0.14426303 0.26469013 -0.18693039 0.045407925 -0.031361163
0.14978625 0.14697811 -0.15389602 0.2613973 0.010451049 -0.034982648 0.63328314 0.39440238
0.07014993 0.14378351 -0.055701226 -0.0076426864 0.3146752 -0.08824494 0.064001404 -0.057659477
-0.025055617 0.060091257 -0.09932634 0.13210735 0.24511525 0.19919893 0.22006252 -0.0693602
0.008050978 -0.083857805 -0.121795535 -0.055993974 0.15215853 -0.23378676 -0.13249353 0.12839079
0.13300397 -0.0639295 -0.0257422 -0.082467094 0.17580868 0.26102403 -0.2699231 0.070850186
-0.23006389 -0.17160155 0.009707342 -0.08239661 -0.26804745 0.2290406 0.1507943 0.019260496
-0.09072835 0.0037131011 0.17584495 -0.06840913 0.019046783 0.059220307 0.13896963 0.10741106
-0.12968281 0.09826285 0.026418874 0.023505861 -0.22587147 0.20509826 0.08774012 0.029315561
0.096060425 -0.062089324 -0.17949113 -0.06536877 -0.2237711 0.21621284 0.10700336 0.065605044
-0.16909367 -0.162842 0.14258555 -0.20254955 0.048490137 0.18704075 -0.21797809 0.17648387
-0.2874648 -0.04855469 0.113699116 0.13368133 0.22704709 0.14211313 -0.2615823 -0.01068332
-0.25071642 0.14231429 0.07401413 0.19264096 0.03820857 0.10751318 -0.077356935 -0.200786
-0.16442981 -0.003518045 -0.22452673 0.21230623 -0.15009624 -0.18969157 0.24346739 -0.16029242
-0.1115956 0.0042155087 0.079722166 -0.08962479 0.1338191 -0.16004351 0.04853791 -0.24596566
-0.22861734 0.08850667 0.14628236 -0.13510019 0.093687296 -0.03271404 0.15480211 0.30080014
-0.062951274 0.051336046 -0.20630409 0.1374366 0.16297443 0.22180142 -0.1367882 -0.1006605
-0.13101418 0.038009673 -0.28617346 -0.26342052 -0.10319365 0.2135434 0.11158767 -0.40429083
-0.123082034 -0.20443758 -0.04136335 -0.0030985738 -0.14708596 -0.23322079 -0.08152971 0.014585704

encoder.convs.1.lin_l.bias f4 [16]
00000000: 0b39 8a3e df88 b13d 4d56 7abe 33e1 84be
00000010: 7e09 633d 5128 693d 0251 bb3d a913 8cbd
00000020: 00c7 46bc 960a 8abe 8916 13be 8e0a 17be
00000030: 07da d0bc 9094 abbc 7b9c 0b3e 60f4 553e
0.26996645 0.08668684 -0.24446984 -0.25953063 0.055428974 0.056923214 0.091463104 -0.068396874
-0.012132406 -0.269612 -0.14364065 -0.1475012 -0.025494589 -0.020944864 0.13633911 0.20894003

encoder.convs.1.lin_r.weight f4 [16, 16]
00000000: 777f 593e f0d0 743d db59 65bd 395b 8b3e
00000010: 60c9 36be 721b 91be da3e ba3d e26e 853e
00000020: 0064 923e 9817 c3bd e533 1dbe 224d 69be
00000030: 6457 a13e 2327 cabd e378 403e 5c08 b5bd
00000040: 0854 623e 520b 253e 2ae9 213e 79d7 043e
00000050: 60b6 4dbe ccc6 c33c 0615 15be 9033 4ebd
00000060: 08ea 123e f981 f5bd a3a9 213e a197 983b
00000070: f172 f9bd 9594 03be 5415 80be d49f af3d
00000080: 11b0 98bc 18ed 633e 10ca 983d ce91 dd3c
00000090: 64df 9dbc 7ee8 f33d f5e5 20be f891 323e
000000a0: 6cce 04be 0b11 1b3e 34ea 3c3d 74af ee3d
000000b0: 475a bfbd bc12 d43d 16d5 5b3e 7094 1d3d
000000c0: ecdc 143e 0864 6abe a4b0 3bbd e87d 5ebe
000000d0: 006f 923c 6284 933c d093 903d 24f0 d9bd
000000e0: c743 b63d 146f d7bd ec3f 82bd 88fd 3f3e
000000f0: 5698 6bbe 0d29 b43c 9598 79be 5806 dc3d
00000100: 0425 4ebe be50 70be 1055 093b 2c4d 8e3e
00000110: 4571 073e 79a2 373e 1d73 85bd 3bd5 b63e
00000120: ba62 14be 65e6 4bbc 800f 60be e884 543c
00000130: 3a4c 513d 9e8d 56be 9340 703e c0a7 403d
00000140: e5d0 853e cc68 dcbd 2e83 dbbc 6c02 f9bd
00000150: 9753 523e 2de4 16be 27b8 933e 7df4 15bf
00000160: 2275 7a3e 5520 75be 876e f0bd 6bc1 01be
00000170: f43c b93d 41be 9f3c df99 dc3d 4493 653e
00000180: ffd3 ed3d b4e1 f6bd 5527 933e a660 ce3b
00000190: 0498 09be 6c93 c53d 14ca b4bd c695 c33e
000001a0: 71b4 a9bd 256a 303e 0ddb 313d 0ca1 32be
000001b0: a247 323c 6c40 0fbe 89e7 8dbd 3cef a4bd
000001c0: 03f5 2dbe 8825 c63d 20d1 b03e 06a0 71be
000001d0: 1859 0b3e a0e8 1bbe c316 c7bd 93b1 f13d
000001e0: bce9 0fbd b8f0 1cbe de36 653e e01c a73c
000001f0: 401a f4bb b0fd 293e 0a0e 793d c8e6 23bd
00000200: 8c3e 36be 1093 94bc b625 143e c421 fabd
00000210: f4d2 eb3d fa94 7bbe 50b9 c1bd 9c12 a1bd
00000220: ca35 61be 7cfd b63d 286e 48be 8229 143e
00000230: f0a8 513d 0081 593b 167a 08be e43d aebd
00000240: 896a 983d 1c1e 763e c094 19be 5ed2 6bbe
00000250: 3fe1 d6bd 383e d2bd 5aef a2bd d5f6 a1be
00000260: ef67 613e acc9 2d3e 8ebd 07be 277b 6f3e
00000270: 90dd 68bd 55ea 0abe 2be7 eb3d 0857 68be
00000280: b197 28be 62c8 38be 937a 25be 1b9e 83bd
00000290: c5c4 513d 6648 d13c 6ba5 82be 1e09 75be
000002a0: bffe 74bd e87e 5a3e 5b90 a83d eafa 573e
000002b0: 2839 03be 01fe 183d 970b 80be fa3a 053e
000002c0: 00d5 c9bb a056 9bbc 783c 0abe 46ad 5fbe
000002d0: ec81 bcbd 9084 c1bc 0ef3 07be f0ff d53d
000002e0: 98b0 31bd b0a6 c93c fa67 6ebe 7031 903d
000002f0: a851 fabd f66f 41be 847b cdbd 2ed3 68be
00000300: bc72 69be 1cde 3e3e 0898 873e 1a71 debd
00000310: f812 5e3d 11ed c3bd e816 553e c02c 683e
00000320: e2e7 1b3d f6b7 50be 44d6 fbbd 4834 57bd
00000330: 65ff 7ebe f66e edbd ccaf af3d 2e67 50be
00000340: 283a 883d 8035 bbbb 00a7 a8bc 848e 95bd
00000350: fa94 09be 8458 6fbe 7a34 2ebe a056 413e
00000360: 80cd 97bc a447 793e 80f0 573c 1066 f1bc
00000370: aa85 193e 1204 71be 76ac 1ebe 44da 123e
00000380: 4510 28bd 8089 4a3e 850b 37bd a980 c83d
00000390: 9c77 ca3b 71b9 373d 1c3c 44be c911 723d
000003a0: 4402 503d e2cc da3d 7856 a03d 928c 94bd
000003b0: 50f9 473c b7ea 6e3e eb0d 423e 34b4 ae3d
000003c0: 9bf1 39be bc27 acbd c64f 4f3e 464b 8c3e
000003d0: 3677 fdbd e78e e73d c3d8 0ebd 4687 a53e
000003e0: 12f4 a4bd a742 43be fef2 75be 0d16 98bc
000003f0: 97a1 a03d dcbd f0bd 129c 5b3e 58db f23d
0.2124003 0.05976957 -0.055993896 0.27218035 -0.17850256 -0.28341252 0.09094019 0.2606116
0.2859192 -0.095259845 -0.15351827 -0.2278333 0.31511986 -0.09870746 0.18796115 -0.08839485
0.22102368 0.161176 0.15811601 0.12972821 -0.20089102 0.023898505 -0.14558801 -0.050342143
0.14347088 -0.11987681 0.15787368 0.0046567474 -0.121801265 -0.12849648 -0.25016272 0.08575407
-0.018638643 0.22258413 0.07460415 0.027047064 -0.01927156 0.11909579 -0.15712722 0.17438495
-0.12969369 0.1514322 0.04612179 0.11654559 -0.09343391 0.10355136 0.21468005 0.03847164
0.145374 -0.22889721 -0.045822755 -0.21727717 0.017875195 0.018007461 0.07059443 -0.10641506
0.08899646 -0.10519233 -0.063598484 0.18749058 -0.2300733 0.02199223 -0.24374612 0.107433975
-0.20131308 -0.234683 0.0020955242 0.27793252 0.13226803 0.17933072 -0.06516097 0.35709557
-0.14490786 -0.012445067 -0.21880913 0.01297114 0.051098086 -0.2095246 0.23462133 0.04703498
0.26135936 -0.10762176 -0.02679595 -0.12158665 0.205397 -0.1473548 0.28851435 -0.58576185
0.24458745 -0.23938115 -0.117398314 -0.1267144 0.09044829 0.0194999 0.10771536 0.22419459
0.11612701 -0.12054768 0.28740945 0.0062981425 -0.13436896 0.09647259 -0.08827606 0.38200206
-0.082863696 0.17227991 0.043421794 -0.17444247 0.010881336 -0.13989419 -0.069289275 -0.08053443
-0.16987996 0.09675127 0.3453455 -0.235962 0.13608205 -0.15225458 -0.09721138 0.11801448
-0.035135016 -0.15326202 0.22384211 0.02039951 -0.0074494183 0.1660068 0.060804404 -0.040015012
-0.17797297 -0.018136531 0.1446751 -0.122134715 0.115148455 -0.24568549 -0.09459174 -0.078648776
-0.21993175 0.08935067 -0.19573271 0.14468959 0.051186502 0.0033188462 -0.13327822 -0.085078984
0.07442195 0.24034923 -0.1499815 -0.23029467 -0.10492181 -0.102657735 -0.07955809 -0.3163363
0.22012304 0.16971463 -0.13255903 0.23386823 -0.056851923 -0.13565953 0.11518701 -0.2268945
-0.16464116 -0.1804519 -0.1616004 -0.064266406 0.051213045 0.025547218 -0.2551683 -0.23929259
-0.059813257 0.21337473 0.082306586 0.2109181 -0.12814772 0.037351612 -0.25008842 0.13010779
-0.006159425 -0.018962204 -0.1349963 -0.21843442 -0.09204468 -0.023622781 -0.13276312 0.10449207
-0.043381304 0.024615616 -0.23281851 0.070406795 -0.12222606 -0.18890366 -0.10033324 -0.22736809
-0.22797674 0.18639416 0.26483178 -0.10861416 0.05421731 -0.09566701 0.2080952 0.22673321
0.038062938 -0.20382676 -0.12296727 -0.052540094 -0.24902113 -0.1159343 0.085784525 -0.2035186
0.066517174 -0.005713165 -0.020587444 -0.07302573 -0.13435736 -0.2337361 -0.17012206 0.18880701
-0.018530607 0.24343735 0.013179898 -0.029467613 0.14992395 -0.23536709 -0.15495476 0.14341074
-0.04103114 0.19779015 -0.04468872 0.09790165 0.0061788093 0.044854585 -0.19163555 0.059098992
0.05078341 0.106836095 0.078289926 -0.07253374 0.012205437 0.23331724 0.18950622 0.08530465
-0.18158571 -0.08406016 0.20245275 0.2740118 -0.12376253 0.11306553 -0.03487469 0.32329768
-0.08054365 -0.19068395 -0.24018475 -0.018565202 0.07843321 -0.11754963 0.21446255 0.11858243

encoder.convs.2.lin_l.weight f4 [16, 16]
00000000: b676 813e 6c75 033e 8765 a0be f8c0 3bbd
00000010: 3352 213e 83ba 153e a7ba 08be 350c 9ebd
00000020: 3098 3a3e 50fe 98be 0eb6 3a3e b890 45bd
00000030: 25d2 c93d b4b7 f93d aaad 0c3e b6b4 17be
00000040: 84f2 5a3e 48a3 57be 2851 5ebe 40df 33bd
00000050: c625 4fbe 766f 623e b605 99be 2445 113e
00000060: 847b ee3d 2272 27bd 4ce6 2a3e 6cd4 2ebe
00000070: 0939 d9be 80ca 183c 5399 353e 5a79 30bd
00000080: 8055 2a3c 0cd7 743e d8e7 b53d 403b dd3d
00000090: 0429 f8bd f42d 9c3d 04a7 bfbd fecd 4ebe
000000a0: 6a89 26be 108f 1abe b866 1abd bc70 d6bd
000000b0: 6a30 6b3e e8af d33d 6cd5 54be e061 2c3c
000000c0: 2c4c a03e 0d8a a4bb f309 5abc 88c7 8b3d
000000d0: fe1c b1bd 2fe5 09be f60a efbc 690e d8bb
000000e0: 0a72 493e 235b 9dbe 44dc 2e3d 58b8 c3bd
000000f0: 2cd3 2abd 20f1 b5bc 0b46 3cbd 809b 883d
00000100: a77f 7d3d d5ef 1bbe 509a 243e 06ef 663e
00000110: 2bc7 18be d4bf 993d 793e 46be 2be3 fe3d
00000120: 60cc 9ebc 12b2 3fbe e6f6 543d 9c24 543e
00000130: f2f5 ec3d e41e 83bd b000 b3bc 20bd b73d
00000140: ada5 253e c7ed 7ebd 5d2c 2d3e 7ca4 0e3e
00000150: 4ba5 a03e 5dde 673e aa11 3fbe 313a 6fbe
00000160: 0672 54be c068 503e b333 0dbe 7c68 0d3e
00000170: 5d82 e83d c0f8 d2bd d50e 193e fc72 4a3d
00000180: 5828 0abe c8ef 1cbd 78d1 22be 4e7f 76be
00000190: 8869 33bd a09b 66bc cae9 11be eae4 623e
000001a0: 20c5 64bd 480d 82bd 96e0 4a3e 40e6 e33c
000001b0: 18e3 70bd b074 6b3d e24c 67be 1aae 7b3e
000001c0: 08d3 323e 3d4f 9e3d d5fb 61be 66b9 433e
000001d0: b5a7 37be 3c93 2abd ba05 41bd c975 a9bd
000001e0: 1086 5a3d f84b b1be 3a9e 7abe 70ed 693d
000001f0: 7097 183d 80d9 6a3b 52a4 8abb 098c 92bd
00000200: 1580 09be 6ece dbbc 942c e2bc 48b1 403e
00000210: 496e 9d3d 3de7 05be 7833 22bb 0d0c 03be
00000220: da92 15be aed6 c23e b505 b43d f84c e03d
00000230: 10b9 02be f883 7fbd b5b3 813d cc80 fabd
00000240: b46c 5cbe 63b6 2e3e c328 813d 6a47 1b3e
00000250: dcdc e73d c534 303e 8cde 5abe fabb c03d
00000260: 40c5 55bc 7d64 3c3d 65e4 ab3c ac24 48be
00000270: d25a 40be ea8e 3a3e 762e 483d bdcb 4ebe
00000280: c8d8 733e f1c2 70bd 7cc9 d9bd dcea 323e
00000290: 25d5 76be 2030 20bd 837b ed3d dd50 8ebe
000002a0: b821 d3bd 9fc9 843e cc91 4b3d 1a87 70be
000002b0: cce7 60bd c8ca 81bd 0234 c3bc 3d0b 64be
000002c0: 4e3d ddbd 7c14 ad3d c403 83be 9ee7 6fbe
000002d0: 4f5d 5abd a2dd 063d 465e c2be 4ed8 4fbe
000002e0: fab4 543e 62ff 923e 70c5 dfbd 2a02 7f3e
000002f0: dcf0 413e 868e 633e 2fb2 c7bd c2e0 42be
00000300: 17ab ed3d 3cde f33d 9612 40be 1035 193e
00000310: 3f92 a73e b8c4 ebbd fb99 28be c83f 88be
00000320: dcf6 21be fca5 18bd 46ac 10be c436 60be
00000330: 85a8 6e3e 4461 7a3e cd5e 523e 191d 6d3e
00000340: fb5c dc3d 5eb1 cabd 175d 55be 4433 17be
00000350: 687f 693d 77e4 8f3d 87ef 3bbd 02c9 0bbf
00000360: 34e2 f0bd 3149 04bd 9391 a3bc f839 41bd
00000370: c9bf d43d a480 aabd b35b 95bd 8651 5abe
00000380: 4ba6 ad3d e2bf 54be d7df df3b b48c 73be
00000390: 18fe 11be 7fa8 503e 97fb 83bd 481d 3cbd
000003a0: 0011 043e 182a 7ebe 50e4 6bbd 80d5 03bc
000003b0: 3080 e63c d095 29bd 4922 5dbe 24a1 6abe
000003c0: 017f 4e3d 1417 503e 861d 84bd 8076 013d
000003d0: 5409 a03e a8df 77be c069 ba3e 6d1e e63e
000003e0: 00fb dfbd 430a 8a3e 1fc2 223e 68a9 543e
000003f0: 510f 643e 30d6 6a3d ee85 4c3e c8c4 e4ba
0.25285882 0.12837762 -0.3132746 -0.045838326 0.15754013 0.1462193 -0.13352452 -0.07717172
0.18222117 -0.29881525 0.18233511 -0.048233718 0.09854535 0.12193242 0.13738123 -0.1481503
0.21381575 -0.2105838 -0.21710646 -0.04391408 -0.20229253 0.22112831 -0.2988717 0.14186531
0.116446525 -0.04088033 0.16689414 -0.1707322 -0.42426327 0.0093256235 0.1773427 -0.04308448
0.010396361 0.23910159 0.08882111 0.10802317 -0.12117198 0.07625952 -0.093580276 -0.20195767
-0.16263357 -0.15093637 -0.037695616 -0.10470721 0.22967687 0.10336286 -0.20784539 0.010521382
0.31308115 -0.0050213397 -0.013308036 0.06825167 -0.08648108 -0.13466333 -0.029180031 -0.0065935147
0.19672409 -0.30733594 0.04269053 -0.09556645 -0.041705295 -0.022209704 -0.045965236 0.06670284
0.061889317 -0.15228207 0.1607449 0.22552118 -0.14919727 0.075072914 -0.19359769 0.124456726
-0.019384563 -0.18720272 0.051993273 0.2071709 0.11570348 -0.06402376 -0.021850914 0.089716196
0.16176482 -0.06223848 0.16911454 0.13929933 0.3137611 0.22643419 -0.18659082 -0.23362042
-0.20746621 0.20352459 -0.13789253 0.13809389 0.1135299 -0.103013515 0.14947064 0.049426064
-0.13491952 -0.03831461 -0.15900218 -0.24072 -0.043801814 -0.01407519 -0.1424934 0.22157636
-0.055852056 -0.063501894 0.19812235 0.027819753 -0.058810323 0.05748433 -0.22587922 0.24578133
0.17463315 0.07729957 -0.22068723 0.19113693 -0.17935069 -0.04164432 -0.047124602 -0.08274419
0.05335051 -0.34628272 -0.24474421 0.057111204 0.037253797 0.0035835207 -0.0042310143 -0.07155616
-0.13427766 -0.026831832 -0.027609147 0.18817627 0.07687051 -0.13076492 -0.0024749916 -0.12797566
-0.146068 0.38054413 0.08790151 0.109521806 -0.12765908 -0.062381715 0.063331045 -0.12231597
-0.21525842 0.17061763 0.06306603 0.15163961 0.113214225 0.1720763 -0.21373957 0.09410854
-0.013047516 0.04599427 0.02098293 -0.19545239 -0.18784645 0.1821858 0.048872434 -0.20194907
0.23813164 -0.05877966 -0.10634133 0.17472404 -0.24104746 -0.039108396 0.115958236 -0.2779607
-0.10309166 0.25935075 0.04969959 -0.23489037 -0.05490856 -0.063375056 -0.02382851 -0.22269912
-0.108027086 0.08451173 -0.2558881 -0.23428199 -0.053311642 0.03292621 -0.3796255 -0.20297357
0.20772162 0.28710467 -0.1092633 0.2490317 0.18939537 0.22222337 -0.09750783 -0.19031051
0.116048984 0.11907622 -0.1875709 0.14961648 0.32728764 -0.115121305 -0.16464989 -0.2661116
-0.15816826 -0.03726767 -0.14128217 -0.21895891 0.23306473 0.24451166 0.20543976 0.23155631
0.10759922 -0.09897111 -0.20836292 -0.1476565 0.05700627 0.07025998 -0.045882728 -0.5460359
-0.11761895 -0.032296363 -0.019966876 -0.047174424 0.103881426 -0.083253175 -0.07292881 -0.21320161
0.084789835 -0.20776322 0.0068321037 -0.23784143 -0.14257085 0.20376776 -0.06444471 -0.045926362
0.1289711 -0.24820745 -0.057590783 -0.008046508 0.028137296 -0.041402638 -0.2159511 -0.22913033
0.05041409 0.20321304 -0.06450944 0.03160715 0.31257117 -0.24206412 0.36408806 0.44945088
-0.10936546 0.26960954 0.15894364 0.20767748 0.22271468 0.05733317 0.19972965 -0.0017453665

encoder.convs.2.lin_l.bias f4 [16]
00000000: b4d5 033e 4c7b b83e b5bc abbd 8676 013e
00000010: d14f 1cbe d0da ba3c f14b 7d3d 5827 9a3e
00000020: 2ae8 a7bd 5fcb 173e 52b6 463e 2f11 843d
00000030: bb53 66be 6705 2c3e 924a 49be 4a03 ae3d
0.1287449 0.36031568 -0.083856024 0.1264287 -0.15264823 0.022809416 0.06184 0.30108142
-0.08198579 0.14823674 0.19405487 0.0644859 -0.22492878 0.16798936 -0.19657353 0.08496721

encoder.convs.2.lin_r.weight f4 [16, 16]
00000000: 05d7 e6bd df31 763d 8601 00be 0fb6 4ebe
00000010: cb72 0f3c 1819 a5bd a98a 33be 629b a2bd
00000020: 3a10 2e3e b3d2 273d 98b2 783d 6c3c d63d
00000030: c0da 803d 7cd1 d33d b3d4 7c3e 9cdd 1f3d
00000040: 1e5f 97bc 5ab4 14bd 9ceb 283d ba4a 513e
00000050: 08c8 93be c6d8 d4bd a73f bbbe 4b97 8d3e
00000060: 5244 7b3e 43c5 88be 65a5 8ebd 403d 913b
00000070: 0c38 b5bb 50ec 91bd 3134 09be d46b a4be
00000080: ce83 9ebc 10af dd3c b2ae 183c cc15 6bbe
00000090: 4d40 633e 621d 15be 30ee 78bd ba6a 6d3e
000000a0: 00d9 d53a 50a3 4cbe 827a 133e d49f c0bd
000000b0: 4989 793e e08e 94bd 0698 3ebe bdf2 3dbe
000000c0: d006 873d bf14 89bd 17a1 0d3e 6f1d 593d
000000d0: 3bff edbd 08bc da3c 5bd8 0abd 0ecf 8d3d
000000e0: ec40 873d 023b aebe a2d0 46be 9c94 00be
000000f0: 3b9e dabd e80a 3abd d6aa f43d 1719 03be
00000100: 3a2f 0f3e e784 37be bad2 683e 7081 20be
00000110: d5b0 04be a287 4b3e b3a1 803e be9d 53bd
00000120: 1674 603e c82c 083d ebee a43d a055 70bc
00000130: 1045 e83a 6832 b9bd f171 6cbe 6294 6f3e
00000140: ecdf 093e 59a2 763e 5a89 5bbe bcb7 553e
00000150: 5c4f 7b3e a67c 0c3e e524 cdbd fda8 4b3e
00000160: fe28 243e fccf 853e 16a2 48be a8a4 1b3d
00000170: 42d1 153e 76d4 7bbe 1b8a 813e e374 7a3e
00000180: 9448 61be d6c7 5bbe 1326 0fbc fc54 4d3e
00000190: 9546 5b3d e0fd 0f3d aa57 10bd 37e7 88be
000001a0: b015 1a3e be48 233e c000 34be a0a2 3cbd
000001b0: f761 653e b43d c4bd 2f5a 43be d0c6 fd3d
000001c0: 1dc1 4d3e 76e5 6e3e e11e 1fbe 60fb 783d
000001d0: 28ed 6ebd 124b 583e 6762 893d 605d 843c
000001e0: e811 10bd 2048 01be 3227 0abe c85b d73d
000001f0: a9a8 0d3e 3422 02be 19d6 e8bd 4f03 863d
00000200: 02fc 97bc 4007 d6bd 944b 7b3e d542 2dbe
00000210: 3b67 3cbd b6cf 88bc f17e 9b3d 8402 233d
00000220: 18db f43d b1ad 083e 1140 62bd e483 05be
00000230: a818 79be 806c 5f3d f116 383e f129 a33e
00000240: 65e6 14be f10f e03d b04f 9fbc 801f 4cbc
00000250: 2d3a abbd cd97 8a3e 5eba 253d 0103 c1be
00000260: 3813 5e3d 1c0e 6c3e ccef 633d c0cc bdbb
00000270: c8b2 f1bd ac9f 34be 10d5 4ebe 123a 6ebe
00000280: 9526 eabd cb64 963d cb98 b0bd ee22 2e3e
00000290: d2ce a5be 30a2 863e 43da abbe f6a2 053e
000002a0: a8c0 bbbd 6e70 303d 2fd3 553e 185f 6f3e
000002b0: 5bbc 4fbe a6bd 2f3e 4d7c 5f3e 7ae1 d0be
000002c0: 842a 3f3e 889a c33c 2ac2 493e fc4b 603e
000002d0: 70b4 f13d d7fb 15be a943 5bbc 0175 123e
000002e0: a042 16bd 0023 dabe c07e e43b b495 123e
000002f0: 8216 cebc 8ef0 203e 7e33 23bd 3cce 9a3e
00000300: b9c8 82bd 76c5 8dbd 8359 353e 5d57 b03d
00000310: 83c3 bbbd 2a6f 9fbd dffe 163e 5cfc 2cbe
00000320: 5c15 c33d b02a ac3d bab2 fdbd b07c fcbc
00000330: ac0a 123d 1e14 323e 3733 713e 468c 1abe
00000340: 835f 49be 350f 073e 9fb5 7e3e b91c 4d3e
00000350: a59d f33d cc36 7a3e 048a 1cbe d0e9 273e
00000360: 60d1 50be 179a 6ebe c676 21be 5a39 68be
00000370: 8b08 103e 1c40 843d 20b7 d43d 5eed 303e
00000380: 3049 74be 80c5 93bd e3a2 1f3e 8a8e 62be
00000390: 44ed 333e eb88 103d 4cd4 4fbe 58eb 5c3d
000003a0: 6099 033c 5226 fe3b 50e6 92bd 4cc4 e73d
000003b0: 9018 473e 4c6d 323e da91 88bd 1c7e 6bbe
000003c0: e91c ab3e f3fd 643d 9414 5f3e 0056 fd3d
000003d0: 6867 8f3d 7d02 4b3e c330 353e bb75 5bbb
000003e0: d8c5 1c3d 60c9 0d3e fffd 173e 6c17 e93d
000003f0: f097 0abe dc90 6e3e 0a64 733e a33a 6e3e
-0.112714805 0.060106155 -0.12500581 -0.20186637 0.008755396 -0.08061427 -0.17533363 -0.07939793
0.16998377 0.040972423 0.060717195 0.10460743 0.06291723 0.1034269 0.24690513 0.039029703
-0.018477973 -0.03630481 0.04124032 0.20438662 -0.2886355 -0.10392909 -0.36572 0.2765449
0.24537781 -0.26713 -0.0696514 0.0044323504 -0.005530363 -0.07125151 -0.13398816 -0.32113516
-0.019349959 0.027061015 0.009318994 -0.22957534 0.22192498 -0.1456199 -0.06077403 0.23185244
0.0016315281 -0.19984174 0.14402202 -0.09405485 0.24368776 -0.07253814 -0.1861268 -0.18549629
0.06593096 -0.0669341 0.13830982 0.053006586 -0.11620947 0.026700988 -0.03389774 0.06924258
0.0660418 -0.34029394 -0.19415525 -0.1255669 -0.10674711 -0.045420557 0.11946647 -0.1280254
0.13982859 -0.17921792 0.22736636 -0.15674376 -0.12958081 0.19875959 0.25123367 -0.051664107
0.21919283 0.03324583 0.080533825 -0.014668852 0.0017720778 -0.09042817 -0.2309034 0.23396447
0.13464326 0.24085368 -0.21439114 0.2087087 0.24541992 0.13719425 -0.10016803 0.19888683
0.16031262 0.26135242 -0.19593081 0.037998825 0.14630607 -0.24592766 0.2530068 0.24458651
-0.22000343 -0.2146295 -0.008737105 0.2005195 0.05353411 0.035154223 -0.035239853 -0.26738903
0.15047336 0.15945718 -0.17578411 -0.04605353 0.22400652 -0.095820814 -0.19077371 0.12391436
0.20093198 0.2332972 -0.15539123 0.060786605 -0.05833164 0.21122387 0.06708222 0.016157806
-0.035173327 -0.1262517 -0.13491514 0.10515553 0.1383387 -0.1270836 -0.11368961 0.065436
-0.018552784 -0.104506016 0.2454055 -0.16920026 -0.045996886 -0.016700607 0.075925715 0.03979732
0.11955851 0.13347508 -0.05523688 -0.13038594 -0.24325812 0.054546833 0.17977501 0.31867936
-0.14541014 0.109405406 -0.019447178 -0.012458682 -0.083607055 0.2706894 0.040460937 -0.37697604
0.054217547 0.23052257 0.05564861 -0.0057922304 -0.11801678 -0.17639035 -0.20198464 -0.2326434
-0.1143314 0.073434435 -0.08622893 0.17005512 -0.32384354 0.26295614 -0.33564958 0.13050446
-0.09167606 0.04307597 0.20881341 0.23376119 -0.20286696 0.17162189 0.2182476 -0.40797025
0.18668562 0.023877397 0.19702974 0.21903986 0.11801994 -0.1464685 -0.013382831 0.14302446
-0.036684632 -0.42604828 0.0069731176 0.1431492 -0.025157217 0.15716764 -0.03984403 0.3023547
-0.06385941 -0.06922428 0.17709927 0.08610413 -0.0916815 -0.07784875 0.14745663 -0.16893142
0.09525558 0.084065795 -0.12387605 -0.030821174 0.03565471 0.17390487 0.23554693 -0.15092573
-0.19665341 0.13189395 0.2487397 0.20030488 0.11895303 0.24434966 -0.15287024 0.16397786
-0.2039237 -0.23300968 -0.15767965 -0.22678128 0.14065759 0.064575404 0.10386491 0.17278048
-0.23856044 -0.072154045 0.1558948 -0.22124687 0.17570978 0.035286825 -0.20295829 0.05393538
0.008032173 0.007756033 -0.07172835 0.113167375 0.19442964 0.17424506 -0.06668444 -0.22997326
0.33420494 0.055906247 0.21785194 0.12369919 0.07002145 0.19825168 0.17694382 -0.003348692
0.038274616 0.1384635 0.14842986 0.113814205 -0.13534522 0.23297447 0.2376863 0.23264556

encoder.convs.3.lin_l.weight f4 [16, 16]
00000000: a87a 373d 4085 7a3c 5cae 05be 8e9f 3a3e
00000010: 1af0 37be 72a6 5cbe a47c 9a3d 4e79 6fbe
00000020: bc3b a33d 3896 f6bd 80f3 4dbb a841 c5bd
00000030: 5402 4f3e 6847 3ebe d81c 3c3d 0044 683b
00000040: 4177 15be 7d8d 893e 2c74 693d c39d 01be
00000050: 4092 92be 7040 193e befd 373e 8ba8 0a3d
00000060: 0c72 a9bc b27f 60be f3a1 833e ad99 6dbe
00000070: a6f0 98bd 76c6 423e 8883 413e e4d9 0b3e
00000080: 185e 543d 8b48 4d3e 4035 2e3c ec8c 923c
00000090: 5701 20bd 1cb6 35be 681d 3c3d 1af1 04be
000000a0: ffb1 fd3d 2095 30be ae40 51be 6b85 8dbd
000000b0: 802c 3e3e bfcd 57be 642c a3bd 84aa 23bd
000000c0: 18e9 dfbd cce0 f13d ea9e 5f3e 5c8f 0a3e
000000d0: 48f4 57bd f4fd 48be ec5d 53be d034 75bd
000000e0: 104b a1bd 7a25 42be c03c 7d3d d401 c2bd
000000f0: 647a 943d 36f1 07be 3089 b8bc d415 9abd
00000100: 390e 7a3e d915 3abe c58c c8bd 9da5 053e
00000110: 6093 0fbd 53f4 1e3d 17b4 293e 1a2d 063e
00000120: 4b6c 4c3c c86c 603e e449 5fbd 3694 78be
00000130: 0d4e 2c3c 6aea c13d 5c74 083e 9f37 713c
00000140: c5e4 2b3e 04f2 093e 424f c1bd 0e99 14be
00000150: 7660 f8bd 11e0 b6be be3e 09be f9b8 5ebd
00000160: 98f1 f1bd 6cb5 e73d 6755 00be d36b 853d
00000170: 54c6 0cbe 7fb0 8cbe 2c46 2b3e 0097 44be
00000180: d01d 393e 26d9 0f3d 240d 35be 33b5 943d
00000190: bac0 cc3c 1e49 ea3d 6a48 433e 9d3e dc3d
000001a0: eb07 4f3d 89a0 2ebc af9a 193d 8eea 0cbe
000001b0: e01c e2bd 5b23 f43d cfaa 2ebd 4e34 043e
000001c0: af38 b9bd e3bc 0bbe e222 543d 6ad8 50be
000001d0: 8d31 193e 6968 773e 6118 703c c298 c8bd
000001e0: 1802 0a3d 9922 b73d 19f7 4fbe c48d ff3c
000001f0: 108d 11bd bd37 71be 19c2 18be e809 0cbe
00000200: c269 1f3e f999 b33e 7540 13be 9d4f 86be
00000210: ae1a 483e 245a fc3d a837 bb3d b445 213d
00000220: 378f 87bd ec03 45be 6632 683e 941f 4dbe
00000230: d5ac cebd 164d 473e 8491 b5bd 06d0 b03d
00000240: c347 213e bf1e cebd 3182 d7bd 24a0 c23b
00000250: f969 44be b011 8a3c b726 743e d01e b5bd
00000260: 19b3 1f3e 7d9c 87be 0622 81bd 679d 31be
00000270: 6b96 25bd db13 103d 3011 dbbd d7b7 8c3e
00000280: 5ff6 63bd d9f3 e43d 4c06 a33e b309 d93b
00000290: ed1b a73c 7668 023e 96ba 663e 78c5 b8be
000002a0: 83d7 d1bd 590f e83d 95fd a9bd cb75 08be
000002b0: d99a 4fbd 7663 30be 3955 083e 4324 343e
000002c0: a334 e93d 295d 15bf 5e8a f2bc cefb 853e
000002d0: 4957 95bc 0ed7 be3d b8e2 a3bd 87ef 153e
000002e0: 8b0f a13e b8b2 383e a78f adbd 3074 a03e
000002f0: 6f31 09bd 6545 94be f603 383e 3336 853e
00000300: 12e8 2abb 4c1e 6f3e 862d 333e 6e52 1c3c
00000310: 49b8 1a3e b4b9 3dbe c20c d4bc a264 5abe
00000320: 5760 693c f03b 8cbe c051 9abc 6d99 403e
00000330: 8d44 bd3d 6493 04be 65ce 07be f763 913d
00000340: 5944 71be 78fd 42be 9b19 c1bc 3d93 e63d
00000350: d3f6 50be 2c16 903c 472f aebd 8fad 19bd
00000360: 68f1 e9bd 50ae f0be 7884 25be 86e7 9c3e
00000370: 18a3 073f 67c6 283e 1a98 583e 032e 353e
00000380: 8475 a43e 9e44 693e 8e7c 6ebe 7f0a 9e3e
00000390: 6e87 b8bd a867 fabc 5044 98bd ca9c b43e
000003a0: 7170 b73d 969a cbbd 6d80 49bc c91f bfbd
000003b0: 5b1e 913d 400a 43bd 8db9 40be d04e c6bd
000003c0: 4468 343e 9467 833e 2f39 3b3c e8b3 303e
000003d0: 1be3 89be a4f5 26be b007 fbbd 8de9 5ebd
000003e0: c078 3fbe fffd 6ebe 43d2 2ebd 1eba 0fbe
000003f0: 73f3 74bd 3665 613d f34c 31b9 57fb 0a3e
0.04479471 0.015290558 -0.13054794 0.18224928 -0.17962685 -0.21547869 0.075433046 -0.23386118
0.07970378 -0.12040371 -0.0031425655 -0.096316636 0.20215732 -0.18581927 0.045925945 0.0035440922
-0.14596273 0.2686576 0.056995556 -0.12657838 -0.28627205 0.14965987 0.17967889 0.03385214
-0.020684265 -0.21923712 0.25709495 -0.23203154 -0.07467775 0.1902102 0.18897831 0.13657337
0.051847547 0.20047204 0.010632813 0.017889462 -0.039063778 -0.1774525 0.04592648 -0.12982598
0.12387466 -0.17244387 -0.2043483 -0.06910213 0.18571663 -0.2107458 -0.07967451 -0.03995754
-0.10933131 0.11810455 0.21837965 0.1353125 -0.0527232 -0.19628125 -0.20641297 -0.05986482
-0.07875645 -0.18959609 0.061825514 -0.09473005 0.07249907 -0.13275608 -0.022526354 -0.07523695
0.24419488 -0.18172397 -0.09792475 0.13051458 -0.035052657 0.038807224 0.16572605 0.13103142
0.012476991 0.21916497 -0.054513827 -0.24275288 0.010516656 0.09468539 0.13325638 0.014722734
0.16786487 0.13471228 -0.09438945 -0.1451151 -0.121277735 -0.35717824 -0.1340284 -0.054375622
-0.118136585 0.113139 -0.12532578 0.065147065 -0.13747531 -0.27478406 0.16725987 -0.19198227
0.18077779 0.0351192 -0.17680794 0.072611235 0.024994243 0.11439727 0.19070593 0.1075413
0.05054466 -0.010658392 0.037501033 -0.1376135 -0.11040664 0.11920806 -0.042643365 0.12910578
-0.09044015 -0.13646273 0.05179108 -0.20395055 0.14960308 0.24160923 0.01465425 -0.09794761
0.033693403 0.08942146 -0.20309104 0.031195529 -0.03553492 -0.23556419 -0.14917792 -0.13675654
0.15567687 0.3507841 -0.14380057 -0.26232615 0.19541427 0.123218805 0.09141475 0.039373115
-0.06619113 -0.19239777 0.22675475 -0.20031577 -0.10091559 0.19463 -0.088656455 0.08633427
0.15750031 -0.10064458 -0.10522879 0.0059395004 -0.1918105 0.016854137 0.23842894 -0.08843768
0.15595664 -0.2648658 -0.063053176 -0.173452 -0.040426653 0.035175186 -0.10696638 0.2748401
-0.05565488 0.11179323 0.31840742 0.0066234707 0.020399058 0.12735161 0.22532114 -0.36088157
-0.10246184 0.11331052 -0.0830032 -0.13326184 -0.050684784 -0.17225441 0.1331376 0.17591958
0.11386993 -0.58345276 -0.029606994 0.26168674 -0.018230097 0.09318362 -0.080022275 0.14642154
0.3145717 0.18036926 -0.08474665 0.31338644 -0.03349441 -0.28959194 0.17970261 0.26017913
-0.0026078266 0.23351401 0.17497835 0.009541137 0.15109362 -0.18527871 -0.02588499 -0.21327451
0.014244161 -0.2738948 -0.01883781 0.18808527 0.09241591 -0.1294685 -0.13262327 0.07099145
-0.23561229 -0.19042003 -0.02357178 0.11258552 -0.20406656 0.017588697 -0.08505111 -0.037519034
-0.11422998 -0.4700799 -0.16163814 0.30645388 0.52983236 0.16481934 0.21151772 0.17693333
0.32120907 0.22780082 -0.23289701 0.30867383 -0.09010206 -0.030567005 -0.074349046 0.3527587
0.08956993 -0.09941594 -0.0122986855 -0.093322344 0.07085868 -0.047617197 -0.18820782 -0.09683001
0.17617899 0.2566496 0.011427208 0.17256129 -0.2693108 -0.16304642 -0.12257326 -0.05442195
-0.18698406 -0.2333908 -0.04268099 -0.14035842 -0.059802484 0.055028163 -0.00016908701 0.13572441

encoder.convs.3.lin_l.bias f4 [16]
00000000: d87c 66be 2ac9 88bd 01f7 efbc c833 6fbe
00000010: 290f 453e e265 3dbd 43d8 6a3e 9520 763e
00000020: cbdf 033e 3437 f5bd 3cd9 313e d646 8bbe
00000030: 2742 393c ec76 003e 1021 ae3e 0cf4 8d3d
-0.22508562 -0.06678994 -0.029292585 -0.23359597 0.19244064 -0.04623974 0.2293406 0.24035867
0.12878339 -0.1197342 0.17368025 -0.2720248 0.011307276 0.12545365 0.340096 0.06931314
