ARES-4573/checkpoints/model_GAE_ISCX.pt (torch, 14306 bytes, 12 tensors)

encoder.convs.0.lin_l.weight f4 [16, 32]
000000 70 0b d5 be f7 77 ea bd 37 95 31 be 66 9e ec bd
       -0.4161029 -0.11448663 -0.17342077 -0.115536496
000010 b2 40 b7 be 94 78 b0 be 02 1b ab be d3 94 89 be
       -0.35791546 -0.34466994 -0.33419043 -0.26871356
000020 08 50 cc be ed 28 7c be 04 5b c5 be db 17 7a be
       -0.3990481 -0.24624987 -0.38546002 -0.24423163
000030 9c c4 e1 bd ba 1f 78 be 65 a7 12 be 4e cf cb be
       -0.110238284 -0.24230853 -0.14321668 -0.39806598
000040 3e 1f 98 be 5c 3c c3 be 0e 64 95 be 5b 5a af be
       -0.29711336 -0.38131988 -0.29177898 -0.34248623
000050 04 bd be be 61 c6 e2 be a8 e8 ac be b5 74 7e be
       -0.37253582 -0.44291976 -0.33771253 -0.24849208
000060 63 45 9b be c5 a4 df be 31 b8 0e be 57 79 10 be
       -0.30326375 -0.43680397 -0.13937451 -0.14108787
000070 97 ea c1 be e8 25 82 be b1 7f 1e be e0 4c e1 be
       -0.3787429 -0.25419545 -0.15478398 -0.44003963
000080 2d fd ff bd 25 65 04 3e d7 f2 e2 3c eb 31 b3 3d
       -0.12499461 0.12929209 0.027703686 0.087497555
000090 ad 4b 2d bd b5 8c 81 3d 5c 03 18 3e 04 50 45 bc
       -0.0423085 0.06325666 0.14845031 -0.012043003
0000a0 78 21 d4 bc 2b 69 0c be 34 ad 80 3b d1 a8 12 3e
       -0.025894865 -0.13711993 0.0039268974 0.14322211
0000b0 33 1f 0b be 22 c4 8f 3c b5 e7 23 3e 8f b1 9d bc
       -0.1358612 0.017549578 0.16006358 -0.019249706
0000c0 41 b5 0b bd 9f 2d b5 bc a7 8c 25 bd 57 7a 56 3d
       -0.034108404 -0.02211648 -0.04041734 0.052362766
0000d0 12 55 0e be b0 41 ca 3d b3 37 5c bc 34 82 0e 3c
       -0.13899639 0.0987581 -0.013441014 0.008698035
0000e0 ef ec 9d 3c cf 13 05 3e 39 fa a0 bd 51 c5 04 be
       0.019278018 0.12995838 -0.07860226 -0.12965895
0000f0 d8 f8 c5 bd 09 ae c9 bd 0a b7 60 bd fb ec 2e 3e
       -0.09666604 -0.09847648 -0.05486206 0.17082588
000100 e5 9b 84 bd b5 b1 02 bd 6a aa 93 bd 21 9f 89 bc
       -0.06475047 -0.031907756 -0.07210238 -0.016799511
000110 4d 4e 89 3d 35 94 12 bd db 4b 97 3d 61 e8 06 3e
       0.06704388 -0.035785872 0.07387515 0.13174583
000120 c4 be 2b 3d 2c d6 17 3e af 8b e6 3d 9f 99 78 3e
       0.041929975 0.14827794 0.11257111 0.24277352
000130 89 fc 80 3d 5a a2 66 3e c4 39 51 3e 24 45 20 3e
       0.06298167 0.2252287 0.20432192 0.15651375
000140 cf 2d 30 3e 2f fa 3d bd 52 02 3e bd 82 09 17 3e
       0.17204975 -0.04638117 -0.04638893 0.1474972
000150 67 76 0b 3e a1 17 6d 3e cb a9 48 3d 13 d5 21 3d
       0.13619386 0.23153545 0.048990052 0.039509844
000160 54 d4 45 3e 69 29 9f 3d d3 ad 73 3e 88 c9 94 bc
       0.19319278 0.0777157 0.23796777 -0.018162504
000170 25 78 65 3c cf 1c a3 3d 9a 47 2a 3e 0f eb a9 bd
       0.0140056955 0.07964479 0.16628876 -0.08296787
000180 14 60 a3 bd 3f e4 c8 3d f1 91 d5 3b 26 eb c1 3d
       -0.0797731 0.098091595 0.0065176417 0.09468679
000190 92 ab b8 bd 29 21 11 be f7 99 1a be 0a cb 04 be
       -0.090170994 -0.14172806 -0.15097795 -0.12968078
0001a0 2f 0e 27 be e3 c1 6a 3d 58 19 8d 3c bf d6 12 be
       -0.16314004 0.05731381 0.017223999 -0.14339732
0001b0 5c e7 06 3e e1 24 a4 3c d8 65 11 3d c8 94 d6 bd
       0.13174194 0.020037116 0.035497516 -0.104775965
0001c0 36 9e bc 3d fd b4 1e be 62 dd c9 3d e9 62 01 be
       0.09209864 -0.15498729 0.098566785 -0.12635387
0001d0 fc 77 37 3d f2 01 c1 bd 98 2b ad 3d 6c d5 36 be
       0.04479216 -0.09424199 0.084555805 -0.17854851
0001e0 f5 9f 84 bd 41 c1 9f bd 3b 43 0b be c3 dd ef bd
       -0.06475822 -0.07800532 -0.13599865 -0.117122196
0001f0 ef 9f a3 bd b9 f8 43 bc 30 f1 c2 3d f0 0e 73 bd
       -0.07989489 -0.011961156 0.09518659 -0.059340417
000200 13 ce 74 3e c9 2a 96 bc bf 90 ce bc a3 b6 67 3d
       0.23906736 -0.018330948 -0.025215505 0.05657066
000210 92 66 0a 3d 7c bc f9 3d 09 a1 6a 3e 70 59 01 3e
       0.033789225 0.12194154 0.22912993 0.12631774
000220 c9 33 a8 bd 46 c4 b0 3b 09 45 fb 3c 3e ee c2 bd
       -0.08213002 0.0053944914 0.030672567 -0.09518097
000230 d6 ad f6 3d ed 61 61 3e 15 46 1d 3e 42 25 7f 3d
       0.12044875 0.22010012 0.15358765 0.06229139
000240 ba 5b 56 3d 05 32 8b bc 08 0b 3d 3d 5e 21 62 3e
       0.05233357 -0.016991625 0.0461531 0.22083041
000250 08 90 cd bc 70 a9 c0 3d 19 e5 82 bd ab f3 8e 3c
       -0.025093094 0.09407318 -0.06391353 0.017450174
000260 84 b4 9b 3d 72 a2 8a bd 3f 1b e9 3d 96 26 b0 bd
       0.0760279 -0.06769265 0.1138215 -0.0860111
000270 f5 71 d2 bb 3b 57 41 3e f6 2c 6d 3e 37 df 54 3d
       -0.006422276 0.18880932 0.23161682 0.051970687
000280 ab a1 04 bd c0 9f 51 bd fc f3 4e 3d 36 4a 76 3b
       -0.03238074 -0.05117774 0.05052565 0.0037580854
000290 8d 1e 70 3e 8a 46 03 bd cb 2f 4d 3e 5a a4 02 3e
       0.23449154 -0.032049693 0.20037763 0.12758008
0002a0 b7 aa 24 3d 50 c8 73 3e de f5 44 3e f1 c8 b3 3d
       0.04020187 0.23806882 0.19234416 0.08778561
0002b0 88 bc d3 bc 2f c8 2b 3d 38 97 1a 3e a9 12 7d 3e
       -0.025846735 0.041938957 0.15096748 0.2471415
0002c0 f9 8c 0c 3d 33 f6 a7 3c 5c 48 a1 bd cf 7c 4f 3e
       0.03431413 0.02050314 -0.078751296 0.20262454
0002d0 54 73 88 3e 61 da 5c 3e db 8b 94 bb 41 e7 61 3e
       0.26650488 0.2156768 -0.0045332736 0.22060873
0002e0 08 61 25 3d 90 dd 3e 3e e3 11 4a 3e a3 70 4d bd
       0.04037574 0.18639207 0.19733386 -0.050156247
0002f0 8e 05 0d 3e fa 7d 28 3e da 95 49 bc 9b ca 83 3e
       0.1377165 0.16454306 -0.012303794 0.25740513
000300 96 9b 69 3e 7e 94 73 3e 6a 50 b5 3d 96 fc 91 bb
       0.22813258 0.23787114 0.088532284 -0.0044551594
000310 d5 41 d4 bb 64 45 1c 3e 63 4f 61 3d f7 2a 6c 3e
       -0.0064775744 0.15260845 0.05500735 0.23063265
000320 1b e5 73 3e ab 84 d4 3d 2e a1 5f bd 6f 24 24 3e
       0.23817866 0.10376867 -0.054597072 0.16029523
000330 79 48 7e 3e a6 4b 3b 3d 47 92 1c bb d1 c7 47 3d
       0.24832334 0.04572644 -0.00238909 0.048774544
000340 0b 73 ec 3d 03 14 28 bd 15 f6 3c 3e 98 aa 29 3e
       0.1154538 -0.04103471 0.18453248 0.16568983
000350 67 a5 b8 3c 34 dc c9 3c cd bd cc 3b e6 ca 69 3e
       0.022539807 0.024641134 0.006248212 0.22831306
000360 dc a6 47 3e c0 bd 0f 3e 9e 57 a8 3d e4 82 09 3e
       0.19497246 0.14037228 0.08219837 0.13428837
000370 f6 77 85 3e a6 9a 15 3e 8b aa 00 3b 63 50 22 3e
       0.26068085 0.14609775 0.0019632902 0.15850978
000380 01 0d b2 3c 38 54 af 3d 40 fc b3 bc a0 97 b1 3d
       0.021734716 0.08560985 -0.021970868 0.08671498
000390 5d 12 cf 3d 00 12 7b bc 15 78 52 3e da a3 82 3e
       0.101109244 -0.015324116 0.2055362 0.25515634
0003a0 a2 46 65 bd 87 8b 12 3e c9 a6 f7 bc de 73 68 3d
       -0.055975564 0.14311038 -0.030230897 0.056751125
0003b0 8c cd 34 3e 4a d4 b5 3d 57 f2 14 3e a5 c4 0d 3d
       0.17656535 0.088783816 0.1454557 0.034611363
0003c0 06 6c 85 3e d8 b0 11 3c 24 f2 ff 3d d5 58 e1 3d
       0.26058978 0.0088922605 0.124973565 0.110032715
0003d0 db 65 59 3e bd 27 e1 3d 54 3b 4b 3e 6e bb 0c 3e
       0.21230261 0.109939076 0.1984685 0.13743374
0003e0 4d 83 51 3e 9d c2 c0 3d b8 7e 1a 3e b8 53 88 3e
       0.20460244 0.094121195 0.15087402 0.26626372
0003f0 9e 77 0c 3d 35 71 a3 3c d1 7e 61 3e 43 50 23 3e
       0.034293763 0.019951442 0.22021033 0.15948586

encoder.convs.0.lin_l.bias f4 [16]
000000 6f 7b a2 3d 1e d7 92 bb c0 f0 81 bd 91 77 b1 3e
       0.07933699 -0.0044812104 -0.063447475 0.34661534
000010 36 ac f3 3d a5 2e 68 bc cf 00 d4 bd ae fe 2d 3e
       0.11898081 -0.014171277 -0.10351717 0.16991684
000020 32 87 24 3e 16 a1 19 3e 07 c3 93 bd 54 44 f0 3d
       0.16067198 0.15002856 -0.07214933 0.117317826
000030 f0 51 86 bb cb 36 93 3e af ed 2b be ec ca 90 3c
       -0.004099123 0.2875274 -0.16789888 0.017674886

encoder.convs.0.lin_r.weight f4 [16, 32]
000000 87 e6 27 bc a0 a1 a3 3e 82 d4 a3 3e a7 3a 0b 3c
       -0.010247833 0.31959248 0.31998068 0.0084978705
000010 36 8c 97 3e 1e 89 54 3d c4 2e a2 bb 90 47 7a 3e
       0.2959916 0.051888578 -0.0049494226 0.24441361
000020 21 e3 84 3e 53 e2 84 3e 44 ee 42 3e 88 71 a8 3e
       0.25954536 0.25953922 0.19036204 0.32899117
000030 43 1d e7 3b c5 ae 76 3e d9 99 d3 3d 4b 1a 2c 3e
       0.007053049 0.24090107 0.103320785 0.16806905
000040 18 01 90 3e 95 22 06 3d 96 7d 72 3e 1f 03 fe 3d
       0.28125834 0.032747824 0.2368072 0.12402939
000050 ce 1f 8c 3e a6 68 1e 3e f6 f8 7c 3e 88 6c a8 3e
       0.27368015 0.15469608 0.24704346 0.32895303
000060 4c 0f c5 3d 6a 66 72 bc cb f4 a6 3e 3f 00 7e 3d
       0.09622058 -0.014794925 0.32608637 0.062011953
000070 d2 87 4c 3e 48 df 89 3e 28 0d 07 3e 26 51 98 3e
       0.19973686 0.26928163 0.13188612 0.2974941
000080 d1 f8 8a 3e bf 5f f8 3d b6 17 50 3e 97 59 2e 3e
       0.27142957 0.12127637 0.20321545 0.17026363
000090 7a dc a8 3e a3 fa 8e 3e 71 42 20 3d bc 12 32 3e
       0.3298071 0.27925596 0.039125863 0.17389959
0000a0 1f 22 81 3e f7 82 95 3e ea 6f 5e 3e b2 8c 6d 3e
       0.25221345 0.2920148 0.2172238 0.23198202
0000b0 0a 6b fe 3d d7 8e 24 3e 30 63 0d 3d f7 d3 9a 3e
       0.1242276 0.16070114 0.03451842 0.3023984
0000c0 68 96 97 3e 85 d0 73 3d a4 e3 b4 3b 1a e5 96 3e
       0.29606938 0.05952503 0.005520301 0.29471666
0000d0 62 b4 44 39 d4 5c 8a 3e f3 03 7b bc 5b 2b 88 3d
       0.00018759214 0.27023947 -0.015320766 0.066488944
0000e0 48 fa a7 3d c6 60 a5 3e 01 00 02 3e 96 63 9e 3e
       0.08202034 0.32300395 0.12695314 0.30935353
0000f0 a3 39 55 3e 35 00 a8 3e f0 43 8c 3e 7e f9 92 3e
       0.20822768 0.32812658 0.27395582 0.28705972
000100 03 07 8a 3e 64 80 81 3d 17 ed 88 3d 6f 8f 30 3e
       0.26958475 0.06323317 0.06685846 0.17242216
000110 b0 d9 8a 3e b9 77 4e 3d 42 45 c1 bc 76 f7 ba bc
       0.27119207 0.050407145 -0.023592595 -0.022823077
000120 06 69 0a 3d 56 1e 13 3e 4f 92 c2 3d 37 eb 8b 3d
       0.033791564 0.14367041 0.095005624 0.06831973
000130 0f 6e 06 3d 81 51 25 3e 80 00 f7 bc 6a 29 94 3e
       0.032819804 0.16144373 -0.030151606 0.28937846
000140 0e 66 b4 3d 9f 02 18 3e bf dd 31 3e a3 33 3f 3d
       0.08808528 0.1484475 0.17369746 0.046680104
000150 d6 8b 82 3e 99 c8 e9 3d 79 15 05 3e 10 5c 58 bd
       0.2549731 0.11415214 0.12996472 -0.052822173
000160 fe a3 0c 3e c7 58 34 3e 74 75 0f 3e 52 96 c8 3d
       0.13734433 0.17611991 0.14009649 0.09794296
000170 ba eb 7e 3e 81 ac 82 3e ee db 72 3e 7d a1 ad 3d
       0.2489461 0.25522235 0.23716709 0.08478067
000180 e6 2b 2b 3e 05 2d 58 3c 52 44 8c 3b 65 87 d8 3d
       0.16715965 0.013194327 0.0042806054 0.105726995
000190 88 22 20 3e 8c dd 09 3d 54 19 33 bc 29 40 5e 3e
       0.15638173 0.03365855 -0.010931332 0.21704163
0001a0 a6 15 4e 3e 69 6a a2 3c ed 2d 82 3e fb 18 93 3b
       0.20125446 0.019826131 0.25425664 0.004489062
0001b0 09 6b 8a 3e 2f 11 6c 3e 29 72 9d 3d 25 1f 9c 3e
       0.27034786 0.2305343 0.0768779 0.3049251
0001c0 a5 0e 19 3d 00 db 64 3d 46 17 8e 3e 51 83 ba 3d
       0.03736748 0.055872917 0.2775213 0.09107078
0001d0 75 94 85 3d 3b e9 27 3e d0 a0 da 3d 3f f1 7d 3e
       0.065224566 0.16397564 0.10675204 0.2479906
0001e0 7f d8 8f 3e 23 6c 5c 3e d2 0c 33 3e 60 60 39 3e
       0.2809486 0.21525626 0.1748536 0.1810317
0001f0 47 9d 10 3e ea 28 21 3e ca 56 0f 3e 43 ab 83 3e
       0.14122497 0.15738264 0.13997951 0.257166
000200 45 af 60 3e 55 82 d2 3d 1b d0 3f 3e 70 77 05 3e
       0.2194186 0.10278765 0.1873173 0.13033843
000210 a6 6c 3b 3e 62 09 88 3e b1 7c 96 39 f8 2d 15 3e
       0.18303165 0.2656966 0.00028703132 0.14568317
000220 3d 97 ab 3d ee 0c 56 bd b3 c8 51 bd 3a 81 c7 3d
       0.08378456 -0.052258424 -0.051216792 0.09741445
000230 b2 03 7d 3e 97 fd 82 3b 82 6b 36 3e 2b c9 63 3e
       0.24708441 0.0039975154 0.17814448 0.22244708
000240 8e c8 07 bc 5a 32 49 3e 9c 9e 1d 3e c6 63 25 bd
       -0.008287562 0.19648114 0.15392536 -0.040378354
000250 e1 f2 ef 3d 4e f3 39 bd 5d dc 8c 3e af 4b 50 3e
       0.11716247 -0.04539805 0.27511874 0.20341371
000260 be d0 40 3e 02 37 83 3e 54 f2 82 3e d5 94 97 3e
       0.18829629 0.25627905 0.25575507 0.29605737
000270 f9 23 46 3e 25 96 e7 bb f2 cb 91 3e 5c bd 2d 3e
       0.1934966 -0.007067459 0.2847591 0.16966766
000280 bf 83 0d 3e d3 80 11 3e ca 20 bf 3e ac 15 7d 3e
       0.13819788 0.14209299 0.37329704 0.24715298
000290 c7 38 ac 3e 6a fd 62 3e b4 0a be 3e 27 d4 a0 3d
       0.33637068 0.22166982 0.3711754 0.07852965
0002a0 fc 01 80 3e 98 08 80 3e d0 c8 52 3e 32 f3 ba 3e
       0.25001514 0.25006557 0.20584416 0.36513668
0002b0 37 39 79 3e 9f ad 5e 3e 15 36 a8 3e e0 94 46 3e
       0.24338232 0.21745919 0.3285376 0.19392729
0002c0 31 2d 49 3e 3d 83 7e 3d ab af 53 3e 7a 60 00 3e
       0.19646145 0.062136877 0.20672481 0.12536803
0002d0 ca d6 9e 3e 3b 2c b9 3e c9 f8 2f 3d ab 0b d8 3d
       0.31023246 0.36166558 0.04296187 0.105491005
0002e0 38 93 c1 3e f6 9b 07 3e ae ed ba 3e 34 8c c3 3e
       0.37807631 0.13243088 0.3650946 0.38192904
0002f0 95 79 27 3e f0 ac 84 3d 27 b1 97 3e 21 94 93 3e
       0.16354974 0.06478298 0.29627344 0.2882395
000300 7e 6a 62 3e af 80 be 3d 2d 89 27 3e 83 36 ac bd
       0.22110936 0.09301888 0.16360922 -0.08408835
000310 a3 1b bc 3d f6 6b df 3d d0 8f 36 3e 6c 57 de bc
       0.09184959 0.10909264 0.17828298 -0.027141295
000320 88 e5 3d 3d c7 2b 1b bd b9 e2 52 bd 8c 76 10 3e
       0.046361476 -0.037883546 -0.05148575 0.14107722
000330 aa 6b c1 3d a0 08 0d 3e 30 f8 81 3d e3 51 81 3d
       0.094443634 0.13772821 0.06346166 0.06314447
000340 f4 9f 78 3d ea e2 26 3e a5 97 60 bd 7b 41 d8 3d
       0.06069942 0.16297498 -0.05483212 0.105593644
000350 95 5d 28 3e 93 18 2e 3e 81 15 8e bc e5 48 51 3e
       0.16441949 0.17001562 -0.017344238 0.20437963
000360 83 24 4e bd 38 7f 23 3e 44 2e 59 3e 66 d4 95 3d
       -0.05032779 0.15966499 0.21209055 0.073159024
000370 8e 20 f9 3d d6 c0 cc bd 53 d0 1f bb 86 e8 00 bb
       0.121644124 -0.09997718 -0.0024385646 -0.0019669845
000380 9a 39 2c be b2 17 28 bd cf 5d f5 3d 18 c9 a7 bc
       -0.16818848 -0.041038223 0.11980783 -0.020481631
000390 7e 30 2f 3e 8c a3 26 be af 01 89 3d eb d6 18 3e
       0.17108342 -0.16273326 0.06689774 0.14925735
0003a0 e8 40 2c 3e e5 d1 93 bd 72 22 27 be db 71 8c bd
       0.16821635 -0.072177686 -0.16321734 -0.06857654
0003b0 5b 80 02 3e 8b ba 42 3c 19 54 29 3e c1 dd 07 be
       0.12744276 0.011885296 0.16535987 -0.13268186
0003c0 fe 14 ea bd 8b 20 b1 3d fc 82 69 3d f0 96 f2 bd
       -0.11429785 0.08648785 0.057009682 -0.11845195
0003d0 29 b7 24 3e 2c 01 93 bd 84 22 1a be 8f 77 3a 3d
       0.16085495 -0.07177958 -0.15052229 0.045524176
0003e0 cf 34 d2 bd 92 aa b3 bd d3 a0 d1 bd 7c 2e 36 3d
       -0.10263979 -0.08772768 -0.10235753 0.044477925
0003f0 a3 3b a2 3d 6d 1d ec 3d e2 3e d4 bd f1 fb 37 bd
       0.07921531 0.1152905 -0.103635564 -0.044918004

encoder.convs.1.lin_l.weight f4 [16, 16]
000000 b1 d3 8c bb 09 93 37 3e ad 70 63 3e 89 c6 ac be
       -0.0042976965 0.17927183 0.22210951 -0.3374522
000010 54 d5 ac bc 40 5d 99 3e 62 0c 09 3e d8 3f 5c bd
       -0.021097817 0.29953957 0.1338363 -0.053771824
000020 ef 7f 5b bd 10 86 2d be e8 c8 83 3d fd de 9c 3d
       -0.053588804 -0.16945672 0.06434804 0.07659719
000030 6b 18 85 3e fd da c1 bc a4 fc 85 bd c1 54 14 3e
       0.25995192 -0.023663992 -0.06542328 0.14485456
000040 fb 9b bc 3c 1b ec a2 3e 04 c0 98 3e 52 e6 ba 3d
       0.023023596 0.3182076 0.29833996 0.09125961
000050 9c a4 94 bd 85 cf 26 3e 89 44 9c 3e fb 39 12 3e
       -0.07257959 0.162901 0.30521038 0.1427993
000060 b2 ba 51 3e 9a 9f c5 bc f2 bf 21 be 95 c8 f0 bb
       0.20481375 -0.024123956 -0.15795878 -0.00734813
000070 85 6f 95 3d 49 6e 90 3e 50 ce 55 3d a9 95 04 3d
       0.07296661 0.2820914 0.052198708 0.03236929
000080 d4 7d 80 bf 90 68 63 be d1 30 95 bd 5b b4 66 3d
       -1.00384 -0.22207856 -0.072847016 0.056324344
000090 83 fd e4 3d 71 62 80 3e b0 da 98 3e 87 04 3a 3e
       0.11181166 0.25075105 0.29854345 0.1816579
0000a0 82 bd 67 bf b0 70 1c bf 36 34 af 3e c6 32 c5 39
       -0.9052354 -0.6110945 0.3421952 0.00037612597
0000b0 6e 75 bf 3d 26 57 a9 3e 6c 0b b4 bd 1b 44 5c 3e
       0.0934857 0.330743 -0.08791241 0.21510355
0000c0 3f 3f 89 bc 86 61 79 3d 98 70 b0 3d b5 f3 8c 3e
       -0.01675379 0.06088402 0.086152256 0.27529684
0000d0 76 bc 53 3e 28 13 2c be 6d 5d 1a 3e fe 8f 3d bd
       0.20677361 -0.16804183 0.15074702 -0.0462799
0000e0 35 f5 04 be a0 85 ba 39 02 cb a2 bc 5f f7 23 be
       -0.12984164 0.00035576243 -0.019872192 -0.16012333
0000f0 bf e1 6c be 3a 9c 09 be b0 da d2 3c 7f 13 1b 3e
       -0.2313299 -0.13438502 0.025739044 0.15144156
000100 6c 6b d8 be 48 42 dc bd dc d9 8c 3e ae 2a e7 be
       -0.42269456 -0.1075483 0.27509964 -0.4514975
000110 65 eb 1a be 84 e6 25 3e db 32 0d be 97 2c a5 3e
       -0.15128858 0.16201216 -0.13788931 0.32260582
000120 9b 31 74 bf 6a 3c 89 bf 77 ca b9 3e d0 0b 1f 3e
       -0.9538819 -1.0721562 0.3628728 0.1553185
000130 a9 f5 9f 3e d4 90 a4 3e 88 37 32 bd c0 68 af 3e
       0.3124211 0.32141745 -0.04350999 0.34259605
000140 a7 cd a0 be 43 17 9d bd 1b cc 1f 3e e3 b5 b7 bd
       -0.314069 -0.076704524 0.15605204 -0.08970239
000150 63 91 09 be 4d 02 a0 3e e6 ee 7c bd 47 db 5e 3e
       -0.13434367 0.31251755 -0.06175127 0.21763335
000160 e1 13 16 be 34 93 ff be 28 49 e4 3d 3e aa 4a 3d
       -0.1465602 -0.49916995 0.11146766 0.04947876
000170 88 50 93 3e 74 25 34 3d 24 38 67 3e 80 64 b1 bd
       0.28772378 0.04398103 0.2258001 -0.08661747
000180 9a 66 7c 3e 9c dd 82 3e 73 34 1f 3d 4f f3 a8 bc
       0.24648514 0.255597 0.03886838 -0.020623831
000190 b2 07 66 bd 08 6f 32 3e 61 28 38 3e 4f 82 ad bc
       -0.056159683 0.17425168 0.17984153 -0.0211803
0001a0 cb e3 9a 3e e1 db b4 3d 7c d8 85 3d a0 37 91 3e
       0.30251917 0.08831001 0.06535432 0.2836275
0001b0 4c 24 f3 3d 9c de 68 3e d4 e4 16 3e 26 45 92 bd
       0.118721575 0.22741169 0.14735729 -0.07142095
0001c0 ec 1c 02 3e 24 17 ae 3e c1 57 2e 3c 33 20 1e 3e
       0.12706345 0.3400203 0.010641039 0.1544197
0001d0 10 5f a6 3e 09 45 30 3e d4 ce 02 3e 9a b3 35 3e
       0.32494402 0.17213835 0.12774211 0.17744294
0001e0 36 67 98 bd d3 5c ad 3e d9 76 95 3e 7f d8 b0 3d
       -0.07441561 0.33859882 0.29192236 0.08635043
0001f0 a9 46 04 bc 2e 3a aa bc 80 b6 7e 3e 4c 02 35 bc
       -0.008073487 -0.020779695 0.24874306 -0.011047911
000200 2e e8 bd 3d cd b1 5c be ca 84 0e 3e 47 5c 21 3e
       0.092728004 -0.215522 0.13917843 0.15757857
000210 32 2e 01 3e 26 d0 60 3d bd 07 c3 3d 50 72 8d 3e
       0.12615278 0.054886006 0.0952296 0.27626276
000220 9c 7f cc 3d e2 29 38 bd 7d c7 df bd ef 2a 76 3e
       0.09985277 -0.044961818 -0.10926721 0.24039815
000230 4e 01 ac bc 3f ec 6f 3e e0 cc 4d bd f8 9f 97 3d
       -0.020996716 0.23429964 -0.050244212 0.074035585
000240 c8 e6 61 bf 33 51 b5 be 19 8d 24 3e 4e a2 04 bf
       -0.8824277 -0.35413513 0.1606945 -0.5181016
000250 35 7b ac bb e3 64 9c 3e 1a a5 c1 3e dc 85 b1 3e
       -0.005263711 0.3054572 0.37821275 0.3467244
000260 fb f9 62 bf 7f 91 52 bf 84 49 4e 3d 77 38 8c 3e
       -0.8866269 -0.8225326 0.05036308 0.2738683
000270 51 a6 6b 3e 9d ed d1 3e 30 4d 1f bd da 2b eb 3e
       0.23012663 0.41001597 -0.03889197 0.45931894
000280 84 a1 77 3d 85 bb f4 3d 89 24 a1 bc 8d 4f a3 bd
       0.060456768 0.11949829 -0.019670742 -0.079741575
000290 be 82 5d be 5d 4b 70 be db 50 f4 3d 8e 54 e4 bd
       -0.21631905 -0.23466249 0.119294845 -0.1114894
0002a0 3b 16 4e bd e9 6f e0 3d 59 2a aa 3e 8a cb 6d bc
       -0.05031417 0.10958845 0.33235434 -0.0145138595
0002b0 dc 3f 85 3e d0 b6 9f 3d 30 eb 4c bd b5 5b 62 3d
       0.26025283 0.077985406 -0.05002898 0.05526324
0002c0 38 28 e8 bd 00 22 8c 3d 00 61 b1 ba a0 76 f9 bd
       -0.11335796 0.068424225 -0.0013532937 -0.12180829
0002d0 b8 d4 22 3e e8 ba e4 bd 20 62 2d be 08 bd b1 3d
       0.15901458 -0.11168462 -0.16931963 0.08678633
0002e0 a0 85 7b bc da ec 0c be 18 fb 50 be 8c 66 99 bd
       -0.015351683 -0.13762227 -0.20408285 -0.074902624
0002f0 bc 02 44 be c4 3c 0b 3e 00 19 ff bc cc da 03 3e
       -0.19141668 0.13597399 -0.03113985 0.12876433
000300 68 39 f9 3d 67 f8 95 3c f2 9f 3c bd e0 07 04 be
       0.121691525 0.018306924 -0.046050973 -0.12893629
000310 ca 5b 48 3d e9 92 66 be 99 e2 04 be c7 e7 43 3e
       0.048915662 -0.2251698 -0.12977065 0.19131385
000320 68 c1 46 bd 68 85 4e 3e 14 a7 0f 3e 18 27 78 bd
       -0.04852429 0.20168078 0.14028579 -0.060584158
000330 54 41 56 be 0f 81 45 3e 10 87 ac 3c a9 a6 69 3e
       -0.20923358 0.19287513 0.021060497 0.22817482
000340 b6 6e 96 be 75 68 da bd b7 cd fa bd 1a 53 81 3e
       -0.2938134 -0.10664455 -0.12246268 0.25258714
000350 d7 35 1e be 67 12 1b be a1 e2 f4 3d 6c a7 b4 3e
       -0.15450226 -0.15143739 0.119572885 0.35283983
000360 08 5d 2a 3e b4 dd 06 3d 63 38 c2 3e 49 8a d9 3d
       0.16637051 0.032926276 0.37933645 0.10622079
000370 8a 55 29 bd f7 92 90 3e 20 ab 36 3e 3b 2c b1 3e
       -0.041341342 0.28237125 0.17838717 0.34604058
000380 c2 52 49 3e ee f7 6d 3e 50 e4 bd bd 40 3d 13 3d
       0.19660476 0.23239109 -0.09272063 0.035947084
000390 90 d4 ba bd e8 4d 08 bd 88 65 4a 3e 02 46 4a be
       -0.09122574 -0.033277422 0.19765294 -0.19753268
0003a0 14 e5 0b 3e 92 e9 13 be 00 b2 b3 3a c0 d6 f3 bc
       0.13661605 -0.14444569 0.0013709664 -0.029765487
0003b0 78 9e e6 bd b0 a4 ae 3c ce ad 01 be e4 de 67 3e
       -0.11260694 0.021318763 -0.12663957 0.2264362
0003c0 ec b3 1c bf b8 8a f6 3c 80 89 0c 3c 6f af f7 3c
       -0.6121204 0.030095443 0.008577704 0.03023502
0003d0 53 a3 80 3e 36 21 61 3c a9 6c 95 bc bc 1d ca 3d
       0.25124606 0.013740828 -0.01824029 0.09868953
0003e0 e3 52 4f be 93 b3 7b be 9b f9 2b 3d af d4 9c bb
       -0.20246463 -0.24580221 0.04198609 -0.004786096
0003f0 8b 3e 60 3e af 28 57 3e d2 46 62 3e 5b 8e f6 3d
       0.21898858 0.21011613 0.22097328 0.12038871

encoder.convs.1.lin_l.bias f4 [16]
000000 6f 16 be bd 1d 1c f4 bc d4 73 ef 3c 28 b4 5e bd
       -0.092816226 -0.029798562 0.029230036 -0.05437103
000010 4f 13 81 bd f9 45 a7 bd 6a 54 ce 3d de 5a 2f 3e
       -0.06302511 -0.08167643 0.100746945 0.17124507
000020 35 7f 7a 3e 7c 26 62 be 57 34 8f 3e 98 4e 4e bd
       0.24462588 -0.22084993 0.2796962 -0.05036792
000030 cd d2 80 be 6d 30 bc 3e 10 24 11 be 85 a3 ce bc
       -0.25160828 0.36755696 -0.14173913 -0.025224457

encoder.convs.1.lin_r.weight f4 [16, 16]
000000 8b 27 88 3e ee 55 59 3e c4 be 8f 3e a8 42 b0 bd
       0.2659267 0.21224186 0.2807523 -0.08606464
000010 a5 2c 5e 3e b1 5b 58 3e 09 87 62 3e 70 7e e0 bd
       0.21696718 0.21128727 0.22121824 -0.10961616
000020 d6 d4 49 3e d3 d9 7e 3e 81 88 3c 3e bc 18 9d bd
       0.19710097 0.24887781 0.18411447 -0.07670733
000030 cf 27 86 be 6c 51 a7 be 08 9f 07 3d 05 da 81 be
       -0.26202247 -0.32679307 0.03311065 -0.25361648
000040 37 f5 82 3d 04 43 c0 bb 56 1b 32 3e 30 f6 bd bd
       0.06394427 -0.005867364 0.1739324 -0.09275472
000050 83 f4 86 3e 05 57 ff bd 06 8b 69 bc 53 ed 00 3e
       0.26358423 -0.124677695 -0.014254337 0.12590532
000060 f6 c5 15 be aa 68 2f 3e 28 8e d3 3c 6f b7 c3 bc
       -0.14626297 0.1712977 0.025824621 -0.023891179
000070 3c 4c 8e 3e 1d 26 9e 3c 20 12 72 3d 41 59 a9 3c
       0.27792537 0.019305283 0.059099317 0.020672442
000080 18 57 77 3e 2f a7 ab 3e 51 c5 af 3e 0c 71 9a bc
       0.24154317 0.33525988 0.34330228 -0.018852733
000090 d2 ac 12 be d0 49 ac bd de 98 10 3e 99 2c a8 3d
       -0.14323738 -0.08412516 0.14120814 0.08211631
0000a0 af 86 7f 3e 86 25 6c 3e d4 c8 44 bf 98 09 b4 bd
       0.24953721 0.23061189 -0.7686894 -0.08790892
0000b0 92 2f af be 88 f0 88 bf 0c b3 46 3e be db b1 bf
       -0.3421598 -1.0698404 0.19404238 -1.3895185
0000c0 7a 2f 92 3e e6 f6 f8 3d 8c fb 6a 3e 41 9d ae 3e
       0.28551847 0.12156467 0.2294752 0.3410435
0000d0 85 44 9c 3e 61 7d 92 3e 63 9a a6 bc a8 d9 dd bd
       0.30521026 0.28611282 -0.02033729 -0.1083253
0000e0 4d fb 60 3e 8a f2 a7 3e 37 a2 ab bd 3c fd 1d 3c
       0.21970864 0.3280223 -0.083805494 0.009642895
0000f0 f2 27 67 bd c5 d4 01 bd f8 d7 f5 3d bb a6 ac be
       -0.05643458 -0.031697053 0.120040834 -0.33720955
000100 1f 9e c6 3e 9a 3f 0f 3e a7 01 e6 bc 4f 28 71 3d
       0.38792512 0.13989106 -0.02807696 0.058876332
000110 68 e3 12 bd bb 58 f6 bd ef 73 8a 3d 14 8a 3a be
       -0.035861403 -0.12028643 0.06760394 -0.18216735
000120 ae 0b 4e 3d 39 70 07 3e d4 98 de be f9 b1 52 3e
       0.050304107 0.13226403 -0.43475974 0.20575704
000130 35 d5 db be dd 27 66 bf 80 99 5f bb 27 1c 74 bf
       -0.42936102 -0.89904577 -0.0034118593 -0.9535546
000140 ea 22 bc 3e 85 d4 23 3c b2 9b ac 3e 20 d6 99 3e
       0.36745387 0.009999399 0.33712536 0.30046177
000150 54 8d ef 3d d8 10 99 3e d9 ba e8 bd b6 c5 e6 bd
       0.11696878 0.29895663 -0.11363763 -0.11268179
000160 b6 c5 97 bd 68 da ef bb ef 3b b7 3e 1d f0 90 3e
       -0.07410757 -0.007319737 0.35787913 0.28308192
000170 47 f2 89 be 2f 1f 23 bf 20 8a 0f be 57 67 2f bf
       -0.26942655 -0.6371946 -0.14017534 -0.6851706
000180 89 ff 0c be 08 39 04 be ce 9b 4b 3d 51 ac 98 3e
       -0.13769354 -0.1291238 0.049709134 0.29818967
000190 b6 c7 f4 3d 38 9b 90 bc 32 de 8e 3e 92 20 80 3e
       0.11952154 -0.017652139 0.27903897 0.2502485
0001a0 78 a7 72 3e 94 01 99 3d e0 6e 14 3e 4f 97 80 3e
       0.23696697 0.07471004 0.1449542 0.2511544
0001b0 2d 10 72 3e 6b 8b 9f 3e 12 60 38 3e e8 a5 a9 3d
       0.23638983 0.31161055 0.18005398 0.08283597
0001c0 86 3e 12 3e 3c 7f 80 3a dd a2 b6 3e bb c3 16 3e
       0.14281663 0.0009803544 0.3567113 0.14723103
0001d0 9b a0 7f 3e 21 57 71 3e 40 2c a1 3e cb f9 46 3b
       0.2496361 0.23568393 0.31479073 0.003036129
0001e0 b9 af 2b be 7b cf ea bd c9 dd 42 3c 02 b6 98 3e
       -0.16766252 -0.11465355 0.011893698 0.2982636
0001f0 f5 a4 08 3e d7 5c 9c 3d a0 64 e5 bd b0 56 bb bd
       0.13344176 0.07634895 -0.11200833 -0.09147394
000200 a6 dd f0 3d 2b 7b 9e 3e 52 20 93 3e c8 2d 92 3e
       0.11761026 0.30953345 0.28735596 0.28550553
000210 00 7f 87 3e 2b 34 4c 3e 54 87 9c 3d 16 87 22 be
       0.2646408 0.19941776 0.07642999 -0.15871844
000220 15 5c 94 3e 37 3b 83 bd d6 fc 0b be c6 85 56 3e
       0.28976503 -0.06407779 -0.13670668 0.20949468
000230 c7 99 1c 3e 06 45 3d be 2c 03 22 3e ac 2e 5c be
       0.15293036 -0.18483362 0.15821522 -0.21502179
000240 b3 6d bd 3e 3b 86 bf 3e 57 bc 9f 3e 6f c4 0a 3e
       0.36997756 0.37407097 0.3119838 0.13551496
000250 01 25 90 3d e9 24 e7 3e 18 78 7c 3e 1a 80 82 be
       0.07038308 0.45145348 0.24655187 -0.2548836
000260 ed 3b 02 3f b1 2c 73 3e 48 ee 39 be c9 96 9c 3e
       0.5087269 0.23747517 -0.18157303 0.3058379
000270 0a e6 c3 bd 7f 41 a3 bf 00 33 a5 3a 3f b9 8b bf
       -0.09565361 -1.2754363 0.00126037 -1.0915908
000280 15 49 cb bb ae a9 60 3d 0c 01 bc 3d 34 d5 81 3e
       -0.0062037804 0.05484932 0.09179887 0.25357974
000290 6c f0 b8 bd 42 26 5c 3e b1 c9 29 3e 02 08 67 bd
       -0.09030232 0.21498969 0.16580845 -0.05640412
0002a0 32 bd c0 3d 63 5d 37 3e a2 94 06 bf 01 94 87 3e
       0.09411086 0.17906718 -0.52570546 0.26480106
0002b0 0b ea 35 be 08 f0 c5 be 38 bc f2 3d 36 36 a8 bd
       -0.17765062 -0.38659692 0.11852306 -0.08213465
0002c0 84 e7 ec bd 42 09 3c be 02 f7 76 be 7a c4 55 be
       -0.115675956 -0.18362907 -0.24117664 -0.20875731
0002d0 78 43 57 bd 20 bd 46 be e0 ca ce bc ac 3f 07 be
       -0.052554578 -0.19408083 -0.025243223 -0.13207883
0002e0 e6 0e 11 3e 44 1b 2f 3e ce 93 58 3e 66 df 27 be
       0.1416584 0.17100245 0.21150133 -0.16393813
0002f0 8e a9 34 be 80 9c b1 3d 98 d7 69 bd 42 25 42 3e
       -0.17642805 0.08672428 -0.05709037 0.18959525
000300 1a f5 6d be d3 91 6b 3e fa 90 31 be fc 4c 52 be
       -0.2323803 0.23004846 -0.1734046 -0.2053718
000310 d4 24 fd bc d3 30 e4 bd 5c 61 21 be 00 70 0d 3e
       -0.03090135 -0.11142125 -0.15759796 0.13812256
000320 60 4a 41 3e fa 04 0b 3e 00 fb f9 3c 9e 4f 26 bd
       0.18876028 0.13576117 0.030515194 -0.040603273
000330 5c ad 0b be 3b bb 70 3e 80 6e 0b be 78 74 60 be
       -0.1364035 0.23508923 -0.13616371 -0.2191943
000340 9c 53 c2 3e 3e da e1 3d d6 c8 89 3e f9 1b dc 3d
       0.37954414 0.110279545 0.26911038 0.10747523
000350 67 03 af 3e 9b fe 8a bd ac 33 30 3e 6d 3d a6 3e
       0.34182283 -0.067868434 0.17207211 0.3246874
000360 df b8 36 3e 1f 5b b0 3e 33 94 8c be e7 8e b4 bd
       0.1784396 0.3444452 -0.27456817 -0.08816319
000370 90 be 58 b9 f2 30 c7 be 20 b9 00 3c 31 58 af be
       -0.00020670355 -0.3890453 0.007856637 -0.34246972
000380 b4 c5 f3 bd 88 8e 98 bd f4 f8 c6 bd aa 2c 7c be
       -0.11902943 -0.07449061 -0.09715453 -0.24626413
000390 a8 4d fe bd fe 33 6d be 12 05 56 be d6 67 7f be
       -0.124171555 -0.23164365 -0.20900372 -0.24941954
0003a0 1c 79 13 be 40 76 65 bd c8 9f 66 3e 72 19 34 be
       -0.14401668 -0.056020975 0.22521889 -0.17587832
0003b0 f4 ab 42 be 66 66 50 be 6e 7f 6f 3e 50 f4 02 bd
       -0.19010907 -0.20351562 0.23388454 -0.031971276
0003c0 65 b0 8d 3d f3 0b 83 3e e3 3c a1 bc 3d 42 9c 3d
       0.0691841 0.25595054 -0.019682353 0.076298214
0003d0 d9 d7 b2 3e 0e a2 77 3e 67 03 ba bd 68 2c 77 bd
       0.34930304 0.24182913 -0.0908268 -0.060345083
0003e0 f8 4b 20 3e ba df 68 3e 64 af 6f bf 31 61 98 3e
       0.1565398 0.22741595 -0.93627 0.2976165
0003f0 e2 0a b9 bd 8c 4b 8e bf f4 31 89 3d 2e 23 a1 bf
       -0.09035279 -1.1116805 0.06698981 -1.2588861

encoder.convs.2.lin_l.weight f4 [16, 16]
000000 76 41 c8 bc 4f 14 51 be 32 54 c6 bd be fe 1d 3e
       -0.024445277 -0.20417903 -0.09684028 0.15429208
000010 7d 8e 6c be 99 6c b1 bd f3 8f a1 3d b2 74 89 bd
       -0.2310123 -0.086632915 0.07888784 -0.06711711
000020 86 0d cf 3d 2e 83 ed 3d 9e 56 05 3e 78 47 7b be
       0.10110001 0.11597286 0.13021323 -0.24538982
000030 00 16 4f ba 4b 03 69 bd e8 f0 91 3d aa 95 54 be
       -0.00078997016 -0.056887906 0.07126027 -0.20760217
000040 f0 b8 f2 bd 67 c7 d1 3d 04 6e 43 3e cf b1 0d 3d
       -0.1185168 0.10243111 0.19084936 0.0345934
000050 6b 64 14 3d 78 ed 90 3d 34 eb 79 bd ba c0 c3 3d
       0.03622858 0.070765436 -0.061015323 0.09558244
000060 e2 fb 98 3d 4d b4 be 3d 90 a2 41 3e 98 7a 98 3d
       0.07469918 0.093117334 0.18909669 0.07445258
000070 86 c3 0e 3e b0 ff 34 3c d0 2d dd bd 86 16 8e 3e
       0.13941774 0.011047289 -0.10799754 0.2775156
000080 96 75 a1 3e 33 bf 15 3e 00 61 98 3e d7 ef 89 3e
       0.31535023 0.14623718 0.29761505 0.26940796
000090 d6 b9 a8 3e fa 3b b2 3e 4d a7 33 be d9 75 2d be
       0.32954282 0.34811383 -0.17544289 -0.16939487
0000a0 61 b6 4d bd 4f ad 9c 3e 1a 69 a5 3e 30 99 85 3c
       -0.05022276 0.30600974 0.3230675 0.016308397
0000b0 c8 47 3d be a1 fd 26 bc 44 65 f3 3d 26 80 b5 3e
       -0.18484414 -0.010192306 0.11884549 0.35449332
0000c0 d3 2a 16 3e 5b 64 d5 bc 5c 11 af 3e 9a a5 b1 3e
       0.14664774 -0.02604883 0.34192932 0.34696656
0000d0 bb 0f 46 bc 93 d3 90 bc 91 cd 89 3e df a0 42 bd
       -0.012088711 -0.017679011 0.26914647 -0.0475167
0000e0 59 b4 a4 3e ae f9 2f 3d f2 f6 c2 3d 8e c3 08 be
       0.32168844 0.042962722 0.09519757 -0.13355848
0000f0 78 15 7d be a3 26 1c 3e 0c 6b b6 bd c7 58 28 bd
       -0.24715221 0.15249114 -0.08907136 -0.04110029
000100 e7 a6 a4 3e 2c d3 15 3e 8b 5b 7c 3d 44 40 ad bd
       0.32158586 0.14631337 0.06161074 -0.08459523
000110 fc df 96 bc c7 14 5e 3d 75 c7 5c 3e 6c c2 d9 bd
       -0.018417351 0.054219034 0.21560462 -0.10632786
000120 42 79 80 3e 69 ad b1 3e 65 57 36 3e fc 2c 7e be
       0.25092512 0.34702614 0.17806776 -0.24821848
000130 48 98 05 3d 71 5d d1 3b 60 f5 a1 3d 94 7b f1 3d
       0.03261593 0.006389313 0.0790813 0.11791149
000140 69 b6 6d 3e bd d7 be bd ba 36 23 3e 21 fb 5d 3e
       0.23214115 -0.093184926 0.15938845 0.2167783
000150 4b 10 a4 bd 12 d5 28 3e ab 84 32 3e 0d 9b 5d 3e
       -0.0801092 0.1648753 0.17433421 0.21641178
000160 2d 39 af 3d 1f cd 7f 3d e7 72 50 3e 4c 1e 61 be
       0.08555827 0.062451478 0.20356332 -0.21984214
000170 90 35 9a bd 22 3d 94 3e 28 c7 03 3d 90 5b d7 3d
       -0.075297475 0.2895289 0.032172352 0.10515511
000180 30 36 26 be 2e 21 52 bd 8f 70 35 3e 92 3f 8e be
       -0.16231608 -0.051301174 0.17718719 -0.27782875
000190 b5 d4 5e 3e bf ed 4b bf f4 1c 1d 3e f3 21 ff 3d
       0.21760829 -0.79659647 0.15343076 0.12457647
0001a0 fe 09 56 be 93 16 75 be 9f 8b 85 3e 30 0b f8 bd
       -0.20902249 -0.23934393 0.26083085 -0.12111509
0001b0 42 96 3c 3e eb 08 d5 3e 7c 81 69 be 6f 1b 15 bf
       0.18416694 0.41608366 -0.228033 -0.58244985
0001c0 64 f2 0a be 98 eb cf bd ee e1 5f be c0 7d 7e bd
       -0.13569027 -0.10152358 -0.21863529 -0.062131643
0001d0 c0 63 4b 3e 42 45 68 be a2 1b 2d be d8 15 60 bd
       0.1986227 -0.2268267 -0.16905072 -0.05470833
0001e0 30 9a 4a be d0 ad 3f 3d e8 7c 4b bd 74 a8 41 3e
       -0.1978538 0.04679662 -0.049679667 0.18911916
0001f0 0a 6c 7e be 20 20 09 3c 70 c6 e1 3d 18 ee 04 3d
       -0.24845901 0.008369476 0.11024177 0.032453626
000200 cd 02 85 bc 47 95 a7 3e 4a 85 f4 bd 4c b7 6d 3e
       -0.016236687 0.32731077 -0.11939485 0.23214453
000210 f1 72 3a 3e 8f 71 38 3e a7 03 79 3e ea 3b 8a 3d
       0.18207909 0.18012069 0.243178 0.06749709
000220 94 9d 84 3d 8c e3 42 3c 60 66 32 be 50 ae d7 3d
       0.06475368 0.011895072 -0.17421865 0.10531294
000230 f4 76 3f 3e c0 d4 15 3e 58 c7 1f bd c6 af 33 be
       0.18697721 0.14631939 -0.03900847 -0.17547521
000240 19 53 c0 3d 56 a5 24 3e c0 99 aa bd 44 ee 8f 3e
       0.093908496 0.16078696 -0.08330107 0.2811147
000250 9b 16 00 3e f1 85 44 3e af 95 8a 3e ba b9 1e 3e
       0.12508623 0.1919172 0.27067325 0.15500537
000260 da 0c a9 bd 0e 73 51 3e 3e 68 68 3e 20 72 ff 3d
       -0.08254404 0.20454046 0.22696015 0.124729395
000270 74 8d f0 bd cb c6 d0 3d 00 f1 37 be c1 6f 8f 3d
       -0.1174573 0.10194167 -0.17963028 0.07003737
000280 cd 20 4d be 57 1e 7d 3e 5c af 9e 3c 0b 09 d8 be
       -0.20032044 0.24718605 0.019370727 -0.421944
000290 4f 84 ae be aa 7d 42 bf 25 fa a9 bd 6b e2 a3 3e
       -0.34085318 -0.75973 -0.082996644 0.3200868
0002a0 b0 e1 29 be 5e 85 1e bf 48 20 76 bd 00 6e 59 ba
       -0.16589999 -0.6192225 -0.06008938 -0.00082942843
0002b0 1e 7d 3d be 9c de a3 3e 6a 90 7e 3e 5e 5a bb be
       -0.1850476 0.32005775 0.24859777 -0.36592382
0002c0 7c d5 b3 3d 07 64 1a 3e 92 b4 30 3d 1b e9 1a 3d
       0.08780953 0.1507722 0.043140955 0.037819963
0002d0 62 5f 40 be 0b 9c 8f 3d 19 11 62 be 47 80 e1 bc
       -0.18786386 0.07012185 -0.22076835 -0.027526988
0002e0 8f ed 21 be 75 d5 12 be 99 7e 1d be 18 da f7 bd
       -0.15813278 -0.1433924 -0.15380324 -0.12102145
0002f0 70 3f 18 be cc 00 0c be 9c 81 ba bd 68 25 6a be
       -0.1486795 -0.13672179 -0.09106752 -0.22865832
000300 0c 08 b4 3e 12 14 6a 3d ec 05 b8 bd a7 32 da bd
       0.3516239 0.057148047 -0.089855045 -0.106541924
000310 9c 07 ef 3c b1 fb 8c 3e 6d e2 2f 3e 95 e9 0b bc
       0.029178433 0.27535775 0.17176218 -0.008539577
000320 d3 ce 42 3e 23 6b e3 3c 3b 29 4c 3d d0 be 1e bd
       0.1902421 0.027761048 0.049844008 -0.03875619
000330 20 3d 79 be a2 f3 7e 3d 58 82 87 3d 7e be 98 3e
       -0.24339724 0.062244065 0.06616658 0.29832834
000340 03 30 6b be dd 20 00 be be d7 89 3c b6 3d f0 bc
       -0.22967534 -0.12512536 0.016826507 -0.029326301
000350 4e 8e b7 3d ed ee 5c be 6a 30 06 3e 8e 9a 8d be
       0.08962689 -0.21575518 0.13104406 -0.27656978
000360 72 c2 c1 bd 17 46 e1 3d d9 d1 80 bd 7c b3 f6 bd
       -0.094609156 0.10999697 -0.06290025 -0.12045953
000370 b2 8d 7c be b5 fb 48 3e 00 f1 b7 bb 4e 42 e1 3d
       -0.24663427 0.19627269 -0.0056134462 0.10998975
000380 9b b9 39 bd 5d cb b3 bd 2d ae 22 bf f8 26 19 3c
       -0.045343023 -0.08779023 -0.6354702 0.00934767
000390 28 ce 26 bf 4d d4 4e bf fa 9e 5d 3e ea 20 31 bd
       -0.6515832 -0.80792695 0.21642676 -0.04324428
0003a0 3d eb 16 3d 8a 43 42 bf aa c4 0f bf 10 55 d0 3c
       0.036845434 -0.75884306 -0.5615946 0.025431186
0003b0 b6 33 4b be 83 b4 34 bf 48 44 bc 3d 1f 33 32 bf
       -0.19843945 -0.7058794 0.09192711 -0.69609255
0003c0 c5 56 6c 3e dc be 8f 3d cf 82 0a 3d d5 60 18 bc
       0.23079975 0.070188254 0.033816155 -0.00930043
0003d0 ec 03 a5 3c 1f d4 64 3e 54 7c 78 3e 0c 8e 2a 3d
       0.020143472 0.22346543 0.24266177 0.041639373
0003e0 6b 69 e0 bd 33 bd 92 3e 1a ee 8b 3e b4 84 2e 3e
       -0.10957607 0.28659973 0.27330095 0.1704281
0003f0 c0 44 94 bb 8c e8 fa 3d 40 56 50 3c 2e 2f 93 bb
       -0.004524797 0.12251386 0.012715876 -0.0044917082

encoder.convs.2.lin_l.bias f4 [16]
000000 7f ca 7e be df 44 fd 3c ad b9 c3 3d 32 ad 83 3e
       -0.24881934 0.03091663 0.09556899 0.25718075
000010 13 10 18 3e 7a fc 1e 3e 8c fa 4b 3e d0 f6 45 bd
       0.14849882 0.15526 0.19919795 -0.048331082
000020 f3 02 2e 3e 08 a0 a8 bc 26 f4 82 bc e2 01 08 be
       0.16993313 -0.020584121 -0.01598556 -0.13281968
000030 88 0a 79 be 6c 35 0a be af 68 ad 3d a6 85 77 3e
       -0.24320424 -0.13496941 0.084672324 0.24172077

encoder.convs.2.lin_r.weight f4 [16, 16]
000000 cd d3 3d 3c e8 59 db 3c 6e e9 e8 bd 50 18 fa bd
       0.011586142 0.02677627 -0.11372648 -0.122116685
000010 47 e7 be bd c7 d9 7f 3d f9 e6 ce 3c 6c 10 e4 bd
       -0.093214564 0.062463548 0.02525662 -0.11135945
000020 3c 15 ef 3c 02 54 88 bd 02 70 23 bd 4e 85 35 3e
       0.02918493 -0.06656648 -0.03990174 0.17726633
000030 74 59 d5 bd ac 0b 5b 3e 0a 06 0c be be 1b 57 3e
       -0.104174525 0.21391171 -0.13674179 0.21006677
000040 1b 3a 01 3e 6e ef 4b 3e c9 ad 56 bf d1 d7 98 be
       0.12619822 0.19915554 -0.83858925 -0.29852155
000050 b6 64 87 be c6 6b bc bf a9 20 8b 3e 67 0c b3 3e
       -0.26444024 -1.472039 0.27173355 0.349704
000060 df 31 d9 3d 52 99 53 bf 73 67 1b 3d 80 66 19 bc
       0.10605215 -0.82655823 0.037940454 -0.009362817
000070 fa 49 5d be a2 5b 8c 3e fc c3 b1 3d 6e 98 b3 bf
       -0.21610251 0.2741366 0.08679959 -1.4030893
000080 22 e9 bd bd 58 57 e7 3b 01 ed 30 3d 7c 03 0c be
       -0.09272982 0.0070599727 0.043194775 -0.13673204
000090 a8 07 38 be 95 89 c4 3d 63 54 d0 3e 4a c4 9b 3e
       -0.1797167 0.09596554 0.40689382 0.30423194
0000a0 55 4c d1 3d d2 75 25 bd 54 2c 0f 3e 4a 57 62 3e
       0.10219637 -0.040395565 0.13981754 0.2210361
0000b0 c4 db e5 3d 4c cc e9 3c 00 ec 76 3d af 7f a2 bc
       0.112235576 0.0285398 0.06028366 -0.019836275
0000c0 9a 70 ea 3d dc 67 4d 3e be 15 9d bf 65 90 eb be
       0.11447258 0.2005915 -1.227226 -0.46008602
0000d0 80 5b 07 bf 54 6e ad bf a1 30 10 3e b5 1e 80 3b
       -0.5287399 -1.3549294 0.1408105 0.0039099106
0000e0 0e 6f 25 be 9c 99 72 bf d9 0e 11 3d e0 43 90 bc
       -0.16155645 -0.9476564 0.03541455 -0.01761049
0000f0 a0 ac 2b bd e9 dd 9b 3e 68 4d 58 bd 2f 65 c6 bf
       -0.041912675 0.30442742 -0.052808195 -1.5499629
000100 ef 12 4d be 4d b2 4d 3d 77 a1 94 bf f4 ac fc be
       -0.20026754 0.05021887 -1.1611775 -0.49350703
000110 8c 00 e7 be 17 6f 88 bf 24 0c bb 3e 34 b8 c6 3d
       -0.45117605 -1.0658902 0.365327 0.09703103
000120 cf 8f 5b 3e 04 2f 18 bf 88 54 a6 be d0 12 00 be
       0.21441577 -0.5944674 -0.32486367 -0.12507176
000130 b0 7b 8c bd 8a a6 25 bc f0 69 0f 3d db 20 a4 bf
       -0.06859529 -0.010110507 0.03501314 -1.2822527
000140 55 2b 6d be 8d 09 1b 3d 13 e4 99 be 41 05 91 3e
       -0.23161061 0.037850905 -0.3005682 0.2832432
000150 e5 05 6d 3d 63 9e 06 be 5b 4f a3 3e dc ac a0 bd
       0.05786695 -0.13146357 0.3189648 -0.0784547
000160 55 66 67 3e 1b 91 15 be 07 84 82 3d da e4 31 3e
       0.2259763 -0.14606135 0.063728385 0.17372456
000170 62 5e ee 3d 38 6e 15 3d 70 29 ec bc 81 7a 0d bd
       0.11639096 0.036482066 -0.028828353 -0.034540657
000180 d1 07 62 3e cf bc 09 3b 62 b3 35 bd cf 14 8b bc
       0.22073294 0.002101708 -0.044360526 -0.016977696
000190 b5 cd 0c bd d5 90 f1 bd 91 23 50 3c 9a 99 23 3e
       -0.034375865 -0.11795203 0.012703792 0.15976563
0001a0 d2 2c 6a 3d 41 a1 09 be c4 0c 0b 3e 68 8f bc bd
       0.05717165 -0.1344042 0.13579088 -0.0920704
0001b0 d6 0c 84 3d 91 11 c8 3b ea d4 36 3e 0b 40 59 bd
       0.06447761 0.0061056097 0.17854658 -0.05303959
0001c0 5c 09 d0 bd 50 fd 4b bd 00 e8 14 3b d4 9e f1 bd
       -0.10158035 -0.049802125 0.002272129 -0.11797872
0001d0 ac f3 2f 3e 62 40 09 be 10 fe 21 3d c6 8c 44 be
       0.17182797 -0.13403466 0.039548934 -0.19194326
0001e0 80 4c fe bc 10 a4 5c bd ac d4 cc bd 90 d3 05 3e
       -0.031042337 -0.0538674 -0.100015014 0.13068986
0001f0 c8 95 64 be e0 ce d6 3c c0 95 bf bc 54 23 05 be
       -0.22322762 0.026221693 -0.023386836 -0.13001758
000200 c2 ae 9b 3e 56 a1 49 3e 6d 84 3e 3e 33 78 c9 3c
       0.30406767 0.19690451 0.18605204 0.024593448
000210 5d 03 86 3e 70 dd 2f 3b 4d 6e 27 be 5a 88 96 3e
       0.2617444 0.0026834868 -0.1635067 0.29400903
000220 89 aa d8 bc d3 ba 2a 3e b9 ad 63 3d a8 84 57 3e
       -0.026448505 0.1667283 0.055585597 0.21046698
000230 30 a2 7e 3e c4 71 e9 bd 80 bd 2e bb 3a 63 e7 bd
       0.24866557 -0.11398652 -0.0026663244 -0.11298223
000240 c0 2b 85 3e cd a7 9b 3e 14 c7 05 3a 50 3f 0d 3e
       0.2600994 0.3040146 0.00051032123 0.13793683
000250 29 e4 62 bc 28 97 3d 3d 7e 61 81 3e e4 fe 29 be
       -0.013848343 0.046286732 0.25269693 -0.1660114
000260 2d 73 8e 3c 1c dc e8 3d 2b 09 2c be c8 87 d2 3d
       0.017388904 0.113701075 -0.16800372 0.102798045
000270 c4 b4 2a 3e 96 f2 19 be 24 1a c6 3d cb 71 b4 3d
       0.16670519 -0.15033945 0.09672955 0.08810767
000280 55 d5 af 3e 21 41 fe bd be 26 aa 3e 1e ca d1 3b
       0.34342447 -0.12414766 0.33232683 0.006402268
000290 31 fb af 3e 0d ae 21 3b 0d b5 04 3e 07 f0 08 3e
       0.3437133 0.0024670393 0.1295969 0.13372813
0002a0 4d 15 7c 3e ac ab 6b 3e 45 ed 7e 3e 90 8e 57 bd
       0.246175 0.23014706 0.24895199 -0.052626193
0002b0 d9 88 4a be 68 7f cd 3d 24 81 69 3e 2b ea a8 3e
       -0.19778766 0.100340664 0.2280317 0.32991156
0002c0 54 d1 43 be 85 9b 05 3e cf 56 8b 3d 0d 7d 80 bd
       -0.19122821 0.13047607 0.06803667 -0.062738515
0002d0 7e ce bb 3d cd c2 61 bd 14 2e 3f bc b3 4f 55 be
       0.09170245 -0.055117417 -0.011668701 -0.20831184
0002e0 83 db 95 bd 64 5c 4c 3e 17 0c e0 3d 40 e4 4e be
       -0.07317259 0.19957119 0.10939806 -0.20204258
0002f0 8a fd 67 bc 76 3b ee 3d dc 1a db bd e2 92 9c bd
       -0.0141595695 0.11632435 -0.106984824 -0.07645203
000300 94 ec e5 3d 56 f2 99 3e 1d ee 2c 3e e1 fa 41 be
       0.11226764 0.300677 0.16887708 -0.18943359
000310 1f 20 a7 be e1 d5 14 3e 98 3f 34 3d 82 eb 92 3e
       -0.32641694 0.14534713 0.04400596 0.28695303
000320 f3 6b 13 3e 82 84 fa bd d9 ca f4 3c 70 41 ac 3d
       0.14396648 -0.12232305 0.029881882 0.08410919
000330 34 45 b7 bd cb d7 1b 3e c0 0c a8 3c 26 d4 05 be
       -0.08948746 0.15219037 0.020513892 -0.1306921
000340 29 4f 7a be 8a 62 02 3e 1d 88 93 be 85 2d 92 3e
       -0.2444426 0.12732902 -0.28814784 0.28550354
000350 69 f2 63 be 50 49 12 bd d9 f4 12 3d 41 97 90 3e
       -0.22260441 -0.035714447 0.035878036 0.28240398
000360 25 3e 00 be a2 74 63 be bf 42 80 3e d0 ab f8 bd
       -0.12523706 -0.2221246 0.25050923 -0.12142146
000370 f0 6a bc bd 20 f2 52 3e 40 3b d4 bd e2 22 3a 3e
       -0.09200084 0.20600176 -0.103628635 0.18177369
000380 95 46 1d 3c 7f 17 5a 3e 84 4d c3 3e 51 b0 fa 3d
       0.009599348 0.21298026 0.38145077 0.12240661
000390 6b fc 6a 3d 05 91 8a 3e 26 50 cb 3d 2c fd 29 3d
       0.05736963 0.27063766 0.099273965 0.04150121
0003a0 90 08 9a 3e e0 08 c9 3d 65 57 41 3e 18 7c 98 bd
       0.30084658 0.09816146 0.18880995 -0.07445544
0003b0 b6 c2 39 bd 9c da ae 3d e0 cc 89 3c 40 2b 60 3e
       -0.045351706 0.0853779 0.016821325 0.21891499
0003c0 82 21 90 3e ab d1 62 3e 83 12 86 bc 50 4e 92 3e
       0.28150564 0.22150294 -0.016366249 0.28575373
0003d0 63 57 51 3e dd c2 4c 3e 7b e0 ae 3d 38 02 84 bd
       0.20443492 0.1999621 0.0853891 -0.06445736
0003e0 86 11 b4 bd a7 b4 c6 3d 29 30 da bd dc 9c b3 3d
       -0.08792405 0.097024255 -0.10653717 0.08770153
0003f0 28 63 68 be 99 5f 33 be 20 f8 e5 bd 65 75 60 3e
       -0.22694075 -0.17516936 -0.11228967 0.21919782

encoder.convs.3.lin_l.weight f4 [4, 16]
000000 6c c8 df 3c 88 66 91 be f7 76 46 be 10 3e 64 3b
       0.027317248 -0.28398538 -0.19381319 0.0034827031
000010 18 ae d0 bd bb 63 69 be 83 87 5c bd 74 16 55 be
       -0.10189456 -0.2279195 -0.05384017 -0.20809346
000020 8c a2 bf 3d 3c ae 38 3e 6b e6 85 3f dc 7a 5a be
       0.09357175 0.18035215 1.0460943 -0.2133593
000030 48 32 6c 3e 2f 46 41 3e 5c f0 8d 3f 1a c8 a7 3e
       0.23066056 0.18874429 1.1088977 0.32769853
000040 7e 10 a3 3d 2e 4c 18 be 15 43 e8 bd 8f 3a 24 3e
       0.0796213 -0.1487281 -0.1134092 0.16037963
000050 6b b7 37 be 2d 7d 49 3e 52 ca c1 3e 22 b5 70 3e
       -0.17941062 0.19676657 0.3784967 0.23506597
000060 9d e1 6d 3e e6 0d 4b 3e 55 a3 d6 bd 7e be 06 be
       0.23230596 0.1982952 -0.10480372 -0.13158605
000070 65 38 25 be a0 60 97 3e 2d 3f ff 3d b1 0d 1f 3e
       -0.16134794 0.29565907 0.12463222 0.15532567
000080 30 04 6d 3e 5d 9f 33 bd 90 64 98 3d 04 e6 19 be
       0.23146129 -0.043853153 0.07441056 -0.1502915
000090 4e 5e 05 3e 1b 03 4d be 41 1f 66 be cc e1 ad 3d
       0.13024256 -0.20020716 -0.2247286 0.08490333
0000a0 38 59 9f 3e 95 46 84 bc 4b af 85 3f bc be b5 bd
       0.31122756 -0.016146937 1.044412 -0.0887427
0000b0 44 f6 fe bd 81 30 20 3e 6a 95 76 3f d5 a0 51 bd
       -0.12449315 0.15643503 0.9632174 -0.051178772
0000c0 ee cf da 3e 45 fa 54 be ff 07 1c be b7 68 35 be
       0.42736763 -0.20798595 -0.15237425 -0.17715727
0000d0 1e f9 8a be a3 57 66 3e a1 8d 20 be f8 5a e6 bd
       -0.27143186 0.22494368 -0.15679027 -0.1124782
0000e0 04 4a 9e 3c 72 35 8e 3e f1 de 63 3f 34 83 bc 3d
       0.019322403 0.2777515 0.89012057 0.092047125
0000f0 f7 1f 85 3b db 5d 9f 3e a0 7c 54 3f e4 1c 9b 3e
       0.0040626484 0.31126294 0.8300266 0.3029548

encoder.convs.3.lin_l.bias f4 [4]
000000 c4 18 1d 3d 01 db 75 3e 5b 2a 20 3e 14 b1 04 3d
       0.038353696 0.24009325 0.15641157 0.032395437

encoder.convs.3.lin_r.weight f4 [4, 16]
000000 d9 b4 5a be 99 fe 9d 3f f7 ee 90 bc ab 4a 93 3f
       -0.2135805 1.2343322 -0.017692072 1.1507162
000010 77 a2 8b 3f b0 c7 8e 3e c3 95 61 be c6 04 56 be
       1.0908955 0.27886724 -0.22029786 -0.20900258
000020 3a b7 a8 3d bd b9 8f 3e 18 30 06 be 14 42 53 3d
       0.08238073 0.28071395 -0.13104284 0.05157669
000030 4b 1f a1 3e e2 e4 be bd b7 3f e3 bd 04 8c 61 3e
       0.31469187 -0.09321 -0.11096137 0.22026068
000040 b7 1a 72 3e 82 39 92 3e 12 49 91 3e b9 28 b1 3e
       0.23643003 0.285595 0.2837606 0.3460138
000050 c1 78 49 3e 52 6c 23 3d 2a 39 70 be 8c 9e f5 3d
       0.1967497 0.039898224 -0.23459306 0.11993131
000060 a8 53 e4 bd 02 5c 0b be 4f 9b 7f bd bc 8c e7 bd
       -0.11148769 -0.13609317 -0.062403973 -0.1130614
000070 35 1d d3 bd 6c 91 c0 bd f1 b1 00 3d 7e db 1d 3e
       -0.10308305 -0.09402737 0.0314197 0.15415761
000080 be 0b 2d 3d 6f f8 8f 3f be 8b 3a 3e e8 7c 6d 3f
       0.042247526 1.1247691 0.1821737 0.92768717
000090 fe e3 a4 3f 92 72 46 3e 17 b4 e4 3d 5c 56 64 be
       1.2882078 0.19379643 0.11167162 -0.22298568
0000a0 74 0d 04 3e de d9 1d 3e ef 6a ad be b1 59 64 3e
       0.12895757 0.15415141 -0.33870646 0.2229984
0000b0 c2 f9 2a 3d 8d 16 2a be e8 4e 0c 3e f5 15 5d 3e
       0.041742094 -0.16610165 0.13701975 0.21590407
0000c0 b9 16 76 3e 16 a9 41 3f b9 45 d8 3e 16 a9 7f 3f
       0.24032106 0.7564863 0.42240694 0.9986738
0000d0 37 a1 73 3f d9 0d bf bd 1d f1 41 be bc 87 78 3e
       0.9516787 -0.09328813 -0.18939634 0.24270529
0000e0 8d 7c 1b 3e 68 e2 a7 3e 08 d9 cb bd 6c a4 1d be
       0.15184231 0.32789922 -0.09953505 -0.15394753
0000f0 dc f5 30 3e fc fa 84 be b4 d8 69 be f4 d3 35 3e
       0.17281288 -0.25972736 -0.22836572 0.17756635
